<?xml version="1.0"?>
<net name="detokenizer" version="11">
	<layers>
		<layer id="0" name="Parameter_1359796" type="Parameter" version="opset1">
			<data shape="?,?" element_type="i64" />
			<output>
				<port id="0" precision="I64" names="Parameter_1359796">
					<dim>-1</dim>
					<dim>-1</dim>
				</port>
			</output>
		</layer>
		<layer id="1" name="Convert_1359986" type="Convert" version="opset1">
			<data destination_type="i32" />
			<input>
				<port id="0" precision="I64">
					<dim>-1</dim>
					<dim>-1</dim>
				</port>
			</input>
			<output>
				<port id="1" precision="I32">
					<dim>-1</dim>
					<dim>-1</dim>
				</port>
			</output>
		</layer>
		<layer id="2" name="Constant_1359798" type="Const" version="opset1">
			<data element_type="i32" shape="151665" offset="0" size="606660" />
			<output>
				<port id="0" precision="I32">
					<dim>151665</dim>
				</port>
			</output>
		</layer>
		<layer id="3" name="Constant_1359800" type="Const" version="opset1">
			<data element_type="i32" shape="151665" offset="606660" size="606660" />
			<output>
				<port id="0" precision="I32">
					<dim>151665</dim>
				</port>
			</output>
		</layer>
		<layer id="4" name="Constant_1359802" type="Const" version="opset1">
			<data element_type="u8" shape="976263" offset="1213320" size="976263" />
			<output>
				<port id="0" precision="U8">
					<dim>976263</dim>
				</port>
			</output>
		</layer>
		<layer id="5" name="Slice_1359807" type="Const" version="opset1">
			<data element_type="i32" shape="14" offset="2189583" size="56" />
			<output>
				<port id="0" precision="I32">
					<dim>14</dim>
				</port>
			</output>
		</layer>
		<layer id="6" name="VocabDecoder_1359809" type="VocabDecoder" version="extension">
			<data skip_tokens="" />
			<input>
				<port id="0" precision="I32">
					<dim>-1</dim>
					<dim>-1</dim>
				</port>
				<port id="1" precision="I32">
					<dim>151665</dim>
				</port>
				<port id="2" precision="I32">
					<dim>151665</dim>
				</port>
				<port id="3" precision="U8">
					<dim>976263</dim>
				</port>
				<port id="4" precision="I32">
					<dim>14</dim>
				</port>
			</input>
			<output>
				<port id="5" precision="I32">
					<dim>-1</dim>
				</port>
				<port id="6" precision="I32">
					<dim>-1</dim>
				</port>
				<port id="7" precision="I32">
					<dim>-1</dim>
				</port>
				<port id="8" precision="I32">
					<dim>-1</dim>
				</port>
				<port id="9" precision="U8">
					<dim>-1</dim>
				</port>
			</output>
		</layer>
		<layer id="7" name="FuzeRagged_1359810" type="FuzeRagged" version="extension">
			<input>
				<port id="0" precision="I32">
					<dim>-1</dim>
				</port>
				<port id="1" precision="I32">
					<dim>-1</dim>
				</port>
				<port id="2" precision="I32">
					<dim>-1</dim>
				</port>
				<port id="3" precision="I32">
					<dim>-1</dim>
				</port>
			</input>
			<output>
				<port id="4" precision="I32">
					<dim>-1</dim>
				</port>
				<port id="5" precision="I32">
					<dim>-1</dim>
				</port>
			</output>
		</layer>
		<layer id="8" name="UTF8Validate_1359811" type="UTF8Validate" version="extension">
			<data replace_mode="true" />
			<input>
				<port id="0" precision="I32">
					<dim>-1</dim>
				</port>
				<port id="1" precision="I32">
					<dim>-1</dim>
				</port>
				<port id="2" precision="U8">
					<dim>-1</dim>
				</port>
			</input>
			<output>
				<port id="3" precision="I32">
					<dim>-1</dim>
				</port>
				<port id="4" precision="I32">
					<dim>-1</dim>
				</port>
				<port id="5" precision="U8">
					<dim>-1</dim>
				</port>
			</output>
		</layer>
		<layer id="9" name="StringTensorPack_1359812" type="StringTensorPack" version="opset15">
			<input>
				<port id="0" precision="I32">
					<dim>-1</dim>
				</port>
				<port id="1" precision="I32">
					<dim>-1</dim>
				</port>
				<port id="2" precision="U8">
					<dim>-1</dim>
				</port>
			</input>
			<output>
				<port id="3" precision="STRING" names="Result_1359813,string_output">
					<dim>-1</dim>
				</port>
			</output>
		</layer>
		<layer id="10" name="Result_1359813" type="Result" version="opset1" output_names="Result_1359813,string_output">
			<input>
				<port id="0" precision="STRING">
					<dim>-1</dim>
				</port>
			</input>
		</layer>
	</layers>
	<edges>
		<edge from-layer="0" from-port="0" to-layer="1" to-port="0" />
		<edge from-layer="1" from-port="1" to-layer="6" to-port="0" />
		<edge from-layer="2" from-port="0" to-layer="6" to-port="1" />
		<edge from-layer="3" from-port="0" to-layer="6" to-port="2" />
		<edge from-layer="4" from-port="0" to-layer="6" to-port="3" />
		<edge from-layer="5" from-port="0" to-layer="6" to-port="4" />
		<edge from-layer="6" from-port="7" to-layer="7" to-port="2" />
		<edge from-layer="6" from-port="9" to-layer="8" to-port="2" />
		<edge from-layer="6" from-port="8" to-layer="7" to-port="3" />
		<edge from-layer="6" from-port="6" to-layer="7" to-port="1" />
		<edge from-layer="6" from-port="5" to-layer="7" to-port="0" />
		<edge from-layer="7" from-port="4" to-layer="8" to-port="0" />
		<edge from-layer="7" from-port="5" to-layer="8" to-port="1" />
		<edge from-layer="8" from-port="3" to-layer="9" to-port="0" />
		<edge from-layer="8" from-port="4" to-layer="9" to-port="1" />
		<edge from-layer="8" from-port="5" to-layer="9" to-port="2" />
		<edge from-layer="9" from-port="3" to-layer="10" to-port="0" />
	</edges>
	<rt_info>
		<add_attention_mask value="True" />
		<add_prefix_space />
		<add_special_tokens value="True" />
		<chat_template value="{%- if tools %}&#10;    {{- '&lt;|im_start|>system\n' }}&#10;    {%- if messages[0]['role'] == 'system' %}&#10;        {{- messages[0]['content'] }}&#10;    {%- else %}&#10;        {{- 'You are Qwen, created by Alibaba Cloud. You are a helpful assistant.' }}&#10;    {%- endif %}&#10;    {{- &quot;\n\n# Tools\n\nYou may call one or more functions to assist with the user query.\n\nYou are provided with function signatures within &lt;tools>&lt;/tools> XML tags:\n&lt;tools>&quot; }}&#10;    {%- for tool in tools %}&#10;        {{- &quot;\n&quot; }}&#10;        {{- tool | tojson }}&#10;    {%- endfor %}&#10;    {{- &quot;\n&lt;/tools>\n\nFor each function call, return a json object with function name and arguments within &lt;tool_call>&lt;/tool_call> XML tags:\n&lt;tool_call>\n{\&quot;name\&quot;: &lt;function-name>, \&quot;arguments\&quot;: &lt;args-json-object>}\n&lt;/tool_call>&lt;|im_end|>\n&quot; }}&#10;{%- else %}&#10;    {%- if messages[0]['role'] == 'system' %}&#10;        {{- '&lt;|im_start|>system\n' + messages[0]['content'] + '&lt;|im_end|>\n' }}&#10;    {%- else %}&#10;        {{- '&lt;|im_start|>system\nYou are Qwen, created by Alibaba Cloud. You are a helpful assistant.&lt;|im_end|>\n' }}&#10;    {%- endif %}&#10;{%- endif %}&#10;{%- for message in messages %}&#10;    {%- if (message.role == &quot;user&quot;) or (message.role == &quot;system&quot; and not loop.first) or (message.role == &quot;assistant&quot; and not message.tool_calls) %}&#10;        {{- '&lt;|im_start|>' + message.role + '\n' + message.content + '&lt;|im_end|>' + '\n' }}&#10;    {%- elif message.role == &quot;assistant&quot; %}&#10;        {{- '&lt;|im_start|>' + message.role }}&#10;        {%- if message.content %}&#10;            {{- '\n' + message.content }}&#10;        {%- endif %}&#10;        {%- for tool_call in message.tool_calls %}&#10;            {%- if tool_call.function is defined %}&#10;                {%- set tool_call = tool_call.function %}&#10;            {%- endif %}&#10;            {{- '\n&lt;tool_call>\n{&quot;name&quot;: &quot;' }}&#10;            {{- tool_call.name }}&#10;            {{- '&quot;, &quot;arguments&quot;: ' }}&#10;            {{- tool_call.arguments | tojson }}&#10;            {{- '}\n&lt;/tool_call>' }}&#10;        {%- endfor %}&#10;        {{- '&lt;|im_end|>\n' }}&#10;    {%- elif message.role == &quot;tool&quot; %}&#10;        {%- if (loop.index0 == 0) or (messages[loop.index0 - 1].role != &quot;tool&quot;) %}&#10;            {{- '&lt;|im_start|>user' }}&#10;        {%- endif %}&#10;        {{- '\n&lt;tool_response>\n' }}&#10;        {{- message.content }}&#10;        {{- '\n&lt;/tool_response>' }}&#10;        {%- if loop.last or (messages[loop.index0 + 1].role != &quot;tool&quot;) %}&#10;            {{- '&lt;|im_end|>\n' }}&#10;        {%- endif %}&#10;    {%- endif %}&#10;{%- endfor %}&#10;{%- if add_generation_prompt %}&#10;    {{- '&lt;|im_start|>assistant\n' }}&#10;{%- endif %}&#10;" />
		<clean_up_tokenization_spaces />
		<detokenizer_input_type value="i64" />
		<eos_token_id value="151645" />
		<handle_special_tokens_with_re />
		<max_length />
		<number_of_inputs value="1" />
		<openvino_tokenizers_version value="2025.2.0.1-567-7885335c24b" />
		<openvino_version value="2025.2.0-19140-c01cd93e24d-releases/2025/2" />
		<original_post_processor_template value="{&quot;type&quot;: &quot;ByteLevel&quot;, &quot;add_prefix_space&quot;: false, &quot;trim_offsets&quot;: false, &quot;use_regex&quot;: false}" />
		<original_tokenizer_class value="&lt;class 'transformers.models.qwen2.tokenization_qwen2_fast.Qwen2TokenizerFast'>" />
		<pad_token_id value="151643" />
		<sentencepiece_version value="0.2.1" />
		<skip_special_tokens value="True" />
		<streaming_detokenizer value="False" />
		<tiktoken_version value="0.9.0" />
		<tokenizer_output_type value="i64" />
		<tokenizers_version value="0.21.4" />
		<transformers_version value="4.51.3" />
		<use_max_padding value="False" />
		<use_sentencepiece_backend value="False" />
		<utf8_replace_mode value="replace" />
		<with_detokenizer value="True" />
	</rt_info>
</net>
