<?xml version="1.0"?>
<net name="Model0" version="11">
	<layers>
		<layer id="3" name="input_ids" type="Parameter" version="opset1">
			<data shape="?,?" element_type="i64" />
			<output>
				<port id="0" precision="I64" names="input_ids">
					<dim>-1</dim>
					<dim>-1</dim>
				</port>
			</output>
		</layer>
		<layer id="2" name="attention_mask" type="Parameter" version="opset1">
			<data shape="?,?" element_type="i64" />
			<output>
				<port id="0" precision="I64" names="attention_mask">
					<dim>-1</dim>
					<dim>-1</dim>
				</port>
			</output>
		</layer>
		<layer id="1" name="position_ids" type="Parameter" version="opset1">
			<data shape="?,?" element_type="i64" />
			<output>
				<port id="0" precision="I64" names="position_ids">
					<dim>-1</dim>
					<dim>-1</dim>
				</port>
			</output>
		</layer>
		<layer id="0" name="beam_idx" type="Parameter" version="opset1">
			<data shape="?" element_type="i32" />
			<output>
				<port id="0" precision="I32" names="beam_idx">
					<dim>-1</dim>
				</port>
			</output>
		</layer>
		<layer id="4" name="Constant_108453" type="Const" version="opset1">
			<data element_type="f32" shape="" offset="0" size="4" />
			<output>
				<port id="0" precision="FP32" />
			</output>
		</layer>
		<layer id="5" name="ShapeOf_108439" type="ShapeOf" version="opset3">
			<data output_type="i64" />
			<input>
				<port id="0" precision="I64">
					<dim>-1</dim>
					<dim>-1</dim>
				</port>
			</input>
			<output>
				<port id="1" precision="I64">
					<dim>2</dim>
				</port>
			</output>
		</layer>
		<layer id="6" name="Constant_108441" type="Const" version="opset1">
			<data element_type="i64" shape="1" offset="4" size="8" />
			<output>
				<port id="0" precision="I64">
					<dim>1</dim>
				</port>
			</output>
		</layer>
		<layer id="7" name="Constant_108443" type="Const" version="opset1">
			<data element_type="i64" shape="" offset="4" size="8" />
			<output>
				<port id="0" precision="I64" />
			</output>
		</layer>
		<layer id="8" name="Gather_108444" type="Gather" version="opset8">
			<data batch_dims="0" />
			<input>
				<port id="0" precision="I64">
					<dim>2</dim>
				</port>
				<port id="1" precision="I64">
					<dim>1</dim>
				</port>
				<port id="2" precision="I64" />
			</input>
			<output>
				<port id="3" precision="I64">
					<dim>1</dim>
				</port>
			</output>
		</layer>
		<layer id="9" name="Constant_108446" type="Const" version="opset1">
			<data element_type="i64" shape="1" offset="12" size="8" />
			<output>
				<port id="0" precision="I64">
					<dim>1</dim>
				</port>
			</output>
		</layer>
		<layer id="10" name="Constant_108448" type="Const" version="opset1">
			<data element_type="i64" shape="1" offset="4" size="8" />
			<output>
				<port id="0" precision="I64">
					<dim>1</dim>
				</port>
			</output>
		</layer>
		<layer id="11" name="Constant_108450" type="Const" version="opset1">
			<data element_type="i64" shape="1" offset="20" size="8" />
			<output>
				<port id="0" precision="I64">
					<dim>1</dim>
				</port>
			</output>
		</layer>
		<layer id="12" name="Concat_108451" type="Concat" version="opset1">
			<data axis="0" />
			<input>
				<port id="0" precision="I64">
					<dim>1</dim>
				</port>
				<port id="1" precision="I64">
					<dim>1</dim>
				</port>
				<port id="2" precision="I64">
					<dim>1</dim>
				</port>
				<port id="3" precision="I64">
					<dim>1</dim>
				</port>
			</input>
			<output>
				<port id="4" precision="I64">
					<dim>4</dim>
				</port>
			</output>
		</layer>
		<layer id="13" name="Broadcast_108454" type="Broadcast" version="opset3">
			<data mode="numpy" />
			<input>
				<port id="0" precision="FP32" />
				<port id="1" precision="I64">
					<dim>4</dim>
				</port>
			</input>
			<output>
				<port id="2" precision="FP32">
					<dim>-1</dim>
					<dim>2</dim>
					<dim>0</dim>
					<dim>128</dim>
				</port>
			</output>
		</layer>
		<layer id="14" name="ReadValue_108067" type="ReadValue" version="opset6">
			<data variable_id="past_key_values.9.valuepresent.9.value" variable_type="f32" variable_shape="?,2,?,128" />
			<input>
				<port id="0" precision="FP32">
					<dim>-1</dim>
					<dim>2</dim>
					<dim>0</dim>
					<dim>128</dim>
				</port>
			</input>
			<output>
				<port id="1" precision="FP32" names="past_key_values.9.value">
					<dim>-1</dim>
					<dim>2</dim>
					<dim>-1</dim>
					<dim>128</dim>
				</port>
			</output>
		</layer>
		<layer id="15" name="Constant_107397" type="Const" version="opset1">
			<data element_type="i64" shape="" offset="4" size="8" />
			<output>
				<port id="0" precision="I64" />
			</output>
		</layer>
		<layer id="16" name="Gather_107398" type="Gather" version="opset8">
			<data batch_dims="0" />
			<input>
				<port id="0" precision="FP32">
					<dim>-1</dim>
					<dim>2</dim>
					<dim>-1</dim>
					<dim>128</dim>
				</port>
				<port id="1" precision="I32">
					<dim>-1</dim>
				</port>
				<port id="2" precision="I64" />
			</input>
			<output>
				<port id="3" precision="FP32">
					<dim>-1</dim>
					<dim>2</dim>
					<dim>-1</dim>
					<dim>128</dim>
				</port>
			</output>
		</layer>
		<layer id="17" name="Constant_95428" type="Const" version="opset1">
			<data element_type="f32" shape="1, 1, 2048" offset="28" size="8192" />
			<output>
				<port id="0" precision="FP32">
					<dim>1</dim>
					<dim>1</dim>
					<dim>2048</dim>
				</port>
			</output>
		</layer>
		<layer id="18" name="self.model.embed_tokens.weight" type="Const" version="opset1">
			<data element_type="u8" shape="151936, 2048" offset="8220" size="311164928" />
			<output>
				<port id="0" precision="U8">
					<dim>151936</dim>
					<dim>2048</dim>
				</port>
			</output>
		</layer>
		<layer id="19" name="Convert_236623" type="Convert" version="opset1">
			<data destination_type="f16" />
			<input>
				<port id="0" precision="U8">
					<dim>151936</dim>
					<dim>2048</dim>
				</port>
			</input>
			<output>
				<port id="1" precision="FP16">
					<dim>151936</dim>
					<dim>2048</dim>
				</port>
			</output>
		</layer>
		<layer id="20" name="self.model.embed_tokens.weight/zero_point" type="Const" version="opset1">
			<data element_type="u8" shape="151936, 1" offset="311173148" size="151936" />
			<output>
				<port id="0" precision="U8">
					<dim>151936</dim>
					<dim>1</dim>
				</port>
			</output>
		</layer>
		<layer id="21" name="Convert_236626" type="Convert" version="opset1">
			<data destination_type="f16" />
			<input>
				<port id="0" precision="U8">
					<dim>151936</dim>
					<dim>1</dim>
				</port>
			</input>
			<output>
				<port id="1" precision="FP16">
					<dim>151936</dim>
					<dim>1</dim>
				</port>
			</output>
		</layer>
		<layer id="22" name="self.model.embed_tokens.weight/zero_point/subtract" type="Subtract" version="opset1">
			<data auto_broadcast="numpy" />
			<input>
				<port id="0" precision="FP16">
					<dim>151936</dim>
					<dim>2048</dim>
				</port>
				<port id="1" precision="FP16">
					<dim>151936</dim>
					<dim>1</dim>
				</port>
			</input>
			<output>
				<port id="2" precision="FP16">
					<dim>151936</dim>
					<dim>2048</dim>
				</port>
			</output>
		</layer>
		<layer id="23" name="self.model.embed_tokens.weight/scale" type="Const" version="opset1">
			<data element_type="f16" shape="151936, 1" offset="311325084" size="303872" />
			<output>
				<port id="0" precision="FP16">
					<dim>151936</dim>
					<dim>1</dim>
				</port>
			</output>
		</layer>
		<layer id="24" name="self.model.embed_tokens.weight/fq_weights_0" type="Multiply" version="opset1">
			<data auto_broadcast="numpy" />
			<input>
				<port id="0" precision="FP16">
					<dim>151936</dim>
					<dim>2048</dim>
				</port>
				<port id="1" precision="FP16">
					<dim>151936</dim>
					<dim>1</dim>
				</port>
			</input>
			<output>
				<port id="2" precision="FP16">
					<dim>151936</dim>
					<dim>2048</dim>
				</port>
			</output>
		</layer>
		<layer id="25" name="__module.model.embed_tokens/ov_ext::embedding/Convert" type="Convert" version="opset1">
			<data destination_type="f32" />
			<rt_info>
				<attribute name="decompression" version="0" />
			</rt_info>
			<input>
				<port id="0" precision="FP16">
					<dim>151936</dim>
					<dim>2048</dim>
				</port>
			</input>
			<output>
				<port id="1" precision="FP32">
					<dim>151936</dim>
					<dim>2048</dim>
				</port>
			</output>
		</layer>
		<layer id="26" name="__module.model.embed_tokens/ov_ext::embedding/Convert_1" type="Convert" version="opset1">
			<data destination_type="i32" />
			<input>
				<port id="0" precision="I64">
					<dim>-1</dim>
					<dim>-1</dim>
				</port>
			</input>
			<output>
				<port id="1" precision="I32">
					<dim>-1</dim>
					<dim>-1</dim>
				</port>
			</output>
		</layer>
		<layer id="27" name="__module.model.embed_tokens/ov_ext::embedding/Constant" type="Const" version="opset1">
			<data element_type="i32" shape="" offset="0" size="4" />
			<output>
				<port id="0" precision="I32" />
			</output>
		</layer>
		<layer id="28" name="__module.model.embed_tokens/ov_ext::embedding/Gather" type="Gather" version="opset8">
			<data batch_dims="0" />
			<input>
				<port id="0" precision="FP32">
					<dim>151936</dim>
					<dim>2048</dim>
				</port>
				<port id="1" precision="I32">
					<dim>-1</dim>
					<dim>-1</dim>
				</port>
				<port id="2" precision="I32" />
			</input>
			<output>
				<port id="3" precision="FP32" names="351,437,448,hidden_states.1,inputs_embeds">
					<dim>-1</dim>
					<dim>-1</dim>
					<dim>2048</dim>
				</port>
			</output>
		</layer>
		<layer id="29" name="Constant_95353" type="Const" version="opset1">
			<data element_type="f32" shape="1, 1, 2048" offset="311628956" size="8192" />
			<output>
				<port id="0" precision="FP32">
					<dim>1</dim>
					<dim>1</dim>
					<dim>2048</dim>
				</port>
			</output>
		</layer>
		<layer id="30" name="Constant_95352" type="Const" version="opset1">
			<data element_type="f32" shape="1, 1, 1" offset="311637148" size="4" />
			<output>
				<port id="0" precision="FP32">
					<dim>1</dim>
					<dim>1</dim>
					<dim>1</dim>
				</port>
			</output>
		</layer>
		<layer id="31" name="Constant_95350" type="Const" version="opset1">
			<data element_type="f32" shape="1, 1, 1" offset="311637152" size="4" />
			<output>
				<port id="0" precision="FP32">
					<dim>1</dim>
					<dim>1</dim>
					<dim>1</dim>
				</port>
			</output>
		</layer>
		<layer id="32" name="__module.model.layers.0.input_layernorm/aten::pow/Power" type="Power" version="opset1">
			<data auto_broadcast="numpy" />
			<input>
				<port id="0" precision="FP32">
					<dim>-1</dim>
					<dim>-1</dim>
					<dim>2048</dim>
				</port>
				<port id="1" precision="FP32">
					<dim>1</dim>
					<dim>1</dim>
					<dim>1</dim>
				</port>
			</input>
			<output>
				<port id="2" precision="FP32" names="438">
					<dim>-1</dim>
					<dim>-1</dim>
					<dim>2048</dim>
				</port>
			</output>
		</layer>
		<layer id="33" name="Constant_591" type="Const" version="opset1">
			<data element_type="i64" shape="1" offset="311637156" size="8" />
			<output>
				<port id="0" precision="I64" names="439">
					<dim>1</dim>
				</port>
			</output>
		</layer>
		<layer id="34" name="__module.model.layers.0.input_layernorm/aten::mean/ReduceMean" type="ReduceMean" version="opset1">
			<data keep_dims="true" />
			<input>
				<port id="0" precision="FP32">
					<dim>-1</dim>
					<dim>-1</dim>
					<dim>2048</dim>
				</port>
				<port id="1" precision="I64">
					<dim>1</dim>
				</port>
			</input>
			<output>
				<port id="2" precision="FP32" names="440,variance.1">
					<dim>-1</dim>
					<dim>-1</dim>
					<dim>1</dim>
				</port>
			</output>
		</layer>
		<layer id="35" name="Constant_95351" type="Const" version="opset1">
			<data element_type="f32" shape="1, 1, 1" offset="311637164" size="4" />
			<output>
				<port id="0" precision="FP32">
					<dim>1</dim>
					<dim>1</dim>
					<dim>1</dim>
				</port>
			</output>
		</layer>
		<layer id="36" name="__module.model.layers.0.input_layernorm/aten::add/Add" type="Add" version="opset1">
			<data auto_broadcast="numpy" />
			<input>
				<port id="0" precision="FP32">
					<dim>-1</dim>
					<dim>-1</dim>
					<dim>1</dim>
				</port>
				<port id="1" precision="FP32">
					<dim>1</dim>
					<dim>1</dim>
					<dim>1</dim>
				</port>
			</input>
			<output>
				<port id="2" precision="FP32" names="441">
					<dim>-1</dim>
					<dim>-1</dim>
					<dim>1</dim>
				</port>
			</output>
		</layer>
		<layer id="37" name="__module.model.layers.0.input_layernorm/aten::rsqrt/Sqrt" type="Sqrt" version="opset1">
			<input>
				<port id="0" precision="FP32">
					<dim>-1</dim>
					<dim>-1</dim>
					<dim>1</dim>
				</port>
			</input>
			<output>
				<port id="1" precision="FP32">
					<dim>-1</dim>
					<dim>-1</dim>
					<dim>1</dim>
				</port>
			</output>
		</layer>
		<layer id="38" name="__module.model.layers.0.input_layernorm/aten::rsqrt/Divide" type="Divide" version="opset1">
			<data auto_broadcast="numpy" m_pythondiv="true" />
			<input>
				<port id="0" precision="FP32">
					<dim>1</dim>
					<dim>1</dim>
					<dim>1</dim>
				</port>
				<port id="1" precision="FP32">
					<dim>-1</dim>
					<dim>-1</dim>
					<dim>1</dim>
				</port>
			</input>
			<output>
				<port id="2" precision="FP32" names="442">
					<dim>-1</dim>
					<dim>-1</dim>
					<dim>1</dim>
				</port>
			</output>
		</layer>
		<layer id="39" name="__module.model.layers.0.input_layernorm/aten::mul/Multiply" type="Multiply" version="opset1">
			<data auto_broadcast="numpy" />
			<input>
				<port id="0" precision="FP32">
					<dim>-1</dim>
					<dim>-1</dim>
					<dim>2048</dim>
				</port>
				<port id="1" precision="FP32">
					<dim>-1</dim>
					<dim>-1</dim>
					<dim>1</dim>
				</port>
			</input>
			<output>
				<port id="2" precision="FP32" names="443,444,hidden_states.3,hidden_states.5">
					<dim>-1</dim>
					<dim>-1</dim>
					<dim>2048</dim>
				</port>
			</output>
		</layer>
		<layer id="40" name="__module.model.layers.0.input_layernorm/aten::mul/Multiply_1" type="Multiply" version="opset1">
			<data auto_broadcast="numpy" />
			<input>
				<port id="0" precision="FP32">
					<dim>1</dim>
					<dim>1</dim>
					<dim>2048</dim>
				</port>
				<port id="1" precision="FP32">
					<dim>-1</dim>
					<dim>-1</dim>
					<dim>2048</dim>
				</port>
			</input>
			<output>
				<port id="2" precision="FP32" names="445,447,hidden_states.7">
					<dim>-1</dim>
					<dim>-1</dim>
					<dim>2048</dim>
				</port>
			</output>
		</layer>
		<layer id="41" name="self.model.layers.0.self_attn.q_proj.weight" type="Const" version="opset1">
			<data element_type="u4" shape="2048, 32, 64" offset="311637168" size="2097152" />
			<output>
				<port id="0" precision="U4">
					<dim>2048</dim>
					<dim>32</dim>
					<dim>64</dim>
				</port>
			</output>
		</layer>
		<layer id="42" name="Convert_718947" type="Convert" version="opset1">
			<data destination_type="f16" />
			<input>
				<port id="0" precision="U4">
					<dim>2048</dim>
					<dim>32</dim>
					<dim>64</dim>
				</port>
			</input>
			<output>
				<port id="1" precision="FP16">
					<dim>2048</dim>
					<dim>32</dim>
					<dim>64</dim>
				</port>
			</output>
		</layer>
		<layer id="43" name="self.model.layers.0.self_attn.q_proj.weight/zero_point" type="Const" version="opset1">
			<data element_type="u4" shape="2048, 32, 1" offset="313734320" size="32768" />
			<output>
				<port id="0" precision="U4">
					<dim>2048</dim>
					<dim>32</dim>
					<dim>1</dim>
				</port>
			</output>
		</layer>
		<layer id="44" name="Convert_718949" type="Convert" version="opset1">
			<data destination_type="f16" />
			<input>
				<port id="0" precision="U4">
					<dim>2048</dim>
					<dim>32</dim>
					<dim>1</dim>
				</port>
			</input>
			<output>
				<port id="1" precision="FP16">
					<dim>2048</dim>
					<dim>32</dim>
					<dim>1</dim>
				</port>
			</output>
		</layer>
		<layer id="45" name="self.model.layers.0.self_attn.q_proj.weight/zero_point/subtract" type="Subtract" version="opset1">
			<data auto_broadcast="numpy" />
			<input>
				<port id="0" precision="FP16">
					<dim>2048</dim>
					<dim>32</dim>
					<dim>64</dim>
				</port>
				<port id="1" precision="FP16">
					<dim>2048</dim>
					<dim>32</dim>
					<dim>1</dim>
				</port>
			</input>
			<output>
				<port id="2" precision="FP16">
					<dim>2048</dim>
					<dim>32</dim>
					<dim>64</dim>
				</port>
			</output>
		</layer>
		<layer id="46" name="self.model.layers.0.self_attn.q_proj.weight/scale" type="Const" version="opset1">
			<data element_type="f16" shape="2048, 32, 1" offset="313767088" size="131072" />
			<output>
				<port id="0" precision="FP16">
					<dim>2048</dim>
					<dim>32</dim>
					<dim>1</dim>
				</port>
			</output>
		</layer>
		<layer id="47" name="self.model.layers.0.self_attn.q_proj.weight/fq_weights_1" type="Multiply" version="opset1">
			<data auto_broadcast="numpy" />
			<input>
				<port id="0" precision="FP16">
					<dim>2048</dim>
					<dim>32</dim>
					<dim>64</dim>
				</port>
				<port id="1" precision="FP16">
					<dim>2048</dim>
					<dim>32</dim>
					<dim>1</dim>
				</port>
			</input>
			<output>
				<port id="2" precision="FP16">
					<dim>2048</dim>
					<dim>32</dim>
					<dim>64</dim>
				</port>
			</output>
		</layer>
		<layer id="48" name="Constant_718954" type="Const" version="opset1">
			<data element_type="i64" shape="2" offset="313898160" size="16" />
			<output>
				<port id="0" precision="I64">
					<dim>2</dim>
				</port>
			</output>
		</layer>
		<layer id="49" name="Reshape_718955" type="Reshape" version="opset1">
			<data special_zero="false" />
			<input>
				<port id="0" precision="FP16">
					<dim>2048</dim>
					<dim>32</dim>
					<dim>64</dim>
				</port>
				<port id="1" precision="I64">
					<dim>2</dim>
				</port>
			</input>
			<output>
				<port id="2" precision="FP16">
					<dim>2048</dim>
					<dim>2048</dim>
				</port>
			</output>
		</layer>
		<layer id="50" name="__module.model.layers.0.self_attn.q_proj/ov_ext::linear/Convert" type="Convert" version="opset1">
			<data destination_type="f32" />
			<rt_info>
				<attribute name="decompression" version="0" />
			</rt_info>
			<input>
				<port id="0" precision="FP16">
					<dim>2048</dim>
					<dim>2048</dim>
				</port>
			</input>
			<output>
				<port id="1" precision="FP32">
					<dim>2048</dim>
					<dim>2048</dim>
				</port>
			</output>
		</layer>
		<layer id="51" name="__module.model.layers.0.self_attn.q_proj/ov_ext::linear/MatMul" type="MatMul" version="opset1">
			<data transpose_a="false" transpose_b="true" />
			<input>
				<port id="0" precision="FP32">
					<dim>-1</dim>
					<dim>-1</dim>
					<dim>2048</dim>
				</port>
				<port id="1" precision="FP32">
					<dim>2048</dim>
					<dim>2048</dim>
				</port>
			</input>
			<output>
				<port id="2" precision="FP32">
					<dim>-1</dim>
					<dim>-1</dim>
					<dim>2048</dim>
				</port>
			</output>
		</layer>
		<layer id="52" name="self.model.layers.0.self_attn.q_proj.bias" type="Const" version="opset1">
			<data element_type="bf16" shape="2048" offset="313898176" size="4096" />
			<output>
				<port id="0" precision="BF16" names="self.model.layers.0.self_attn.q_proj.bias">
					<dim>2048</dim>
				</port>
			</output>
		</layer>
		<layer id="53" name="__module.model.layers.0.self_attn.q_proj/ov_ext::linear/Convert_1" type="Convert" version="opset1">
			<data destination_type="f32" />
			<rt_info>
				<attribute name="decompression" version="0" />
			</rt_info>
			<input>
				<port id="0" precision="BF16">
					<dim>2048</dim>
				</port>
			</input>
			<output>
				<port id="1" precision="FP32">
					<dim>2048</dim>
				</port>
			</output>
		</layer>
		<layer id="54" name="__module.model.layers.0.self_attn.q_proj/ov_ext::linear/Add" type="Add" version="opset1">
			<data auto_broadcast="numpy" />
			<input>
				<port id="0" precision="FP32">
					<dim>-1</dim>
					<dim>-1</dim>
					<dim>2048</dim>
				</port>
				<port id="1" precision="FP32">
					<dim>2048</dim>
				</port>
			</input>
			<output>
				<port id="2" precision="FP32" names="457">
					<dim>-1</dim>
					<dim>-1</dim>
					<dim>2048</dim>
				</port>
			</output>
		</layer>
		<layer id="55" name="Constant_105929" type="Const" version="opset1">
			<data element_type="i64" shape="4" offset="313902272" size="32" />
			<output>
				<port id="0" precision="I64">
					<dim>4</dim>
				</port>
			</output>
		</layer>
		<layer id="56" name="__module.model.layers.0.self_attn/aten::view/Reshape" type="Reshape" version="opset1">
			<data special_zero="true" />
			<input>
				<port id="0" precision="FP32">
					<dim>-1</dim>
					<dim>-1</dim>
					<dim>2048</dim>
				</port>
				<port id="1" precision="I64">
					<dim>4</dim>
				</port>
			</input>
			<output>
				<port id="2" precision="FP32" names="459">
					<dim>-1</dim>
					<dim>-1</dim>
					<dim>16</dim>
					<dim>128</dim>
				</port>
			</output>
		</layer>
		<layer id="57" name="__module.model.layers.0.self_attn/aten::transpose/Constant" type="Const" version="opset1">
			<data element_type="i32" shape="4" offset="313902304" size="16" />
			<output>
				<port id="0" precision="I32">
					<dim>4</dim>
				</port>
			</output>
		</layer>
		<layer id="58" name="__module.model.layers.0.self_attn/aten::transpose/Transpose" type="Transpose" version="opset1">
			<input>
				<port id="0" precision="FP32">
					<dim>-1</dim>
					<dim>-1</dim>
					<dim>16</dim>
					<dim>128</dim>
				</port>
				<port id="1" precision="I32">
					<dim>4</dim>
				</port>
			</input>
			<output>
				<port id="2" precision="FP32" names="460,q.1">
					<dim>-1</dim>
					<dim>16</dim>
					<dim>-1</dim>
					<dim>128</dim>
				</port>
			</output>
		</layer>
		<layer id="59" name="__module.model.rotary_emb/aten::to/Convert" type="Const" version="opset1">
			<data element_type="f32" shape="1, 64, 1" offset="313902320" size="256" />
			<output>
				<port id="0" precision="FP32" names="408">
					<dim>1</dim>
					<dim>64</dim>
					<dim>1</dim>
				</port>
			</output>
		</layer>
		<layer id="60" name="ShapeOf_97505" type="ShapeOf" version="opset3">
			<data output_type="i64" />
			<input>
				<port id="0" precision="FP32">
					<dim>-1</dim>
					<dim>-1</dim>
					<dim>2048</dim>
				</port>
			</input>
			<output>
				<port id="1" precision="I64">
					<dim>3</dim>
				</port>
			</output>
		</layer>
		<layer id="61" name="Constant_97506" type="Const" version="opset1">
			<data element_type="i64" shape="1" offset="4" size="8" />
			<output>
				<port id="0" precision="I64">
					<dim>1</dim>
				</port>
			</output>
		</layer>
		<layer id="62" name="Constant_97507" type="Const" version="opset1">
			<data element_type="i64" shape="" offset="4" size="8" />
			<output>
				<port id="0" precision="I64" />
			</output>
		</layer>
		<layer id="63" name="Gather_97508" type="Gather" version="opset8">
			<data batch_dims="0" />
			<input>
				<port id="0" precision="I64">
					<dim>3</dim>
				</port>
				<port id="1" precision="I64">
					<dim>1</dim>
				</port>
				<port id="2" precision="I64" />
			</input>
			<output>
				<port id="3" precision="I64" names="1013,1158,1174,1319,1335,1480,1496,1641,1657,1802,1818,1963,1979,2124,2140,2285,2301,2446,2462,2607,2623,2768,2784,2929,2945,3090,3106,3251,3267,3412,3428,3573,3589,361,3734,3750,3895,3911,4056,4072,409,4217,4233,4378,4394,4539,4555,4700,4716,4861,4877,5022,5038,514,5183,5199,530,5344,5360,5505,5521,5666,5682,5827,5843,5988,6004,6149,6165,675,691,836,852,997">
					<dim>1</dim>
				</port>
			</output>
		</layer>
		<layer id="64" name="Constant_74142" type="Const" version="opset1">
			<data element_type="i64" shape="1" offset="313902576" size="8" />
			<output>
				<port id="0" precision="I64">
					<dim>1</dim>
				</port>
			</output>
		</layer>
		<layer id="65" name="Constant_74144" type="Const" version="opset1">
			<data element_type="i64" shape="1" offset="313902576" size="8" />
			<output>
				<port id="0" precision="I64">
					<dim>1</dim>
				</port>
			</output>
		</layer>
		<layer id="66" name="__module.model.rotary_emb/prim::ListConstruct" type="Concat" version="opset1">
			<data axis="0" />
			<input>
				<port id="0" precision="I64">
					<dim>1</dim>
				</port>
				<port id="1" precision="I64">
					<dim>1</dim>
				</port>
				<port id="2" precision="I64">
					<dim>1</dim>
				</port>
			</input>
			<output>
				<port id="3" precision="I64">
					<dim>3</dim>
				</port>
			</output>
		</layer>
		<layer id="67" name="__module.model.rotary_emb/aten::expand/Broadcast" type="Broadcast" version="opset3">
			<data mode="bidirectional" />
			<input>
				<port id="0" precision="FP32">
					<dim>1</dim>
					<dim>64</dim>
					<dim>1</dim>
				</port>
				<port id="1" precision="I64">
					<dim>3</dim>
				</port>
			</input>
			<output>
				<port id="2" precision="FP32" names="411,412,417,inv_freq_expanded,inv_freq_expanded.1">
					<dim>-1</dim>
					<dim>64</dim>
					<dim>1</dim>
				</port>
			</output>
		</layer>
		<layer id="68" name="273" type="Const" version="opset1">
			<data element_type="i64" shape="" offset="313902576" size="8" />
			<output>
				<port id="0" precision="I64" names="273" />
			</output>
		</layer>
		<layer id="69" name="__module.model.rotary_emb/aten::unsqueeze/Unsqueeze_2" type="Unsqueeze" version="opset1">
			<input>
				<port id="0" precision="I64">
					<dim>-1</dim>
					<dim>-1</dim>
				</port>
				<port id="1" precision="I64" />
			</input>
			<output>
				<port id="2" precision="I64" names="414,415">
					<dim>-1</dim>
					<dim>1</dim>
					<dim>-1</dim>
				</port>
			</output>
		</layer>
		<layer id="70" name="__module.model.rotary_emb/aten::to/Convert_3" type="Convert" version="opset1">
			<data destination_type="f32" />
			<input>
				<port id="0" precision="I64">
					<dim>-1</dim>
					<dim>1</dim>
					<dim>-1</dim>
				</port>
			</input>
			<output>
				<port id="1" precision="FP32" names="416,418,position_ids_expanded,position_ids_expanded.1">
					<dim>-1</dim>
					<dim>1</dim>
					<dim>-1</dim>
				</port>
			</output>
		</layer>
		<layer id="71" name="__module.model.rotary_emb/aten::matmul/MatMul" type="MatMul" version="opset1">
			<data transpose_a="false" transpose_b="false" />
			<input>
				<port id="0" precision="FP32">
					<dim>-1</dim>
					<dim>64</dim>
					<dim>1</dim>
				</port>
				<port id="1" precision="FP32">
					<dim>-1</dim>
					<dim>1</dim>
					<dim>-1</dim>
				</port>
			</input>
			<output>
				<port id="2" precision="FP32" names="419">
					<dim>-1</dim>
					<dim>64</dim>
					<dim>-1</dim>
				</port>
			</output>
		</layer>
		<layer id="72" name="__module.model.rotary_emb/aten::transpose/Constant" type="Const" version="opset1">
			<data element_type="i32" shape="3" offset="313902584" size="12" />
			<output>
				<port id="0" precision="I32">
					<dim>3</dim>
				</port>
			</output>
		</layer>
		<layer id="73" name="__module.model.rotary_emb/aten::transpose/Transpose" type="Transpose" version="opset1">
			<input>
				<port id="0" precision="FP32">
					<dim>-1</dim>
					<dim>64</dim>
					<dim>-1</dim>
				</port>
				<port id="1" precision="I32">
					<dim>3</dim>
				</port>
			</input>
			<output>
				<port id="2" precision="FP32" names="420">
					<dim>-1</dim>
					<dim>-1</dim>
					<dim>64</dim>
				</port>
			</output>
		</layer>
		<layer id="74" name="__module.model.rotary_emb/aten::cat/Concat" type="Concat" version="opset1">
			<data axis="-1" />
			<input>
				<port id="0" precision="FP32">
					<dim>-1</dim>
					<dim>-1</dim>
					<dim>64</dim>
				</port>
				<port id="1" precision="FP32">
					<dim>-1</dim>
					<dim>-1</dim>
					<dim>64</dim>
				</port>
			</input>
			<output>
				<port id="2" precision="FP32" names="422,emb">
					<dim>-1</dim>
					<dim>-1</dim>
					<dim>128</dim>
				</port>
			</output>
		</layer>
		<layer id="75" name="__module.model.rotary_emb/aten::cos/Cos" type="Cos" version="opset1">
			<input>
				<port id="0" precision="FP32">
					<dim>-1</dim>
					<dim>-1</dim>
					<dim>128</dim>
				</port>
			</input>
			<output>
				<port id="1" precision="FP32" names="423,424,427,430,cos.1,cos.3">
					<dim>-1</dim>
					<dim>-1</dim>
					<dim>128</dim>
				</port>
			</output>
		</layer>
		<layer id="76" name="__module.model.layers.0.self_attn/aten::unsqueeze/Unsqueeze" type="Unsqueeze" version="opset1">
			<input>
				<port id="0" precision="FP32">
					<dim>-1</dim>
					<dim>-1</dim>
					<dim>128</dim>
				</port>
				<port id="1" precision="I64" />
			</input>
			<output>
				<port id="2" precision="FP32" names="1120,1281,1442,1603,1764,1925,2086,2247,2408,2569,2730,2891,3052,3213,3374,3535,3696,3857,4018,4179,4340,4501,4662,473,4823,4984,5145,5306,5467,5628,5789,5950,6111,637,798,959,cos,cos.11,cos.13,cos.15,cos.17,cos.19,cos.21,cos.23,cos.25,cos.27,cos.29,cos.31,cos.33,cos.35,cos.37,cos.39,cos.41,cos.43,cos.45,cos.47,cos.49,cos.5,cos.51,cos.53,cos.55,cos.57,cos.59,cos.61,cos.63,cos.65,cos.67,cos.69,cos.7,cos.71,cos.73,cos.9">
					<dim>-1</dim>
					<dim>1</dim>
					<dim>-1</dim>
					<dim>128</dim>
				</port>
			</output>
		</layer>
		<layer id="77" name="__module.model.layers.0.self_attn/aten::mul/Multiply" type="Multiply" version="opset1">
			<data auto_broadcast="numpy" />
			<input>
				<port id="0" precision="FP32">
					<dim>-1</dim>
					<dim>16</dim>
					<dim>-1</dim>
					<dim>128</dim>
				</port>
				<port id="1" precision="FP32">
					<dim>-1</dim>
					<dim>1</dim>
					<dim>-1</dim>
					<dim>128</dim>
				</port>
			</input>
			<output>
				<port id="2" precision="FP32" names="475">
					<dim>-1</dim>
					<dim>16</dim>
					<dim>-1</dim>
					<dim>128</dim>
				</port>
			</output>
		</layer>
		<layer id="78" name="Constant_905" type="Const" version="opset1">
			<data element_type="i64" shape="1" offset="313902596" size="8" />
			<output>
				<port id="0" precision="I64">
					<dim>1</dim>
				</port>
			</output>
		</layer>
		<layer id="79" name="Constant_907" type="Const" version="opset1">
			<data element_type="i64" shape="1" offset="313902604" size="8" />
			<output>
				<port id="0" precision="I64">
					<dim>1</dim>
				</port>
			</output>
		</layer>
		<layer id="80" name="Constant_909" type="Const" version="opset1">
			<data element_type="i64" shape="1" offset="313902576" size="8" />
			<output>
				<port id="0" precision="I64">
					<dim>1</dim>
				</port>
			</output>
		</layer>
		<layer id="81" name="Constant_861" type="Const" version="opset1">
			<data element_type="i64" shape="1" offset="313902612" size="8" />
			<output>
				<port id="0" precision="I64">
					<dim>1</dim>
				</port>
			</output>
		</layer>
		<layer id="82" name="__module.model.layers.0.self_attn/aten::slice/Slice" type="Slice" version="opset8">
			<input>
				<port id="0" precision="FP32">
					<dim>-1</dim>
					<dim>16</dim>
					<dim>-1</dim>
					<dim>128</dim>
				</port>
				<port id="1" precision="I64">
					<dim>1</dim>
				</port>
				<port id="2" precision="I64">
					<dim>1</dim>
				</port>
				<port id="3" precision="I64">
					<dim>1</dim>
				</port>
				<port id="4" precision="I64">
					<dim>1</dim>
				</port>
			</input>
			<output>
				<port id="5" precision="FP32" names="485,x2.1">
					<dim>-1</dim>
					<dim>16</dim>
					<dim>-1</dim>
					<dim>64</dim>
				</port>
			</output>
		</layer>
		<layer id="83" name="__module.model.layers.0.self_attn/aten::neg/Constant" type="Const" version="opset1">
			<data element_type="i32" shape="" offset="313902620" size="4" />
			<output>
				<port id="0" precision="I32" />
			</output>
		</layer>
		<layer id="84" name="__module.model.layers.0.self_attn/aten::neg/ConvertLike" type="Convert" version="opset1">
			<data destination_type="f32" />
			<input>
				<port id="0" precision="I32" />
			</input>
			<output>
				<port id="1" precision="FP32" />
			</output>
		</layer>
		<layer id="85" name="__module.model.layers.0.self_attn/aten::neg/Multiply" type="Multiply" version="opset1">
			<data auto_broadcast="numpy" />
			<input>
				<port id="0" precision="FP32">
					<dim>-1</dim>
					<dim>16</dim>
					<dim>-1</dim>
					<dim>64</dim>
				</port>
				<port id="1" precision="FP32" />
			</input>
			<output>
				<port id="2" precision="FP32" names="486">
					<dim>-1</dim>
					<dim>16</dim>
					<dim>-1</dim>
					<dim>64</dim>
				</port>
			</output>
		</layer>
		<layer id="86" name="Constant_802" type="Const" version="opset1">
			<data element_type="i64" shape="1" offset="4" size="8" />
			<output>
				<port id="0" precision="I64">
					<dim>1</dim>
				</port>
			</output>
		</layer>
		<layer id="87" name="Constant_846" type="Const" version="opset1">
			<data element_type="i64" shape="1" offset="313902596" size="8" />
			<output>
				<port id="0" precision="I64">
					<dim>1</dim>
				</port>
			</output>
		</layer>
		<layer id="88" name="Constant_848" type="Const" version="opset1">
			<data element_type="i64" shape="1" offset="313902576" size="8" />
			<output>
				<port id="0" precision="I64">
					<dim>1</dim>
				</port>
			</output>
		</layer>
		<layer id="89" name="Constant_800" type="Const" version="opset1">
			<data element_type="i64" shape="1" offset="313902612" size="8" />
			<output>
				<port id="0" precision="I64">
					<dim>1</dim>
				</port>
			</output>
		</layer>
		<layer id="90" name="__module.model.layers.0.self_attn/aten::slice/Slice_1" type="Slice" version="opset8">
			<input>
				<port id="0" precision="FP32">
					<dim>-1</dim>
					<dim>16</dim>
					<dim>-1</dim>
					<dim>128</dim>
				</port>
				<port id="1" precision="I64">
					<dim>1</dim>
				</port>
				<port id="2" precision="I64">
					<dim>1</dim>
				</port>
				<port id="3" precision="I64">
					<dim>1</dim>
				</port>
				<port id="4" precision="I64">
					<dim>1</dim>
				</port>
			</input>
			<output>
				<port id="5" precision="FP32" names="480">
					<dim>-1</dim>
					<dim>16</dim>
					<dim>-1</dim>
					<dim>64</dim>
				</port>
			</output>
		</layer>
		<layer id="91" name="__module.model.layers.0.self_attn/aten::cat/Concat" type="Concat" version="opset1">
			<data axis="-1" />
			<input>
				<port id="0" precision="FP32">
					<dim>-1</dim>
					<dim>16</dim>
					<dim>-1</dim>
					<dim>64</dim>
				</port>
				<port id="1" precision="FP32">
					<dim>-1</dim>
					<dim>16</dim>
					<dim>-1</dim>
					<dim>64</dim>
				</port>
			</input>
			<output>
				<port id="2" precision="FP32" names="488">
					<dim>-1</dim>
					<dim>16</dim>
					<dim>-1</dim>
					<dim>128</dim>
				</port>
			</output>
		</layer>
		<layer id="92" name="__module.model.rotary_emb/aten::sin/Sin" type="Sin" version="opset1">
			<input>
				<port id="0" precision="FP32">
					<dim>-1</dim>
					<dim>-1</dim>
					<dim>128</dim>
				</port>
			</input>
			<output>
				<port id="1" precision="FP32" names="425,426,428,431,sin.1,sin.3">
					<dim>-1</dim>
					<dim>-1</dim>
					<dim>128</dim>
				</port>
			</output>
		</layer>
		<layer id="93" name="__module.model.layers.0.self_attn/aten::unsqueeze/Unsqueeze_1" type="Unsqueeze" version="opset1">
			<input>
				<port id="0" precision="FP32">
					<dim>-1</dim>
					<dim>-1</dim>
					<dim>128</dim>
				</port>
				<port id="1" precision="I64" />
			</input>
			<output>
				<port id="2" precision="FP32" names="1121,1282,1443,1604,1765,1926,2087,2248,2409,2570,2731,2892,3053,3214,3375,3536,3697,3858,4019,4180,4341,4502,4663,474,4824,4985,5146,5307,5468,5629,5790,5951,6112,638,799,960,sin,sin.11,sin.13,sin.15,sin.17,sin.19,sin.21,sin.23,sin.25,sin.27,sin.29,sin.31,sin.33,sin.35,sin.37,sin.39,sin.41,sin.43,sin.45,sin.47,sin.49,sin.5,sin.51,sin.53,sin.55,sin.57,sin.59,sin.61,sin.63,sin.65,sin.67,sin.69,sin.7,sin.71,sin.73,sin.9">
					<dim>-1</dim>
					<dim>1</dim>
					<dim>-1</dim>
					<dim>128</dim>
				</port>
			</output>
		</layer>
		<layer id="94" name="__module.model.layers.0.self_attn/aten::mul/Multiply_1" type="Multiply" version="opset1">
			<data auto_broadcast="numpy" />
			<input>
				<port id="0" precision="FP32">
					<dim>-1</dim>
					<dim>16</dim>
					<dim>-1</dim>
					<dim>128</dim>
				</port>
				<port id="1" precision="FP32">
					<dim>-1</dim>
					<dim>1</dim>
					<dim>-1</dim>
					<dim>128</dim>
				</port>
			</input>
			<output>
				<port id="2" precision="FP32" names="489">
					<dim>-1</dim>
					<dim>16</dim>
					<dim>-1</dim>
					<dim>128</dim>
				</port>
			</output>
		</layer>
		<layer id="95" name="__module.model.layers.0.self_attn/aten::add/Add" type="Add" version="opset1">
			<data auto_broadcast="numpy" />
			<input>
				<port id="0" precision="FP32">
					<dim>-1</dim>
					<dim>16</dim>
					<dim>-1</dim>
					<dim>128</dim>
				</port>
				<port id="1" precision="FP32">
					<dim>-1</dim>
					<dim>16</dim>
					<dim>-1</dim>
					<dim>128</dim>
				</port>
			</input>
			<output>
				<port id="2" precision="FP32" names="490,query.1">
					<dim>-1</dim>
					<dim>16</dim>
					<dim>-1</dim>
					<dim>128</dim>
				</port>
			</output>
		</layer>
		<layer id="96" name="Constant_108465" type="Const" version="opset1">
			<data element_type="f32" shape="" offset="0" size="4" />
			<output>
				<port id="0" precision="FP32" />
			</output>
		</layer>
		<layer id="97" name="Constant_108458" type="Const" version="opset1">
			<data element_type="i64" shape="1" offset="12" size="8" />
			<output>
				<port id="0" precision="I64">
					<dim>1</dim>
				</port>
			</output>
		</layer>
		<layer id="98" name="Constant_108460" type="Const" version="opset1">
			<data element_type="i64" shape="1" offset="4" size="8" />
			<output>
				<port id="0" precision="I64">
					<dim>1</dim>
				</port>
			</output>
		</layer>
		<layer id="99" name="Constant_108462" type="Const" version="opset1">
			<data element_type="i64" shape="1" offset="20" size="8" />
			<output>
				<port id="0" precision="I64">
					<dim>1</dim>
				</port>
			</output>
		</layer>
		<layer id="100" name="Concat_108463" type="Concat" version="opset1">
			<data axis="0" />
			<input>
				<port id="0" precision="I64">
					<dim>1</dim>
				</port>
				<port id="1" precision="I64">
					<dim>1</dim>
				</port>
				<port id="2" precision="I64">
					<dim>1</dim>
				</port>
				<port id="3" precision="I64">
					<dim>1</dim>
				</port>
			</input>
			<output>
				<port id="4" precision="I64">
					<dim>4</dim>
				</port>
			</output>
		</layer>
		<layer id="101" name="Broadcast_108466" type="Broadcast" version="opset3">
			<data mode="numpy" />
			<input>
				<port id="0" precision="FP32" />
				<port id="1" precision="I64">
					<dim>4</dim>
				</port>
			</input>
			<output>
				<port id="2" precision="FP32">
					<dim>-1</dim>
					<dim>2</dim>
					<dim>0</dim>
					<dim>128</dim>
				</port>
			</output>
		</layer>
		<layer id="102" name="ReadValue_107925" type="ReadValue" version="opset6">
			<data variable_id="past_key_values.0.keypresent.0.key" variable_type="f32" variable_shape="?,2,?,128" />
			<input>
				<port id="0" precision="FP32">
					<dim>-1</dim>
					<dim>2</dim>
					<dim>0</dim>
					<dim>128</dim>
				</port>
			</input>
			<output>
				<port id="1" precision="FP32" names="past_key_values.0.key">
					<dim>-1</dim>
					<dim>2</dim>
					<dim>-1</dim>
					<dim>128</dim>
				</port>
			</output>
		</layer>
		<layer id="103" name="Constant_107340" type="Const" version="opset1">
			<data element_type="i64" shape="" offset="4" size="8" />
			<output>
				<port id="0" precision="I64" />
			</output>
		</layer>
		<layer id="104" name="Gather_107341" type="Gather" version="opset8">
			<data batch_dims="0" />
			<input>
				<port id="0" precision="FP32">
					<dim>-1</dim>
					<dim>2</dim>
					<dim>-1</dim>
					<dim>128</dim>
				</port>
				<port id="1" precision="I32">
					<dim>-1</dim>
				</port>
				<port id="2" precision="I64" />
			</input>
			<output>
				<port id="3" precision="FP32">
					<dim>-1</dim>
					<dim>2</dim>
					<dim>-1</dim>
					<dim>128</dim>
				</port>
			</output>
		</layer>
		<layer id="105" name="self.model.layers.0.self_attn.k_proj.weight" type="Const" version="opset1">
			<data element_type="u4" shape="256, 32, 64" offset="313902624" size="262144" />
			<output>
				<port id="0" precision="U4">
					<dim>256</dim>
					<dim>32</dim>
					<dim>64</dim>
				</port>
			</output>
		</layer>
		<layer id="106" name="Convert_1037547" type="Convert" version="opset1">
			<data destination_type="f16" />
			<input>
				<port id="0" precision="U4">
					<dim>256</dim>
					<dim>32</dim>
					<dim>64</dim>
				</port>
			</input>
			<output>
				<port id="1" precision="FP16">
					<dim>256</dim>
					<dim>32</dim>
					<dim>64</dim>
				</port>
			</output>
		</layer>
		<layer id="107" name="self.model.layers.0.self_attn.k_proj.weight/zero_point" type="Const" version="opset1">
			<data element_type="u4" shape="256, 32, 1" offset="314164768" size="4096" />
			<output>
				<port id="0" precision="U4">
					<dim>256</dim>
					<dim>32</dim>
					<dim>1</dim>
				</port>
			</output>
		</layer>
		<layer id="108" name="Convert_1037549" type="Convert" version="opset1">
			<data destination_type="f16" />
			<input>
				<port id="0" precision="U4">
					<dim>256</dim>
					<dim>32</dim>
					<dim>1</dim>
				</port>
			</input>
			<output>
				<port id="1" precision="FP16">
					<dim>256</dim>
					<dim>32</dim>
					<dim>1</dim>
				</port>
			</output>
		</layer>
		<layer id="109" name="self.model.layers.0.self_attn.k_proj.weight/zero_point/subtract" type="Subtract" version="opset1">
			<data auto_broadcast="numpy" />
			<input>
				<port id="0" precision="FP16">
					<dim>256</dim>
					<dim>32</dim>
					<dim>64</dim>
				</port>
				<port id="1" precision="FP16">
					<dim>256</dim>
					<dim>32</dim>
					<dim>1</dim>
				</port>
			</input>
			<output>
				<port id="2" precision="FP16">
					<dim>256</dim>
					<dim>32</dim>
					<dim>64</dim>
				</port>
			</output>
		</layer>
		<layer id="110" name="self.model.layers.0.self_attn.k_proj.weight/scale" type="Const" version="opset1">
			<data element_type="f16" shape="256, 32, 1" offset="314168864" size="16384" />
			<output>
				<port id="0" precision="FP16">
					<dim>256</dim>
					<dim>32</dim>
					<dim>1</dim>
				</port>
			</output>
		</layer>
		<layer id="111" name="self.model.layers.0.self_attn.k_proj.weight/fq_weights_1" type="Multiply" version="opset1">
			<data auto_broadcast="numpy" />
			<input>
				<port id="0" precision="FP16">
					<dim>256</dim>
					<dim>32</dim>
					<dim>64</dim>
				</port>
				<port id="1" precision="FP16">
					<dim>256</dim>
					<dim>32</dim>
					<dim>1</dim>
				</port>
			</input>
			<output>
				<port id="2" precision="FP16">
					<dim>256</dim>
					<dim>32</dim>
					<dim>64</dim>
				</port>
			</output>
		</layer>
		<layer id="112" name="Constant_1037554" type="Const" version="opset1">
			<data element_type="i64" shape="2" offset="314185248" size="16" />
			<output>
				<port id="0" precision="I64">
					<dim>2</dim>
				</port>
			</output>
		</layer>
		<layer id="113" name="Reshape_1037555" type="Reshape" version="opset1">
			<data special_zero="false" />
			<input>
				<port id="0" precision="FP16">
					<dim>256</dim>
					<dim>32</dim>
					<dim>64</dim>
				</port>
				<port id="1" precision="I64">
					<dim>2</dim>
				</port>
			</input>
			<output>
				<port id="2" precision="FP16">
					<dim>256</dim>
					<dim>2048</dim>
				</port>
			</output>
		</layer>
		<layer id="114" name="__module.model.layers.0.self_attn.k_proj/ov_ext::linear/Convert" type="Convert" version="opset1">
			<data destination_type="f32" />
			<rt_info>
				<attribute name="decompression" version="0" />
			</rt_info>
			<input>
				<port id="0" precision="FP16">
					<dim>256</dim>
					<dim>2048</dim>
				</port>
			</input>
			<output>
				<port id="1" precision="FP32">
					<dim>256</dim>
					<dim>2048</dim>
				</port>
			</output>
		</layer>
		<layer id="115" name="__module.model.layers.0.self_attn.k_proj/ov_ext::linear/MatMul" type="MatMul" version="opset1">
			<data transpose_a="false" transpose_b="true" />
			<input>
				<port id="0" precision="FP32">
					<dim>-1</dim>
					<dim>-1</dim>
					<dim>2048</dim>
				</port>
				<port id="1" precision="FP32">
					<dim>256</dim>
					<dim>2048</dim>
				</port>
			</input>
			<output>
				<port id="2" precision="FP32">
					<dim>-1</dim>
					<dim>-1</dim>
					<dim>256</dim>
				</port>
			</output>
		</layer>
		<layer id="116" name="self.model.layers.0.self_attn.k_proj.bias" type="Const" version="opset1">
			<data element_type="bf16" shape="256" offset="314185264" size="512" />
			<output>
				<port id="0" precision="BF16" names="self.model.layers.0.self_attn.k_proj.bias">
					<dim>256</dim>
				</port>
			</output>
		</layer>
		<layer id="117" name="__module.model.layers.0.self_attn.k_proj/ov_ext::linear/Convert_1" type="Convert" version="opset1">
			<data destination_type="f32" />
			<rt_info>
				<attribute name="decompression" version="0" />
			</rt_info>
			<input>
				<port id="0" precision="BF16">
					<dim>256</dim>
				</port>
			</input>
			<output>
				<port id="1" precision="FP32">
					<dim>256</dim>
				</port>
			</output>
		</layer>
		<layer id="118" name="__module.model.layers.0.self_attn.k_proj/ov_ext::linear/Add" type="Add" version="opset1">
			<data auto_broadcast="numpy" />
			<input>
				<port id="0" precision="FP32">
					<dim>-1</dim>
					<dim>-1</dim>
					<dim>256</dim>
				</port>
				<port id="1" precision="FP32">
					<dim>256</dim>
				</port>
			</input>
			<output>
				<port id="2" precision="FP32" names="463">
					<dim>-1</dim>
					<dim>-1</dim>
					<dim>256</dim>
				</port>
			</output>
		</layer>
		<layer id="119" name="Constant_105930" type="Const" version="opset1">
			<data element_type="i64" shape="4" offset="314185776" size="32" />
			<output>
				<port id="0" precision="I64">
					<dim>4</dim>
				</port>
			</output>
		</layer>
		<layer id="120" name="__module.model.layers.0.self_attn/aten::view/Reshape_1" type="Reshape" version="opset1">
			<data special_zero="true" />
			<input>
				<port id="0" precision="FP32">
					<dim>-1</dim>
					<dim>-1</dim>
					<dim>256</dim>
				</port>
				<port id="1" precision="I64">
					<dim>4</dim>
				</port>
			</input>
			<output>
				<port id="2" precision="FP32" names="465">
					<dim>-1</dim>
					<dim>-1</dim>
					<dim>2</dim>
					<dim>128</dim>
				</port>
			</output>
		</layer>
		<layer id="121" name="__module.model.layers.0.self_attn/aten::transpose/Constant_1" type="Const" version="opset1">
			<data element_type="i32" shape="4" offset="313902304" size="16" />
			<output>
				<port id="0" precision="I32">
					<dim>4</dim>
				</port>
			</output>
		</layer>
		<layer id="122" name="__module.model.layers.0.self_attn/aten::transpose/Transpose_1" type="Transpose" version="opset1">
			<input>
				<port id="0" precision="FP32">
					<dim>-1</dim>
					<dim>-1</dim>
					<dim>2</dim>
					<dim>128</dim>
				</port>
				<port id="1" precision="I32">
					<dim>4</dim>
				</port>
			</input>
			<output>
				<port id="2" precision="FP32" names="466,k.1">
					<dim>-1</dim>
					<dim>2</dim>
					<dim>-1</dim>
					<dim>128</dim>
				</port>
			</output>
		</layer>
		<layer id="123" name="__module.model.layers.0.self_attn/aten::mul/Multiply_2" type="Multiply" version="opset1">
			<data auto_broadcast="numpy" />
			<input>
				<port id="0" precision="FP32">
					<dim>-1</dim>
					<dim>2</dim>
					<dim>-1</dim>
					<dim>128</dim>
				</port>
				<port id="1" precision="FP32">
					<dim>-1</dim>
					<dim>1</dim>
					<dim>-1</dim>
					<dim>128</dim>
				</port>
			</input>
			<output>
				<port id="2" precision="FP32" names="491">
					<dim>-1</dim>
					<dim>2</dim>
					<dim>-1</dim>
					<dim>128</dim>
				</port>
			</output>
		</layer>
		<layer id="124" name="Constant_1048" type="Const" version="opset1">
			<data element_type="i64" shape="1" offset="313902596" size="8" />
			<output>
				<port id="0" precision="I64">
					<dim>1</dim>
				</port>
			</output>
		</layer>
		<layer id="125" name="Constant_1050" type="Const" version="opset1">
			<data element_type="i64" shape="1" offset="313902604" size="8" />
			<output>
				<port id="0" precision="I64">
					<dim>1</dim>
				</port>
			</output>
		</layer>
		<layer id="126" name="Constant_1052" type="Const" version="opset1">
			<data element_type="i64" shape="1" offset="313902576" size="8" />
			<output>
				<port id="0" precision="I64">
					<dim>1</dim>
				</port>
			</output>
		</layer>
		<layer id="127" name="Constant_1004" type="Const" version="opset1">
			<data element_type="i64" shape="1" offset="313902612" size="8" />
			<output>
				<port id="0" precision="I64">
					<dim>1</dim>
				</port>
			</output>
		</layer>
		<layer id="128" name="__module.model.layers.0.self_attn/aten::slice/Slice_2" type="Slice" version="opset8">
			<input>
				<port id="0" precision="FP32">
					<dim>-1</dim>
					<dim>2</dim>
					<dim>-1</dim>
					<dim>128</dim>
				</port>
				<port id="1" precision="I64">
					<dim>1</dim>
				</port>
				<port id="2" precision="I64">
					<dim>1</dim>
				</port>
				<port id="3" precision="I64">
					<dim>1</dim>
				</port>
				<port id="4" precision="I64">
					<dim>1</dim>
				</port>
			</input>
			<output>
				<port id="5" precision="FP32" names="501,x2.3">
					<dim>-1</dim>
					<dim>2</dim>
					<dim>-1</dim>
					<dim>64</dim>
				</port>
			</output>
		</layer>
		<layer id="129" name="__module.model.layers.0.self_attn/aten::neg/Constant_1" type="Const" version="opset1">
			<data element_type="i32" shape="" offset="313902620" size="4" />
			<output>
				<port id="0" precision="I32" />
			</output>
		</layer>
		<layer id="130" name="__module.model.layers.0.self_attn/aten::neg/ConvertLike_1" type="Convert" version="opset1">
			<data destination_type="f32" />
			<input>
				<port id="0" precision="I32" />
			</input>
			<output>
				<port id="1" precision="FP32" />
			</output>
		</layer>
		<layer id="131" name="__module.model.layers.0.self_attn/aten::neg/Multiply_1" type="Multiply" version="opset1">
			<data auto_broadcast="numpy" />
			<input>
				<port id="0" precision="FP32">
					<dim>-1</dim>
					<dim>2</dim>
					<dim>-1</dim>
					<dim>64</dim>
				</port>
				<port id="1" precision="FP32" />
			</input>
			<output>
				<port id="2" precision="FP32" names="502">
					<dim>-1</dim>
					<dim>2</dim>
					<dim>-1</dim>
					<dim>64</dim>
				</port>
			</output>
		</layer>
		<layer id="132" name="Constant_945" type="Const" version="opset1">
			<data element_type="i64" shape="1" offset="4" size="8" />
			<output>
				<port id="0" precision="I64">
					<dim>1</dim>
				</port>
			</output>
		</layer>
		<layer id="133" name="Constant_989" type="Const" version="opset1">
			<data element_type="i64" shape="1" offset="313902596" size="8" />
			<output>
				<port id="0" precision="I64">
					<dim>1</dim>
				</port>
			</output>
		</layer>
		<layer id="134" name="Constant_991" type="Const" version="opset1">
			<data element_type="i64" shape="1" offset="313902576" size="8" />
			<output>
				<port id="0" precision="I64">
					<dim>1</dim>
				</port>
			</output>
		</layer>
		<layer id="135" name="Constant_943" type="Const" version="opset1">
			<data element_type="i64" shape="1" offset="313902612" size="8" />
			<output>
				<port id="0" precision="I64">
					<dim>1</dim>
				</port>
			</output>
		</layer>
		<layer id="136" name="__module.model.layers.0.self_attn/aten::slice/Slice_3" type="Slice" version="opset8">
			<input>
				<port id="0" precision="FP32">
					<dim>-1</dim>
					<dim>2</dim>
					<dim>-1</dim>
					<dim>128</dim>
				</port>
				<port id="1" precision="I64">
					<dim>1</dim>
				</port>
				<port id="2" precision="I64">
					<dim>1</dim>
				</port>
				<port id="3" precision="I64">
					<dim>1</dim>
				</port>
				<port id="4" precision="I64">
					<dim>1</dim>
				</port>
			</input>
			<output>
				<port id="5" precision="FP32" names="496">
					<dim>-1</dim>
					<dim>2</dim>
					<dim>-1</dim>
					<dim>64</dim>
				</port>
			</output>
		</layer>
		<layer id="137" name="__module.model.layers.0.self_attn/aten::cat/Concat_1" type="Concat" version="opset1">
			<data axis="-1" />
			<input>
				<port id="0" precision="FP32">
					<dim>-1</dim>
					<dim>2</dim>
					<dim>-1</dim>
					<dim>64</dim>
				</port>
				<port id="1" precision="FP32">
					<dim>-1</dim>
					<dim>2</dim>
					<dim>-1</dim>
					<dim>64</dim>
				</port>
			</input>
			<output>
				<port id="2" precision="FP32" names="504">
					<dim>-1</dim>
					<dim>2</dim>
					<dim>-1</dim>
					<dim>128</dim>
				</port>
			</output>
		</layer>
		<layer id="138" name="__module.model.layers.0.self_attn/aten::mul/Multiply_3" type="Multiply" version="opset1">
			<data auto_broadcast="numpy" />
			<input>
				<port id="0" precision="FP32">
					<dim>-1</dim>
					<dim>2</dim>
					<dim>-1</dim>
					<dim>128</dim>
				</port>
				<port id="1" precision="FP32">
					<dim>-1</dim>
					<dim>1</dim>
					<dim>-1</dim>
					<dim>128</dim>
				</port>
			</input>
			<output>
				<port id="2" precision="FP32" names="505">
					<dim>-1</dim>
					<dim>2</dim>
					<dim>-1</dim>
					<dim>128</dim>
				</port>
			</output>
		</layer>
		<layer id="139" name="__module.model.layers.0.self_attn/aten::add/Add_1" type="Add" version="opset1">
			<data auto_broadcast="numpy" />
			<input>
				<port id="0" precision="FP32">
					<dim>-1</dim>
					<dim>2</dim>
					<dim>-1</dim>
					<dim>128</dim>
				</port>
				<port id="1" precision="FP32">
					<dim>-1</dim>
					<dim>2</dim>
					<dim>-1</dim>
					<dim>128</dim>
				</port>
			</input>
			<output>
				<port id="2" precision="FP32" names="506,key_states">
					<dim>-1</dim>
					<dim>2</dim>
					<dim>-1</dim>
					<dim>128</dim>
				</port>
			</output>
		</layer>
		<layer id="140" name="__module.model.layers.0.self_attn/aten::cat/Concat_2" type="Concat" version="opset1">
			<data axis="-2" />
			<input>
				<port id="0" precision="FP32">
					<dim>-1</dim>
					<dim>2</dim>
					<dim>-1</dim>
					<dim>128</dim>
				</port>
				<port id="1" precision="FP32">
					<dim>-1</dim>
					<dim>2</dim>
					<dim>-1</dim>
					<dim>128</dim>
				</port>
			</input>
			<output>
				<port id="2" precision="FP32" names="519,520,hidden_states.9">
					<dim>-1</dim>
					<dim>2</dim>
					<dim>-1</dim>
					<dim>128</dim>
				</port>
			</output>
		</layer>
		<layer id="141" name="274" type="Const" version="opset1">
			<data element_type="i64" shape="" offset="12" size="8" />
			<output>
				<port id="0" precision="I64" names="274" />
			</output>
		</layer>
		<layer id="142" name="__module.model.layers.0.self_attn/aten::unsqueeze/Unsqueeze_2" type="Unsqueeze" version="opset1">
			<input>
				<port id="0" precision="FP32">
					<dim>-1</dim>
					<dim>2</dim>
					<dim>-1</dim>
					<dim>128</dim>
				</port>
				<port id="1" precision="I64" />
			</input>
			<output>
				<port id="2" precision="FP32" names="521,522,523">
					<dim>-1</dim>
					<dim>2</dim>
					<dim>1</dim>
					<dim>-1</dim>
					<dim>128</dim>
				</port>
			</output>
		</layer>
		<layer id="143" name="__module.model.layers.0.self_attn/aten::size/ShapeOf_2" type="ShapeOf" version="opset3">
			<data output_type="i64" />
			<input>
				<port id="0" precision="FP32">
					<dim>-1</dim>
					<dim>2</dim>
					<dim>-1</dim>
					<dim>128</dim>
				</port>
			</input>
			<output>
				<port id="1" precision="I64">
					<dim>4</dim>
				</port>
			</output>
		</layer>
		<layer id="144" name="Constant_76596" type="Const" version="opset1">
			<data element_type="i64" shape="2" offset="314185808" size="16" />
			<output>
				<port id="0" precision="I64">
					<dim>2</dim>
				</port>
			</output>
		</layer>
		<layer id="145" name="Constant_76597" type="Const" version="opset1">
			<data element_type="i64" shape="" offset="4" size="8" />
			<output>
				<port id="0" precision="I64" />
			</output>
		</layer>
		<layer id="146" name="Gather_76598" type="Gather" version="opset8">
			<data batch_dims="0" />
			<input>
				<port id="0" precision="I64">
					<dim>4</dim>
				</port>
				<port id="1" precision="I64">
					<dim>2</dim>
				</port>
				<port id="2" precision="I64" />
			</input>
			<output>
				<port id="3" precision="I64">
					<dim>2</dim>
				</port>
			</output>
		</layer>
		<layer id="147" name="Constant_74151" type="Const" version="opset1">
			<data element_type="i64" shape="1" offset="314185824" size="8" />
			<output>
				<port id="0" precision="I64">
					<dim>1</dim>
				</port>
			</output>
		</layer>
		<layer id="148" name="ShapeOf_97519" type="ShapeOf" version="opset3">
			<data output_type="i64" />
			<input>
				<port id="0" precision="FP32">
					<dim>-1</dim>
					<dim>2</dim>
					<dim>-1</dim>
					<dim>128</dim>
				</port>
			</input>
			<output>
				<port id="1" precision="I64">
					<dim>4</dim>
				</port>
			</output>
		</layer>
		<layer id="149" name="Constant_97520" type="Const" version="opset1">
			<data element_type="i64" shape="" offset="12" size="8" />
			<output>
				<port id="0" precision="I64" />
			</output>
		</layer>
		<layer id="150" name="Constant_97521" type="Const" version="opset1">
			<data element_type="i64" shape="" offset="4" size="8" />
			<output>
				<port id="0" precision="I64" />
			</output>
		</layer>
		<layer id="151" name="Gather_97522" type="Gather" version="opset8">
			<data batch_dims="0" />
			<input>
				<port id="0" precision="I64">
					<dim>4</dim>
				</port>
				<port id="1" precision="I64" />
				<port id="2" precision="I64" />
			</input>
			<output>
				<port id="3" precision="I64" names="352" />
			</output>
		</layer>
		<layer id="152" name="Constant_97549" type="Const" version="opset1">
			<data element_type="i64" shape="1" offset="313902576" size="8" />
			<output>
				<port id="0" precision="I64">
					<dim>1</dim>
				</port>
			</output>
		</layer>
		<layer id="153" name="Reshape_97550" type="Reshape" version="opset1">
			<data special_zero="false" />
			<input>
				<port id="0" precision="I64" />
				<port id="1" precision="I64">
					<dim>1</dim>
				</port>
			</input>
			<output>
				<port id="2" precision="I64">
					<dim>1</dim>
				</port>
			</output>
		</layer>
		<layer id="154" name="Constant_97528" type="Const" version="opset1">
			<data element_type="i64" shape="" offset="313902576" size="8" />
			<output>
				<port id="0" precision="I64" />
			</output>
		</layer>
		<layer id="155" name="Constant_97529" type="Const" version="opset1">
			<data element_type="i64" shape="" offset="4" size="8" />
			<output>
				<port id="0" precision="I64" />
			</output>
		</layer>
		<layer id="156" name="Gather_97530" type="Gather" version="opset8">
			<data batch_dims="0" />
			<input>
				<port id="0" precision="I64">
					<dim>3</dim>
				</port>
				<port id="1" precision="I64" />
				<port id="2" precision="I64" />
			</input>
			<output>
				<port id="3" precision="I64" names="354,359" />
			</output>
		</layer>
		<layer id="157" name="Constant_97551" type="Const" version="opset1">
			<data element_type="i64" shape="1" offset="313902576" size="8" />
			<output>
				<port id="0" precision="I64">
					<dim>1</dim>
				</port>
			</output>
		</layer>
		<layer id="158" name="Reshape_97552" type="Reshape" version="opset1">
			<data special_zero="false" />
			<input>
				<port id="0" precision="I64" />
				<port id="1" precision="I64">
					<dim>1</dim>
				</port>
			</input>
			<output>
				<port id="2" precision="I64">
					<dim>1</dim>
				</port>
			</output>
		</layer>
		<layer id="159" name="Add_97553" type="Add" version="opset1">
			<data auto_broadcast="numpy" />
			<input>
				<port id="0" precision="I64">
					<dim>1</dim>
				</port>
				<port id="1" precision="I64">
					<dim>1</dim>
				</port>
			</input>
			<output>
				<port id="2" precision="I64" names="1000,1029,1161,1190,1322,1351,1483,1512,1644,1673,1805,1834,1966,1995,2127,2156,2288,2317,2449,2478,2610,2639,2771,2800,2932,2961,3093,3122,3254,3283,3415,3444,3576,3605,3737,3766,3898,3927,4059,4088,4220,4249,4381,4410,4542,4571,4703,4732,4864,4893,5025,5054,517,5186,5215,5347,5376,546,5508,5537,5669,5698,5830,5859,5991,6020,6152,6181,678,707,839,868">
					<dim>1</dim>
				</port>
			</output>
		</layer>
		<layer id="160" name="Constant_74154" type="Const" version="opset1">
			<data element_type="i64" shape="1" offset="20" size="8" />
			<output>
				<port id="0" precision="I64">
					<dim>1</dim>
				</port>
			</output>
		</layer>
		<layer id="161" name="__module.model.layers.0.self_attn/prim::ListConstruct_2" type="Concat" version="opset1">
			<data axis="0" />
			<input>
				<port id="0" precision="I64">
					<dim>2</dim>
				</port>
				<port id="1" precision="I64">
					<dim>1</dim>
				</port>
				<port id="2" precision="I64">
					<dim>1</dim>
				</port>
				<port id="3" precision="I64">
					<dim>1</dim>
				</port>
			</input>
			<output>
				<port id="4" precision="I64">
					<dim>5</dim>
				</port>
			</output>
		</layer>
		<layer id="162" name="__module.model.layers.0.self_attn/aten::expand/Broadcast" type="Broadcast" version="opset3">
			<data mode="bidirectional" />
			<input>
				<port id="0" precision="FP32">
					<dim>-1</dim>
					<dim>2</dim>
					<dim>1</dim>
					<dim>-1</dim>
					<dim>128</dim>
				</port>
				<port id="1" precision="I64">
					<dim>5</dim>
				</port>
			</input>
			<output>
				<port id="2" precision="FP32" names="525,hidden_states.11">
					<dim>-1</dim>
					<dim>2</dim>
					<dim>8</dim>
					<dim>-1</dim>
					<dim>128</dim>
				</port>
			</output>
		</layer>
		<layer id="163" name="Constant_105931" type="Const" version="opset1">
			<data element_type="i64" shape="4" offset="314185832" size="32" />
			<output>
				<port id="0" precision="I64">
					<dim>4</dim>
				</port>
			</output>
		</layer>
		<layer id="164" name="__module.model.layers.0.self_attn/aten::reshape/Reshape" type="Reshape" version="opset1">
			<data special_zero="true" />
			<input>
				<port id="0" precision="FP32">
					<dim>-1</dim>
					<dim>2</dim>
					<dim>8</dim>
					<dim>-1</dim>
					<dim>128</dim>
				</port>
				<port id="1" precision="I64">
					<dim>4</dim>
				</port>
			</input>
			<output>
				<port id="2" precision="FP32" names="529,key.1">
					<dim>-1</dim>
					<dim>16</dim>
					<dim>-1</dim>
					<dim>128</dim>
				</port>
			</output>
		</layer>
		<layer id="165" name="Constant_108477" type="Const" version="opset1">
			<data element_type="f32" shape="" offset="0" size="4" />
			<output>
				<port id="0" precision="FP32" />
			</output>
		</layer>
		<layer id="166" name="Constant_108470" type="Const" version="opset1">
			<data element_type="i64" shape="1" offset="12" size="8" />
			<output>
				<port id="0" precision="I64">
					<dim>1</dim>
				</port>
			</output>
		</layer>
		<layer id="167" name="Constant_108472" type="Const" version="opset1">
			<data element_type="i64" shape="1" offset="4" size="8" />
			<output>
				<port id="0" precision="I64">
					<dim>1</dim>
				</port>
			</output>
		</layer>
		<layer id="168" name="Constant_108474" type="Const" version="opset1">
			<data element_type="i64" shape="1" offset="20" size="8" />
			<output>
				<port id="0" precision="I64">
					<dim>1</dim>
				</port>
			</output>
		</layer>
		<layer id="169" name="Concat_108475" type="Concat" version="opset1">
			<data axis="0" />
			<input>
				<port id="0" precision="I64">
					<dim>1</dim>
				</port>
				<port id="1" precision="I64">
					<dim>1</dim>
				</port>
				<port id="2" precision="I64">
					<dim>1</dim>
				</port>
				<port id="3" precision="I64">
					<dim>1</dim>
				</port>
			</input>
			<output>
				<port id="4" precision="I64">
					<dim>4</dim>
				</port>
			</output>
		</layer>
		<layer id="170" name="Broadcast_108478" type="Broadcast" version="opset3">
			<data mode="numpy" />
			<input>
				<port id="0" precision="FP32" />
				<port id="1" precision="I64">
					<dim>4</dim>
				</port>
			</input>
			<output>
				<port id="2" precision="FP32">
					<dim>-1</dim>
					<dim>2</dim>
					<dim>0</dim>
					<dim>128</dim>
				</port>
			</output>
		</layer>
		<layer id="171" name="ReadValue_107927" type="ReadValue" version="opset6">
			<data variable_id="past_key_values.0.valuepresent.0.value" variable_type="f32" variable_shape="?,2,?,128" />
			<input>
				<port id="0" precision="FP32">
					<dim>-1</dim>
					<dim>2</dim>
					<dim>0</dim>
					<dim>128</dim>
				</port>
			</input>
			<output>
				<port id="1" precision="FP32" names="past_key_values.0.value">
					<dim>-1</dim>
					<dim>2</dim>
					<dim>-1</dim>
					<dim>128</dim>
				</port>
			</output>
		</layer>
		<layer id="172" name="Constant_107343" type="Const" version="opset1">
			<data element_type="i64" shape="" offset="4" size="8" />
			<output>
				<port id="0" precision="I64" />
			</output>
		</layer>
		<layer id="173" name="Gather_107344" type="Gather" version="opset8">
			<data batch_dims="0" />
			<input>
				<port id="0" precision="FP32">
					<dim>-1</dim>
					<dim>2</dim>
					<dim>-1</dim>
					<dim>128</dim>
				</port>
				<port id="1" precision="I32">
					<dim>-1</dim>
				</port>
				<port id="2" precision="I64" />
			</input>
			<output>
				<port id="3" precision="FP32">
					<dim>-1</dim>
					<dim>2</dim>
					<dim>-1</dim>
					<dim>128</dim>
				</port>
			</output>
		</layer>
		<layer id="174" name="self.model.layers.0.self_attn.v_proj.weight" type="Const" version="opset1">
			<data element_type="u4" shape="256, 32, 64" offset="314185864" size="262144" />
			<output>
				<port id="0" precision="U4">
					<dim>256</dim>
					<dim>32</dim>
					<dim>64</dim>
				</port>
			</output>
		</layer>
		<layer id="175" name="Convert_1041972" type="Convert" version="opset1">
			<data destination_type="f16" />
			<input>
				<port id="0" precision="U4">
					<dim>256</dim>
					<dim>32</dim>
					<dim>64</dim>
				</port>
			</input>
			<output>
				<port id="1" precision="FP16">
					<dim>256</dim>
					<dim>32</dim>
					<dim>64</dim>
				</port>
			</output>
		</layer>
		<layer id="176" name="self.model.layers.0.self_attn.v_proj.weight/zero_point" type="Const" version="opset1">
			<data element_type="u4" shape="256, 32, 1" offset="314448008" size="4096" />
			<output>
				<port id="0" precision="U4">
					<dim>256</dim>
					<dim>32</dim>
					<dim>1</dim>
				</port>
			</output>
		</layer>
		<layer id="177" name="Convert_1041974" type="Convert" version="opset1">
			<data destination_type="f16" />
			<input>
				<port id="0" precision="U4">
					<dim>256</dim>
					<dim>32</dim>
					<dim>1</dim>
				</port>
			</input>
			<output>
				<port id="1" precision="FP16">
					<dim>256</dim>
					<dim>32</dim>
					<dim>1</dim>
				</port>
			</output>
		</layer>
		<layer id="178" name="self.model.layers.0.self_attn.v_proj.weight/zero_point/subtract" type="Subtract" version="opset1">
			<data auto_broadcast="numpy" />
			<input>
				<port id="0" precision="FP16">
					<dim>256</dim>
					<dim>32</dim>
					<dim>64</dim>
				</port>
				<port id="1" precision="FP16">
					<dim>256</dim>
					<dim>32</dim>
					<dim>1</dim>
				</port>
			</input>
			<output>
				<port id="2" precision="FP16">
					<dim>256</dim>
					<dim>32</dim>
					<dim>64</dim>
				</port>
			</output>
		</layer>
		<layer id="179" name="self.model.layers.0.self_attn.v_proj.weight/scale" type="Const" version="opset1">
			<data element_type="f16" shape="256, 32, 1" offset="314452104" size="16384" />
			<output>
				<port id="0" precision="FP16">
					<dim>256</dim>
					<dim>32</dim>
					<dim>1</dim>
				</port>
			</output>
		</layer>
		<layer id="180" name="self.model.layers.0.self_attn.v_proj.weight/fq_weights_1" type="Multiply" version="opset1">
			<data auto_broadcast="numpy" />
			<input>
				<port id="0" precision="FP16">
					<dim>256</dim>
					<dim>32</dim>
					<dim>64</dim>
				</port>
				<port id="1" precision="FP16">
					<dim>256</dim>
					<dim>32</dim>
					<dim>1</dim>
				</port>
			</input>
			<output>
				<port id="2" precision="FP16">
					<dim>256</dim>
					<dim>32</dim>
					<dim>64</dim>
				</port>
			</output>
		</layer>
		<layer id="181" name="Constant_1041979" type="Const" version="opset1">
			<data element_type="i64" shape="2" offset="314185248" size="16" />
			<output>
				<port id="0" precision="I64">
					<dim>2</dim>
				</port>
			</output>
		</layer>
		<layer id="182" name="Reshape_1041980" type="Reshape" version="opset1">
			<data special_zero="false" />
			<input>
				<port id="0" precision="FP16">
					<dim>256</dim>
					<dim>32</dim>
					<dim>64</dim>
				</port>
				<port id="1" precision="I64">
					<dim>2</dim>
				</port>
			</input>
			<output>
				<port id="2" precision="FP16">
					<dim>256</dim>
					<dim>2048</dim>
				</port>
			</output>
		</layer>
		<layer id="183" name="__module.model.layers.0.self_attn.v_proj/ov_ext::linear/Convert" type="Convert" version="opset1">
			<data destination_type="f32" />
			<rt_info>
				<attribute name="decompression" version="0" />
			</rt_info>
			<input>
				<port id="0" precision="FP16">
					<dim>256</dim>
					<dim>2048</dim>
				</port>
			</input>
			<output>
				<port id="1" precision="FP32">
					<dim>256</dim>
					<dim>2048</dim>
				</port>
			</output>
		</layer>
		<layer id="184" name="__module.model.layers.0.self_attn.v_proj/ov_ext::linear/MatMul" type="MatMul" version="opset1">
			<data transpose_a="false" transpose_b="true" />
			<input>
				<port id="0" precision="FP32">
					<dim>-1</dim>
					<dim>-1</dim>
					<dim>2048</dim>
				</port>
				<port id="1" precision="FP32">
					<dim>256</dim>
					<dim>2048</dim>
				</port>
			</input>
			<output>
				<port id="2" precision="FP32">
					<dim>-1</dim>
					<dim>-1</dim>
					<dim>256</dim>
				</port>
			</output>
		</layer>
		<layer id="185" name="self.model.layers.0.self_attn.v_proj.bias" type="Const" version="opset1">
			<data element_type="bf16" shape="256" offset="314468488" size="512" />
			<output>
				<port id="0" precision="BF16" names="self.model.layers.0.self_attn.v_proj.bias">
					<dim>256</dim>
				</port>
			</output>
		</layer>
		<layer id="186" name="__module.model.layers.0.self_attn.v_proj/ov_ext::linear/Convert_1" type="Convert" version="opset1">
			<data destination_type="f32" />
			<rt_info>
				<attribute name="decompression" version="0" />
			</rt_info>
			<input>
				<port id="0" precision="BF16">
					<dim>256</dim>
				</port>
			</input>
			<output>
				<port id="1" precision="FP32">
					<dim>256</dim>
				</port>
			</output>
		</layer>
		<layer id="187" name="__module.model.layers.0.self_attn.v_proj/ov_ext::linear/Add" type="Add" version="opset1">
			<data auto_broadcast="numpy" />
			<input>
				<port id="0" precision="FP32">
					<dim>-1</dim>
					<dim>-1</dim>
					<dim>256</dim>
				</port>
				<port id="1" precision="FP32">
					<dim>256</dim>
				</port>
			</input>
			<output>
				<port id="2" precision="FP32" names="469">
					<dim>-1</dim>
					<dim>-1</dim>
					<dim>256</dim>
				</port>
			</output>
		</layer>
		<layer id="188" name="Constant_105932" type="Const" version="opset1">
			<data element_type="i64" shape="4" offset="314185776" size="32" />
			<output>
				<port id="0" precision="I64">
					<dim>4</dim>
				</port>
			</output>
		</layer>
		<layer id="189" name="__module.model.layers.0.self_attn/aten::view/Reshape_2" type="Reshape" version="opset1">
			<data special_zero="true" />
			<input>
				<port id="0" precision="FP32">
					<dim>-1</dim>
					<dim>-1</dim>
					<dim>256</dim>
				</port>
				<port id="1" precision="I64">
					<dim>4</dim>
				</port>
			</input>
			<output>
				<port id="2" precision="FP32" names="471">
					<dim>-1</dim>
					<dim>-1</dim>
					<dim>2</dim>
					<dim>128</dim>
				</port>
			</output>
		</layer>
		<layer id="190" name="__module.model.layers.0.self_attn/aten::transpose/Constant_2" type="Const" version="opset1">
			<data element_type="i32" shape="4" offset="313902304" size="16" />
			<output>
				<port id="0" precision="I32">
					<dim>4</dim>
				</port>
			</output>
		</layer>
		<layer id="191" name="__module.model.layers.0.self_attn/aten::transpose/Transpose_2" type="Transpose" version="opset1">
			<input>
				<port id="0" precision="FP32">
					<dim>-1</dim>
					<dim>-1</dim>
					<dim>2</dim>
					<dim>128</dim>
				</port>
				<port id="1" precision="I32">
					<dim>4</dim>
				</port>
			</input>
			<output>
				<port id="2" precision="FP32" names="472">
					<dim>-1</dim>
					<dim>2</dim>
					<dim>-1</dim>
					<dim>128</dim>
				</port>
			</output>
		</layer>
		<layer id="192" name="__module.model.layers.0.self_attn/aten::cat/Concat_3" type="Concat" version="opset1">
			<data axis="-2" />
			<input>
				<port id="0" precision="FP32">
					<dim>-1</dim>
					<dim>2</dim>
					<dim>-1</dim>
					<dim>128</dim>
				</port>
				<port id="1" precision="FP32">
					<dim>-1</dim>
					<dim>2</dim>
					<dim>-1</dim>
					<dim>128</dim>
				</port>
			</input>
			<output>
				<port id="2" precision="FP32" names="535,536,hidden_states.13">
					<dim>-1</dim>
					<dim>2</dim>
					<dim>-1</dim>
					<dim>128</dim>
				</port>
			</output>
		</layer>
		<layer id="193" name="__module.model.layers.0.self_attn/aten::unsqueeze/Unsqueeze_3" type="Unsqueeze" version="opset1">
			<input>
				<port id="0" precision="FP32">
					<dim>-1</dim>
					<dim>2</dim>
					<dim>-1</dim>
					<dim>128</dim>
				</port>
				<port id="1" precision="I64" />
			</input>
			<output>
				<port id="2" precision="FP32" names="537,538,539">
					<dim>-1</dim>
					<dim>2</dim>
					<dim>1</dim>
					<dim>-1</dim>
					<dim>128</dim>
				</port>
			</output>
		</layer>
		<layer id="194" name="__module.model.layers.0.self_attn/aten::expand/Broadcast_1" type="Broadcast" version="opset3">
			<data mode="bidirectional" />
			<input>
				<port id="0" precision="FP32">
					<dim>-1</dim>
					<dim>2</dim>
					<dim>1</dim>
					<dim>-1</dim>
					<dim>128</dim>
				</port>
				<port id="1" precision="I64">
					<dim>5</dim>
				</port>
			</input>
			<output>
				<port id="2" precision="FP32" names="541,hidden_states.15">
					<dim>-1</dim>
					<dim>2</dim>
					<dim>8</dim>
					<dim>-1</dim>
					<dim>128</dim>
				</port>
			</output>
		</layer>
		<layer id="195" name="Constant_105933" type="Const" version="opset1">
			<data element_type="i64" shape="4" offset="314185832" size="32" />
			<output>
				<port id="0" precision="I64">
					<dim>4</dim>
				</port>
			</output>
		</layer>
		<layer id="196" name="__module.model.layers.0.self_attn/aten::reshape/Reshape_1" type="Reshape" version="opset1">
			<data special_zero="true" />
			<input>
				<port id="0" precision="FP32">
					<dim>-1</dim>
					<dim>2</dim>
					<dim>8</dim>
					<dim>-1</dim>
					<dim>128</dim>
				</port>
				<port id="1" precision="I64">
					<dim>4</dim>
				</port>
			</input>
			<output>
				<port id="2" precision="FP32" names="545,value.1">
					<dim>-1</dim>
					<dim>16</dim>
					<dim>-1</dim>
					<dim>128</dim>
				</port>
			</output>
		</layer>
		<layer id="197" name="Constant_95355" type="Const" version="opset1">
			<data element_type="f32" shape="1, 1" offset="314469000" size="4" />
			<output>
				<port id="0" precision="FP32">
					<dim>1</dim>
					<dim>1</dim>
				</port>
			</output>
		</layer>
		<layer id="198" name="__module.model/aten::arange/Constant" type="Const" version="opset1">
			<data element_type="i32" shape="" offset="0" size="4" />
			<output>
				<port id="0" precision="I32" />
			</output>
		</layer>
		<layer id="199" name="ShapeOf_97513" type="ShapeOf" version="opset3">
			<data output_type="i64" />
			<input>
				<port id="0" precision="I64">
					<dim>-1</dim>
					<dim>-1</dim>
				</port>
			</input>
			<output>
				<port id="1" precision="I64">
					<dim>2</dim>
				</port>
			</output>
		</layer>
		<layer id="200" name="Constant_97514" type="Const" version="opset1">
			<data element_type="i64" shape="" offset="313902576" size="8" />
			<output>
				<port id="0" precision="I64" />
			</output>
		</layer>
		<layer id="201" name="Constant_97515" type="Const" version="opset1">
			<data element_type="i64" shape="" offset="4" size="8" />
			<output>
				<port id="0" precision="I64" />
			</output>
		</layer>
		<layer id="202" name="Gather_97516" type="Gather" version="opset8">
			<data batch_dims="0" />
			<input>
				<port id="0" precision="I64">
					<dim>2</dim>
				</port>
				<port id="1" precision="I64" />
				<port id="2" precision="I64" />
			</input>
			<output>
				<port id="3" precision="I64" names="360,382" />
			</output>
		</layer>
		<layer id="203" name="__module.model/aten::arange/Constant_1" type="Const" version="opset1">
			<data element_type="i32" shape="" offset="314469004" size="4" />
			<output>
				<port id="0" precision="I32" />
			</output>
		</layer>
		<layer id="204" name="__module.model/aten::arange/Range" type="Range" version="opset4">
			<data output_type="f32" />
			<input>
				<port id="0" precision="I32" />
				<port id="1" precision="I64" />
				<port id="2" precision="I32" />
			</input>
			<output>
				<port id="3" precision="FP32">
					<dim>-1</dim>
				</port>
			</output>
		</layer>
		<layer id="205" name="__module.model/aten::arange/ConvertLike" type="Convert" version="opset1">
			<data destination_type="i64" />
			<input>
				<port id="0" precision="FP32">
					<dim>-1</dim>
				</port>
			</input>
			<output>
				<port id="1" precision="I64" names="364,368">
					<dim>-1</dim>
				</port>
			</output>
		</layer>
		<layer id="206" name="__module.model/aten::gt/Convert" type="Convert" version="opset1">
			<data destination_type="f32" />
			<input>
				<port id="0" precision="I64">
					<dim>-1</dim>
				</port>
			</input>
			<output>
				<port id="1" precision="FP32">
					<dim>-1</dim>
				</port>
			</output>
		</layer>
		<layer id="207" name="__module.model/aten::add/Add" type="Add" version="opset1">
			<data auto_broadcast="numpy" />
			<input>
				<port id="0" precision="I64" />
				<port id="1" precision="I64" />
			</input>
			<output>
				<port id="2" precision="I64" names="356" />
			</output>
		</layer>
		<layer id="208" name="__module.model/aten::arange/Constant_2" type="Const" version="opset1">
			<data element_type="i32" shape="" offset="314469004" size="4" />
			<output>
				<port id="0" precision="I32" />
			</output>
		</layer>
		<layer id="209" name="__module.model/aten::arange/Range_1" type="Range" version="opset4">
			<data output_type="f32" />
			<input>
				<port id="0" precision="I64" />
				<port id="1" precision="I64" />
				<port id="2" precision="I32" />
			</input>
			<output>
				<port id="3" precision="FP32" names="358,cache_position">
					<dim>-1</dim>
				</port>
			</output>
		</layer>
		<layer id="210" name="Constant_206" type="Const" version="opset1">
			<data element_type="i64" shape="2" offset="314469008" size="16" />
			<output>
				<port id="0" precision="I64" names="365">
					<dim>2</dim>
				</port>
			</output>
		</layer>
		<layer id="211" name="__module.model/aten::reshape/Reshape" type="Reshape" version="opset1">
			<data special_zero="false" />
			<input>
				<port id="0" precision="FP32">
					<dim>-1</dim>
				</port>
				<port id="1" precision="I64">
					<dim>2</dim>
				</port>
			</input>
			<output>
				<port id="2" precision="FP32" names="366,370">
					<dim>-1</dim>
					<dim>1</dim>
				</port>
			</output>
		</layer>
		<layer id="212" name="__module.model/aten::gt/Greater" type="Greater" version="opset1">
			<data auto_broadcast="numpy" />
			<input>
				<port id="0" precision="FP32">
					<dim>-1</dim>
				</port>
				<port id="1" precision="FP32">
					<dim>-1</dim>
					<dim>1</dim>
				</port>
			</input>
			<output>
				<port id="2" precision="BOOL" names="367_1">
					<dim>-1</dim>
					<dim>-1</dim>
				</port>
			</output>
		</layer>
		<layer id="213" name="Constant_95354" type="Const" version="opset1">
			<data element_type="f32" shape="1, 1" offset="314469024" size="4" />
			<output>
				<port id="0" precision="FP32">
					<dim>1</dim>
					<dim>1</dim>
				</port>
			</output>
		</layer>
		<layer id="214" name="__module.model/aten::sub/Subtract" type="Add" version="opset1">
			<data auto_broadcast="numpy" />
			<input>
				<port id="0" precision="FP32">
					<dim>-1</dim>
					<dim>1</dim>
				</port>
				<port id="1" precision="FP32">
					<dim>1</dim>
					<dim>1</dim>
				</port>
			</input>
			<output>
				<port id="2" precision="FP32" names="371">
					<dim>-1</dim>
					<dim>1</dim>
				</port>
			</output>
		</layer>
		<layer id="215" name="__module.model/aten::le/LessEqual" type="LessEqual" version="opset1">
			<data auto_broadcast="numpy" />
			<input>
				<port id="0" precision="FP32">
					<dim>-1</dim>
				</port>
				<port id="1" precision="FP32">
					<dim>-1</dim>
					<dim>1</dim>
				</port>
			</input>
			<output>
				<port id="2" precision="BOOL" names="372,sliding_attend_mask">
					<dim>-1</dim>
					<dim>-1</dim>
				</port>
			</output>
		</layer>
		<layer id="216" name="__module.model/aten::bitwise_or_/BitwiseOr" type="BitwiseOr" version="opset13">
			<data auto_broadcast="numpy" />
			<input>
				<port id="0" precision="BOOL">
					<dim>-1</dim>
					<dim>-1</dim>
				</port>
				<port id="1" precision="BOOL">
					<dim>-1</dim>
					<dim>-1</dim>
				</port>
			</input>
			<output>
				<port id="2" precision="BOOL" names="367,diagonal_attend_mask.1">
					<dim>-1</dim>
					<dim>-1</dim>
				</port>
			</output>
		</layer>
		<layer id="217" name="__module.model/aten::mul_/ConvertLike" type="Convert" version="opset1">
			<data destination_type="f32" />
			<input>
				<port id="0" precision="BOOL">
					<dim>-1</dim>
					<dim>-1</dim>
				</port>
			</input>
			<output>
				<port id="1" precision="FP32">
					<dim>-1</dim>
					<dim>-1</dim>
				</port>
			</output>
		</layer>
		<layer id="218" name="Multiply_77576" type="Multiply" version="opset1">
			<data auto_broadcast="numpy" />
			<input>
				<port id="0" precision="FP32">
					<dim>1</dim>
					<dim>1</dim>
				</port>
				<port id="1" precision="FP32">
					<dim>-1</dim>
					<dim>-1</dim>
				</port>
			</input>
			<output>
				<port id="2" precision="FP32">
					<dim>-1</dim>
					<dim>-1</dim>
				</port>
			</output>
		</layer>
		<layer id="219" name="ShapeOf_77577" type="ShapeOf" version="opset3">
			<data output_type="i64" />
			<input>
				<port id="0" precision="FP32">
					<dim>-1</dim>
					<dim>-1</dim>
				</port>
			</input>
			<output>
				<port id="1" precision="I64">
					<dim>2</dim>
				</port>
			</output>
		</layer>
		<layer id="220" name="Maximum_77578" type="Maximum" version="opset1">
			<data auto_broadcast="numpy" />
			<input>
				<port id="0" precision="I64">
					<dim>2</dim>
				</port>
				<port id="1" precision="I64">
					<dim>2</dim>
				</port>
			</input>
			<output>
				<port id="2" precision="I64">
					<dim>2</dim>
				</port>
			</output>
		</layer>
		<layer id="221" name="__module.model/aten::mul_/Multiply" type="Broadcast" version="opset3">
			<data mode="numpy" />
			<input>
				<port id="0" precision="FP32">
					<dim>-1</dim>
					<dim>-1</dim>
				</port>
				<port id="1" precision="I64">
					<dim>2</dim>
				</port>
			</input>
			<output>
				<port id="2" precision="FP32" names="363,causal_mask.1">
					<dim>-1</dim>
					<dim>-1</dim>
				</port>
			</output>
		</layer>
		<layer id="222" name="269" type="Const" version="opset1">
			<data element_type="i64" shape="" offset="4" size="8" />
			<output>
				<port id="0" precision="I64" names="269" />
			</output>
		</layer>
		<layer id="223" name="__module.model/aten::unsqueeze/Unsqueeze" type="Unsqueeze" version="opset1">
			<input>
				<port id="0" precision="FP32">
					<dim>-1</dim>
					<dim>-1</dim>
				</port>
				<port id="1" precision="I64" />
			</input>
			<output>
				<port id="2" precision="FP32" names="375">
					<dim>1</dim>
					<dim>-1</dim>
					<dim>-1</dim>
				</port>
			</output>
		</layer>
		<layer id="224" name="__module.model/aten::unsqueeze/Unsqueeze_1" type="Unsqueeze" version="opset1">
			<input>
				<port id="0" precision="FP32">
					<dim>1</dim>
					<dim>-1</dim>
					<dim>-1</dim>
				</port>
				<port id="1" precision="I64" />
			</input>
			<output>
				<port id="2" precision="FP32" names="376,377,378">
					<dim>1</dim>
					<dim>1</dim>
					<dim>-1</dim>
					<dim>-1</dim>
				</port>
			</output>
		</layer>
		<layer id="225" name="Constant_74182" type="Const" version="opset1">
			<data element_type="i64" shape="1" offset="313902576" size="8" />
			<output>
				<port id="0" precision="I64">
					<dim>1</dim>
				</port>
			</output>
		</layer>
		<layer id="226" name="Constant_74184" type="Const" version="opset1">
			<data element_type="i64" shape="1" offset="313902576" size="8" />
			<output>
				<port id="0" precision="I64">
					<dim>1</dim>
				</port>
			</output>
		</layer>
		<layer id="227" name="Constant_74186" type="Const" version="opset1">
			<data element_type="i64" shape="1" offset="313902576" size="8" />
			<output>
				<port id="0" precision="I64">
					<dim>1</dim>
				</port>
			</output>
		</layer>
		<layer id="228" name="__module.model/prim::ListConstruct_1" type="Concat" version="opset1">
			<data axis="0" />
			<input>
				<port id="0" precision="I64">
					<dim>1</dim>
				</port>
				<port id="1" precision="I64">
					<dim>1</dim>
				</port>
				<port id="2" precision="I64">
					<dim>1</dim>
				</port>
				<port id="3" precision="I64">
					<dim>1</dim>
				</port>
			</input>
			<output>
				<port id="4" precision="I64">
					<dim>4</dim>
				</port>
			</output>
		</layer>
		<layer id="229" name="__module.model/aten::expand/Broadcast" type="Broadcast" version="opset3">
			<data mode="bidirectional" />
			<input>
				<port id="0" precision="FP32">
					<dim>1</dim>
					<dim>1</dim>
					<dim>-1</dim>
					<dim>-1</dim>
				</port>
				<port id="1" precision="I64">
					<dim>4</dim>
				</port>
			</input>
			<output>
				<port id="2" precision="FP32" names="380,383,384,385,394,395,396,399_1,400_1,401_1,causal_mask.5">
					<dim>-1</dim>
					<dim>1</dim>
					<dim>-1</dim>
					<dim>-1</dim>
				</port>
			</output>
		</layer>
		<layer id="230" name="Constant_62252" type="Const" version="opset1">
			<data element_type="i64" shape="1" offset="311637156" size="8" />
			<output>
				<port id="0" precision="I64">
					<dim>1</dim>
				</port>
			</output>
		</layer>
		<layer id="231" name="SliceAssign_447/Reshape_3" type="Reshape" version="opset1">
			<data special_zero="false" />
			<input>
				<port id="0" precision="FP32">
					<dim>-1</dim>
					<dim>1</dim>
					<dim>-1</dim>
					<dim>-1</dim>
				</port>
				<port id="1" precision="I64">
					<dim>1</dim>
				</port>
			</input>
			<output>
				<port id="2" precision="FP32">
					<dim>-1</dim>
				</port>
			</output>
		</layer>
		<layer id="232" name="Constant_41027" type="Const" version="opset1">
			<data element_type="i64" shape="" offset="4" size="8" />
			<output>
				<port id="0" precision="I64" />
			</output>
		</layer>
		<layer id="233" name="SliceAssign_447/ShapeOf" type="ShapeOf" version="opset3">
			<data output_type="i64" />
			<input>
				<port id="0" precision="FP32">
					<dim>-1</dim>
					<dim>1</dim>
					<dim>-1</dim>
					<dim>-1</dim>
				</port>
			</input>
			<output>
				<port id="1" precision="I64">
					<dim>4</dim>
				</port>
			</output>
		</layer>
		<layer id="234" name="SliceAssign_447/ReduceProd" type="ReduceProd" version="opset1">
			<data keep_dims="false" />
			<input>
				<port id="0" precision="I64">
					<dim>4</dim>
				</port>
				<port id="1" precision="I64" />
			</input>
			<output>
				<port id="2" precision="I64" />
			</output>
		</layer>
		<layer id="235" name="Constant_41028" type="Const" version="opset1">
			<data element_type="i64" shape="" offset="313902576" size="8" />
			<output>
				<port id="0" precision="I64" />
			</output>
		</layer>
		<layer id="236" name="SliceAssign_447/Range" type="Range" version="opset4">
			<data output_type="i64" />
			<input>
				<port id="0" precision="I64" />
				<port id="1" precision="I64" />
				<port id="2" precision="I64" />
			</input>
			<output>
				<port id="3" precision="I64">
					<dim>-1</dim>
				</port>
			</output>
		</layer>
		<layer id="237" name="SliceAssign_447/Reshape" type="Reshape" version="opset1">
			<data special_zero="false" />
			<input>
				<port id="0" precision="I64">
					<dim>-1</dim>
				</port>
				<port id="1" precision="I64">
					<dim>4</dim>
				</port>
			</input>
			<output>
				<port id="2" precision="I64">
					<dim>-1</dim>
					<dim>1</dim>
					<dim>-1</dim>
					<dim>-1</dim>
				</port>
			</output>
		</layer>
		<layer id="238" name="Constant_437" type="Const" version="opset1">
			<data element_type="i64" shape="1" offset="4" size="8" />
			<output>
				<port id="0" precision="I64">
					<dim>1</dim>
				</port>
			</output>
		</layer>
		<layer id="239" name="Constant_97541" type="Const" version="opset1">
			<data element_type="i64" shape="1" offset="313902576" size="8" />
			<output>
				<port id="0" precision="I64">
					<dim>1</dim>
				</port>
			</output>
		</layer>
		<layer id="240" name="Reshape_97542" type="Reshape" version="opset1">
			<data special_zero="false" />
			<input>
				<port id="0" precision="I64" />
				<port id="1" precision="I64">
					<dim>1</dim>
				</port>
			</input>
			<output>
				<port id="2" precision="I64">
					<dim>1</dim>
				</port>
			</output>
		</layer>
		<layer id="241" name="Constant_440" type="Const" version="opset1">
			<data element_type="i64" shape="1" offset="313902576" size="8" />
			<output>
				<port id="0" precision="I64">
					<dim>1</dim>
				</port>
			</output>
		</layer>
		<layer id="242" name="Constant_435" type="Const" version="opset1">
			<data element_type="i64" shape="1" offset="313902612" size="8" />
			<output>
				<port id="0" precision="I64">
					<dim>1</dim>
				</port>
			</output>
		</layer>
		<layer id="243" name="SliceAssign_447/Slice_2" type="Slice" version="opset8">
			<input>
				<port id="0" precision="I64">
					<dim>-1</dim>
					<dim>1</dim>
					<dim>-1</dim>
					<dim>-1</dim>
				</port>
				<port id="1" precision="I64">
					<dim>1</dim>
				</port>
				<port id="2" precision="I64">
					<dim>1</dim>
				</port>
				<port id="3" precision="I64">
					<dim>1</dim>
				</port>
				<port id="4" precision="I64">
					<dim>1</dim>
				</port>
			</input>
			<output>
				<port id="5" precision="I64">
					<dim>-1</dim>
					<dim>1</dim>
					<dim>-1</dim>
					<dim>-1</dim>
				</port>
			</output>
		</layer>
		<layer id="244" name="Constant_41030" type="Const" version="opset1">
			<data element_type="i64" shape="2" offset="314469008" size="16" />
			<output>
				<port id="0" precision="I64">
					<dim>2</dim>
				</port>
			</output>
		</layer>
		<layer id="245" name="SliceAssign_447/Reshape_4" type="Reshape" version="opset1">
			<data special_zero="false" />
			<input>
				<port id="0" precision="I64">
					<dim>-1</dim>
					<dim>1</dim>
					<dim>-1</dim>
					<dim>-1</dim>
				</port>
				<port id="1" precision="I64">
					<dim>2</dim>
				</port>
			</input>
			<output>
				<port id="2" precision="I64">
					<dim>-1</dim>
					<dim>1</dim>
				</port>
			</output>
		</layer>
		<layer id="246" name="Constant_319" type="Const" version="opset1">
			<data element_type="i64" shape="1" offset="4" size="8" />
			<output>
				<port id="0" precision="I64">
					<dim>1</dim>
				</port>
			</output>
		</layer>
		<layer id="247" name="Constant_322" type="Const" version="opset1">
			<data element_type="i64" shape="1" offset="313902576" size="8" />
			<output>
				<port id="0" precision="I64">
					<dim>1</dim>
				</port>
			</output>
		</layer>
		<layer id="248" name="Constant_317" type="Const" version="opset1">
			<data element_type="i64" shape="1" offset="313902612" size="8" />
			<output>
				<port id="0" precision="I64">
					<dim>1</dim>
				</port>
			</output>
		</layer>
		<layer id="249" name="__module.model/aten::slice/Slice_5" type="Slice" version="opset8">
			<input>
				<port id="0" precision="FP32">
					<dim>-1</dim>
					<dim>1</dim>
					<dim>-1</dim>
					<dim>-1</dim>
				</port>
				<port id="1" precision="I64">
					<dim>1</dim>
				</port>
				<port id="2" precision="I64">
					<dim>1</dim>
				</port>
				<port id="3" precision="I64">
					<dim>1</dim>
				</port>
				<port id="4" precision="I64">
					<dim>1</dim>
				</port>
			</input>
			<output>
				<port id="5" precision="FP32" names="386,397,402_1">
					<dim>-1</dim>
					<dim>1</dim>
					<dim>-1</dim>
					<dim>-1</dim>
				</port>
			</output>
		</layer>
		<layer id="250" name="__module.model/aten::unsqueeze/Unsqueeze_2" type="Unsqueeze" version="opset1">
			<input>
				<port id="0" precision="I64">
					<dim>-1</dim>
					<dim>-1</dim>
				</port>
				<port id="1" precision="I64" />
			</input>
			<output>
				<port id="2" precision="I64" names="388">
					<dim>-1</dim>
					<dim>1</dim>
					<dim>-1</dim>
				</port>
			</output>
		</layer>
		<layer id="251" name="__module.model/aten::unsqueeze/Unsqueeze_3" type="Unsqueeze" version="opset1">
			<input>
				<port id="0" precision="I64">
					<dim>-1</dim>
					<dim>1</dim>
					<dim>-1</dim>
				</port>
				<port id="1" precision="I64" />
			</input>
			<output>
				<port id="2" precision="I64" names="389,390,391">
					<dim>-1</dim>
					<dim>1</dim>
					<dim>1</dim>
					<dim>-1</dim>
				</port>
			</output>
		</layer>
		<layer id="252" name="__module.model/aten::add/Convert" type="Convert" version="opset1">
			<data destination_type="f32" />
			<input>
				<port id="0" precision="I64">
					<dim>-1</dim>
					<dim>1</dim>
					<dim>1</dim>
					<dim>-1</dim>
				</port>
			</input>
			<output>
				<port id="1" precision="FP32">
					<dim>-1</dim>
					<dim>1</dim>
					<dim>1</dim>
					<dim>-1</dim>
				</port>
			</output>
		</layer>
		<layer id="253" name="__module.model/aten::add/Add_1" type="Add" version="opset1">
			<data auto_broadcast="numpy" />
			<input>
				<port id="0" precision="FP32">
					<dim>-1</dim>
					<dim>1</dim>
					<dim>-1</dim>
					<dim>-1</dim>
				</port>
				<port id="1" precision="FP32">
					<dim>-1</dim>
					<dim>1</dim>
					<dim>1</dim>
					<dim>-1</dim>
				</port>
			</input>
			<output>
				<port id="2" precision="FP32" names="392,padding_mask.1">
					<dim>-1</dim>
					<dim>1</dim>
					<dim>-1</dim>
					<dim>-1</dim>
				</port>
			</output>
		</layer>
		<layer id="254" name="Constant_95356" type="Const" version="opset1">
			<data element_type="f32" shape="1, 1, 1, 1" offset="0" size="4" />
			<output>
				<port id="0" precision="FP32">
					<dim>1</dim>
					<dim>1</dim>
					<dim>1</dim>
					<dim>1</dim>
				</port>
			</output>
		</layer>
		<layer id="255" name="__module.model/aten::eq/Equal" type="Equal" version="opset1">
			<data auto_broadcast="numpy" />
			<input>
				<port id="0" precision="FP32">
					<dim>-1</dim>
					<dim>1</dim>
					<dim>-1</dim>
					<dim>-1</dim>
				</port>
				<port id="1" precision="FP32">
					<dim>1</dim>
					<dim>1</dim>
					<dim>1</dim>
					<dim>1</dim>
				</port>
			</input>
			<output>
				<port id="2" precision="BOOL" names="393,padding_mask">
					<dim>-1</dim>
					<dim>1</dim>
					<dim>-1</dim>
					<dim>-1</dim>
				</port>
			</output>
		</layer>
		<layer id="256" name="__module.model/aten::full/Convert" type="Const" version="opset1">
			<data element_type="f32" shape="" offset="314469000" size="4" />
			<output>
				<port id="0" precision="FP32" />
			</output>
		</layer>
		<layer id="257" name="__module.model/aten::masked_fill/Select" type="Select" version="opset1">
			<data auto_broadcast="numpy" />
			<input>
				<port id="0" precision="BOOL">
					<dim>-1</dim>
					<dim>1</dim>
					<dim>-1</dim>
					<dim>-1</dim>
				</port>
				<port id="1" precision="FP32" />
				<port id="2" precision="FP32">
					<dim>-1</dim>
					<dim>1</dim>
					<dim>-1</dim>
					<dim>-1</dim>
				</port>
			</input>
			<output>
				<port id="3" precision="FP32" names="398">
					<dim>-1</dim>
					<dim>1</dim>
					<dim>-1</dim>
					<dim>-1</dim>
				</port>
			</output>
		</layer>
		<layer id="258" name="__module.model/aten::copy_/ShapeOf" type="ShapeOf" version="opset3">
			<data output_type="i64" />
			<input>
				<port id="0" precision="FP32">
					<dim>-1</dim>
					<dim>1</dim>
					<dim>-1</dim>
					<dim>-1</dim>
				</port>
			</input>
			<output>
				<port id="1" precision="I64">
					<dim>4</dim>
				</port>
			</output>
		</layer>
		<layer id="259" name="__module.model/aten::copy_/Broadcast" type="Broadcast" version="opset3">
			<data mode="numpy" />
			<input>
				<port id="0" precision="FP32">
					<dim>-1</dim>
					<dim>1</dim>
					<dim>-1</dim>
					<dim>-1</dim>
				</port>
				<port id="1" precision="I64">
					<dim>4</dim>
				</port>
			</input>
			<output>
				<port id="2" precision="FP32" names="402">
					<dim>-1</dim>
					<dim>1</dim>
					<dim>-1</dim>
					<dim>-1</dim>
				</port>
			</output>
		</layer>
		<layer id="260" name="Constant_62254" type="Const" version="opset1">
			<data element_type="i64" shape="1" offset="311637156" size="8" />
			<output>
				<port id="0" precision="I64">
					<dim>1</dim>
				</port>
			</output>
		</layer>
		<layer id="261" name="SliceAssign_447/Reshape_5" type="Reshape" version="opset1">
			<data special_zero="false" />
			<input>
				<port id="0" precision="FP32">
					<dim>-1</dim>
					<dim>1</dim>
					<dim>-1</dim>
					<dim>-1</dim>
				</port>
				<port id="1" precision="I64">
					<dim>1</dim>
				</port>
			</input>
			<output>
				<port id="2" precision="FP32">
					<dim>-1</dim>
				</port>
			</output>
		</layer>
		<layer id="262" name="SliceAssign_447/ScatterNDUpdate" type="ScatterNDUpdate" version="opset4">
			<input>
				<port id="0" precision="FP32">
					<dim>-1</dim>
				</port>
				<port id="1" precision="I64">
					<dim>-1</dim>
					<dim>1</dim>
				</port>
				<port id="2" precision="FP32">
					<dim>-1</dim>
				</port>
			</input>
			<output>
				<port id="3" precision="FP32">
					<dim>-1</dim>
				</port>
			</output>
		</layer>
		<layer id="263" name="SliceAssign_447/Reshape_6" type="Reshape" version="opset1">
			<data special_zero="false" />
			<input>
				<port id="0" precision="FP32">
					<dim>-1</dim>
				</port>
				<port id="1" precision="I64">
					<dim>4</dim>
				</port>
			</input>
			<output>
				<port id="2" precision="FP32" names="1030,1031,1032,1191,1192,1193,1352,1353,1354,1513,1514,1515,1674,1675,1676,1835,1836,1837,1996,1997,1998,2157,2158,2159,2318,2319,2320,2479,2480,2481,2640,2641,2642,2801,2802,2803,2962,2963,2964,3123,3124,3125,3284,3285,3286,3445,3446,3447,3606,3607,3608,3767,3768,3769,381,3928,3929,3930,4089,4090,4091,4250,4251,4252,4411,4412,4413,4572,4573,4574,4733,4734,4735,4894,4895,4896,5055,5056,5057,5216,5217,5218,5377,5378,5379,547,548,549,5538,5539,5540,5699,5700,5701,5860,5861,5862,6021,6022,6023,6182,6183,6184,708,709,710,869,870,871">
					<dim>-1</dim>
					<dim>1</dim>
					<dim>-1</dim>
					<dim>-1</dim>
				</port>
			</output>
		</layer>
		<layer id="264" name="Constant_1552" type="Const" version="opset1">
			<data element_type="i64" shape="1" offset="4" size="8" />
			<output>
				<port id="0" precision="I64">
					<dim>1</dim>
				</port>
			</output>
		</layer>
		<layer id="265" name="Constant_1555" type="Const" version="opset1">
			<data element_type="i64" shape="1" offset="313902576" size="8" />
			<output>
				<port id="0" precision="I64">
					<dim>1</dim>
				</port>
			</output>
		</layer>
		<layer id="266" name="Constant_1550" type="Const" version="opset1">
			<data element_type="i64" shape="1" offset="313902612" size="8" />
			<output>
				<port id="0" precision="I64">
					<dim>1</dim>
				</port>
			</output>
		</layer>
		<layer id="267" name="__module.model.layers.0.self_attn/aten::slice/Slice_15" type="Slice" version="opset8">
			<input>
				<port id="0" precision="FP32">
					<dim>-1</dim>
					<dim>1</dim>
					<dim>-1</dim>
					<dim>-1</dim>
				</port>
				<port id="1" precision="I64">
					<dim>1</dim>
				</port>
				<port id="2" precision="I64">
					<dim>1</dim>
				</port>
				<port id="3" precision="I64">
					<dim>1</dim>
				</port>
				<port id="4" precision="I64">
					<dim>1</dim>
				</port>
			</input>
			<output>
				<port id="5" precision="FP32" names="1033,1194,1355,1516,1677,1838,1999,2160,2321,2482,2643,2804,2965,3126,3287,3448,3609,3770,3931,4092,4253,4414,4575,4736,4897,5058,5219,5380,550,5541,5702,5863,6024,6185,711,872">
					<dim>-1</dim>
					<dim>1</dim>
					<dim>-1</dim>
					<dim>-1</dim>
				</port>
			</output>
		</layer>
		<layer id="268" name="__module.model.layers.0.self_attn/aten::scaled_dot_product_attention/ConvertLike" type="Const" version="opset1">
			<data element_type="f32" shape="" offset="314469028" size="4" />
			<output>
				<port id="0" precision="FP32" />
			</output>
		</layer>
		<layer id="269" name="__module.model.layers.0.self_attn/aten::scaled_dot_product_attention/ScaledDotProductAttention" type="ScaledDotProductAttention" version="opset13">
			<data causal="false" />
			<input>
				<port id="0" precision="FP32">
					<dim>-1</dim>
					<dim>16</dim>
					<dim>-1</dim>
					<dim>128</dim>
				</port>
				<port id="1" precision="FP32">
					<dim>-1</dim>
					<dim>16</dim>
					<dim>-1</dim>
					<dim>128</dim>
				</port>
				<port id="2" precision="FP32">
					<dim>-1</dim>
					<dim>16</dim>
					<dim>-1</dim>
					<dim>128</dim>
				</port>
				<port id="3" precision="FP32">
					<dim>-1</dim>
					<dim>1</dim>
					<dim>-1</dim>
					<dim>-1</dim>
				</port>
				<port id="4" precision="FP32" />
			</input>
			<output>
				<port id="5" precision="FP32" names="554,attn_output.1">
					<dim>-1</dim>
					<dim>16</dim>
					<dim>-1</dim>
					<dim>128</dim>
				</port>
			</output>
		</layer>
		<layer id="270" name="__module.model.layers.0.self_attn/aten::transpose/Constant_3" type="Const" version="opset1">
			<data element_type="i32" shape="4" offset="313902304" size="16" />
			<output>
				<port id="0" precision="I32">
					<dim>4</dim>
				</port>
			</output>
		</layer>
		<layer id="271" name="__module.model.layers.0.self_attn/aten::transpose/Transpose_3" type="Transpose" version="opset1">
			<input>
				<port id="0" precision="FP32">
					<dim>-1</dim>
					<dim>16</dim>
					<dim>-1</dim>
					<dim>128</dim>
				</port>
				<port id="1" precision="I32">
					<dim>4</dim>
				</port>
			</input>
			<output>
				<port id="2" precision="FP32" names="555">
					<dim>-1</dim>
					<dim>-1</dim>
					<dim>16</dim>
					<dim>128</dim>
				</port>
			</output>
		</layer>
		<layer id="272" name="Constant_76591" type="Const" version="opset1">
			<data element_type="i64" shape="2" offset="314185808" size="16" />
			<output>
				<port id="0" precision="I64">
					<dim>2</dim>
				</port>
			</output>
		</layer>
		<layer id="273" name="Constant_76592" type="Const" version="opset1">
			<data element_type="i64" shape="" offset="4" size="8" />
			<output>
				<port id="0" precision="I64" />
			</output>
		</layer>
		<layer id="274" name="Gather_76593" type="Gather" version="opset8">
			<data batch_dims="0" />
			<input>
				<port id="0" precision="I64">
					<dim>3</dim>
				</port>
				<port id="1" precision="I64">
					<dim>2</dim>
				</port>
				<port id="2" precision="I64" />
			</input>
			<output>
				<port id="3" precision="I64">
					<dim>2</dim>
				</port>
			</output>
		</layer>
		<layer id="275" name="Constant_1597" type="Const" version="opset1">
			<data element_type="i64" shape="1" offset="311637156" size="8" />
			<output>
				<port id="0" precision="I64">
					<dim>1</dim>
				</port>
			</output>
		</layer>
		<layer id="276" name="__module.model.layers.0.self_attn/prim::ListConstruct_7" type="Concat" version="opset1">
			<data axis="0" />
			<input>
				<port id="0" precision="I64">
					<dim>2</dim>
				</port>
				<port id="1" precision="I64">
					<dim>1</dim>
				</port>
			</input>
			<output>
				<port id="2" precision="I64">
					<dim>3</dim>
				</port>
			</output>
		</layer>
		<layer id="277" name="__module.model.layers.0.self_attn/aten::reshape/Reshape_2" type="Reshape" version="opset1">
			<data special_zero="false" />
			<input>
				<port id="0" precision="FP32">
					<dim>-1</dim>
					<dim>-1</dim>
					<dim>16</dim>
					<dim>128</dim>
				</port>
				<port id="1" precision="I64">
					<dim>3</dim>
				</port>
			</input>
			<output>
				<port id="2" precision="FP32" names="558">
					<dim>-1</dim>
					<dim>-1</dim>
					<dim>-1</dim>
				</port>
			</output>
		</layer>
		<layer id="278" name="self.model.layers.0.self_attn.o_proj.weight" type="Const" version="opset1">
			<data element_type="u4" shape="2048, 32, 64" offset="314469032" size="2097152" />
			<output>
				<port id="0" precision="U4">
					<dim>2048</dim>
					<dim>32</dim>
					<dim>64</dim>
				</port>
			</output>
		</layer>
		<layer id="279" name="Convert_723372" type="Convert" version="opset1">
			<data destination_type="f16" />
			<input>
				<port id="0" precision="U4">
					<dim>2048</dim>
					<dim>32</dim>
					<dim>64</dim>
				</port>
			</input>
			<output>
				<port id="1" precision="FP16">
					<dim>2048</dim>
					<dim>32</dim>
					<dim>64</dim>
				</port>
			</output>
		</layer>
		<layer id="280" name="self.model.layers.0.self_attn.o_proj.weight/zero_point" type="Const" version="opset1">
			<data element_type="u4" shape="2048, 32, 1" offset="316566184" size="32768" />
			<output>
				<port id="0" precision="U4">
					<dim>2048</dim>
					<dim>32</dim>
					<dim>1</dim>
				</port>
			</output>
		</layer>
		<layer id="281" name="Convert_723374" type="Convert" version="opset1">
			<data destination_type="f16" />
			<input>
				<port id="0" precision="U4">
					<dim>2048</dim>
					<dim>32</dim>
					<dim>1</dim>
				</port>
			</input>
			<output>
				<port id="1" precision="FP16">
					<dim>2048</dim>
					<dim>32</dim>
					<dim>1</dim>
				</port>
			</output>
		</layer>
		<layer id="282" name="self.model.layers.0.self_attn.o_proj.weight/zero_point/subtract" type="Subtract" version="opset1">
			<data auto_broadcast="numpy" />
			<input>
				<port id="0" precision="FP16">
					<dim>2048</dim>
					<dim>32</dim>
					<dim>64</dim>
				</port>
				<port id="1" precision="FP16">
					<dim>2048</dim>
					<dim>32</dim>
					<dim>1</dim>
				</port>
			</input>
			<output>
				<port id="2" precision="FP16">
					<dim>2048</dim>
					<dim>32</dim>
					<dim>64</dim>
				</port>
			</output>
		</layer>
		<layer id="283" name="self.model.layers.0.self_attn.o_proj.weight/scale" type="Const" version="opset1">
			<data element_type="f16" shape="2048, 32, 1" offset="316598952" size="131072" />
			<output>
				<port id="0" precision="FP16">
					<dim>2048</dim>
					<dim>32</dim>
					<dim>1</dim>
				</port>
			</output>
		</layer>
		<layer id="284" name="self.model.layers.0.self_attn.o_proj.weight/fq_weights_1" type="Multiply" version="opset1">
			<data auto_broadcast="numpy" />
			<input>
				<port id="0" precision="FP16">
					<dim>2048</dim>
					<dim>32</dim>
					<dim>64</dim>
				</port>
				<port id="1" precision="FP16">
					<dim>2048</dim>
					<dim>32</dim>
					<dim>1</dim>
				</port>
			</input>
			<output>
				<port id="2" precision="FP16">
					<dim>2048</dim>
					<dim>32</dim>
					<dim>64</dim>
				</port>
			</output>
		</layer>
		<layer id="285" name="Constant_723379" type="Const" version="opset1">
			<data element_type="i64" shape="2" offset="313898160" size="16" />
			<output>
				<port id="0" precision="I64">
					<dim>2</dim>
				</port>
			</output>
		</layer>
		<layer id="286" name="Reshape_723380" type="Reshape" version="opset1">
			<data special_zero="false" />
			<input>
				<port id="0" precision="FP16">
					<dim>2048</dim>
					<dim>32</dim>
					<dim>64</dim>
				</port>
				<port id="1" precision="I64">
					<dim>2</dim>
				</port>
			</input>
			<output>
				<port id="2" precision="FP16">
					<dim>2048</dim>
					<dim>2048</dim>
				</port>
			</output>
		</layer>
		<layer id="287" name="__module.model.layers.0.self_attn.o_proj/ov_ext::linear/Convert" type="Convert" version="opset1">
			<data destination_type="f32" />
			<rt_info>
				<attribute name="decompression" version="0" />
			</rt_info>
			<input>
				<port id="0" precision="FP16">
					<dim>2048</dim>
					<dim>2048</dim>
				</port>
			</input>
			<output>
				<port id="1" precision="FP32">
					<dim>2048</dim>
					<dim>2048</dim>
				</port>
			</output>
		</layer>
		<layer id="288" name="__module.model.layers.0.self_attn.o_proj/ov_ext::linear/MatMul" type="MatMul" version="opset1">
			<data transpose_a="false" transpose_b="true" />
			<input>
				<port id="0" precision="FP32">
					<dim>-1</dim>
					<dim>-1</dim>
					<dim>-1</dim>
				</port>
				<port id="1" precision="FP32">
					<dim>2048</dim>
					<dim>2048</dim>
				</port>
			</input>
			<output>
				<port id="2" precision="FP32" names="561,563,hidden_states.17">
					<dim>-1</dim>
					<dim>-1</dim>
					<dim>2048</dim>
				</port>
			</output>
		</layer>
		<layer id="289" name="__module.model.layers.0/aten::add/Add" type="Add" version="opset1">
			<data auto_broadcast="numpy" />
			<input>
				<port id="0" precision="FP32">
					<dim>-1</dim>
					<dim>-1</dim>
					<dim>2048</dim>
				</port>
				<port id="1" precision="FP32">
					<dim>-1</dim>
					<dim>-1</dim>
					<dim>2048</dim>
				</port>
			</input>
			<output>
				<port id="2" precision="FP32" names="566,568,579,hidden_states.19,hidden_states.21">
					<dim>-1</dim>
					<dim>-1</dim>
					<dim>2048</dim>
				</port>
			</output>
		</layer>
		<layer id="290" name="Constant_95360" type="Const" version="opset1">
			<data element_type="f32" shape="1, 1, 2048" offset="316730024" size="8192" />
			<output>
				<port id="0" precision="FP32">
					<dim>1</dim>
					<dim>1</dim>
					<dim>2048</dim>
				</port>
			</output>
		</layer>
		<layer id="291" name="Constant_95359" type="Const" version="opset1">
			<data element_type="f32" shape="1, 1, 1" offset="311637148" size="4" />
			<output>
				<port id="0" precision="FP32">
					<dim>1</dim>
					<dim>1</dim>
					<dim>1</dim>
				</port>
			</output>
		</layer>
		<layer id="292" name="Constant_95357" type="Const" version="opset1">
			<data element_type="f32" shape="1, 1, 1" offset="311637152" size="4" />
			<output>
				<port id="0" precision="FP32">
					<dim>1</dim>
					<dim>1</dim>
					<dim>1</dim>
				</port>
			</output>
		</layer>
		<layer id="293" name="__module.model.layers.0.post_attention_layernorm/aten::pow/Power" type="Power" version="opset1">
			<data auto_broadcast="numpy" />
			<input>
				<port id="0" precision="FP32">
					<dim>-1</dim>
					<dim>-1</dim>
					<dim>2048</dim>
				</port>
				<port id="1" precision="FP32">
					<dim>1</dim>
					<dim>1</dim>
					<dim>1</dim>
				</port>
			</input>
			<output>
				<port id="2" precision="FP32" names="569">
					<dim>-1</dim>
					<dim>-1</dim>
					<dim>2048</dim>
				</port>
			</output>
		</layer>
		<layer id="294" name="Constant_1625" type="Const" version="opset1">
			<data element_type="i64" shape="1" offset="311637156" size="8" />
			<output>
				<port id="0" precision="I64" names="570">
					<dim>1</dim>
				</port>
			</output>
		</layer>
		<layer id="295" name="__module.model.layers.0.post_attention_layernorm/aten::mean/ReduceMean" type="ReduceMean" version="opset1">
			<data keep_dims="true" />
			<input>
				<port id="0" precision="FP32">
					<dim>-1</dim>
					<dim>-1</dim>
					<dim>2048</dim>
				</port>
				<port id="1" precision="I64">
					<dim>1</dim>
				</port>
			</input>
			<output>
				<port id="2" precision="FP32" names="571,variance.3">
					<dim>-1</dim>
					<dim>-1</dim>
					<dim>1</dim>
				</port>
			</output>
		</layer>
		<layer id="296" name="Constant_95358" type="Const" version="opset1">
			<data element_type="f32" shape="1, 1, 1" offset="311637164" size="4" />
			<output>
				<port id="0" precision="FP32">
					<dim>1</dim>
					<dim>1</dim>
					<dim>1</dim>
				</port>
			</output>
		</layer>
		<layer id="297" name="__module.model.layers.0.post_attention_layernorm/aten::add/Add" type="Add" version="opset1">
			<data auto_broadcast="numpy" />
			<input>
				<port id="0" precision="FP32">
					<dim>-1</dim>
					<dim>-1</dim>
					<dim>1</dim>
				</port>
				<port id="1" precision="FP32">
					<dim>1</dim>
					<dim>1</dim>
					<dim>1</dim>
				</port>
			</input>
			<output>
				<port id="2" precision="FP32" names="572">
					<dim>-1</dim>
					<dim>-1</dim>
					<dim>1</dim>
				</port>
			</output>
		</layer>
		<layer id="298" name="__module.model.layers.0.post_attention_layernorm/aten::rsqrt/Sqrt" type="Sqrt" version="opset1">
			<input>
				<port id="0" precision="FP32">
					<dim>-1</dim>
					<dim>-1</dim>
					<dim>1</dim>
				</port>
			</input>
			<output>
				<port id="1" precision="FP32">
					<dim>-1</dim>
					<dim>-1</dim>
					<dim>1</dim>
				</port>
			</output>
		</layer>
		<layer id="299" name="__module.model.layers.0.post_attention_layernorm/aten::rsqrt/Divide" type="Divide" version="opset1">
			<data auto_broadcast="numpy" m_pythondiv="true" />
			<input>
				<port id="0" precision="FP32">
					<dim>1</dim>
					<dim>1</dim>
					<dim>1</dim>
				</port>
				<port id="1" precision="FP32">
					<dim>-1</dim>
					<dim>-1</dim>
					<dim>1</dim>
				</port>
			</input>
			<output>
				<port id="2" precision="FP32" names="573">
					<dim>-1</dim>
					<dim>-1</dim>
					<dim>1</dim>
				</port>
			</output>
		</layer>
		<layer id="300" name="__module.model.layers.0.post_attention_layernorm/aten::mul/Multiply" type="Multiply" version="opset1">
			<data auto_broadcast="numpy" />
			<input>
				<port id="0" precision="FP32">
					<dim>-1</dim>
					<dim>-1</dim>
					<dim>2048</dim>
				</port>
				<port id="1" precision="FP32">
					<dim>-1</dim>
					<dim>-1</dim>
					<dim>1</dim>
				</port>
			</input>
			<output>
				<port id="2" precision="FP32" names="574,575,hidden_states.23,hidden_states.25">
					<dim>-1</dim>
					<dim>-1</dim>
					<dim>2048</dim>
				</port>
			</output>
		</layer>
		<layer id="301" name="__module.model.layers.0.post_attention_layernorm/aten::mul/Multiply_1" type="Multiply" version="opset1">
			<data auto_broadcast="numpy" />
			<input>
				<port id="0" precision="FP32">
					<dim>1</dim>
					<dim>1</dim>
					<dim>2048</dim>
				</port>
				<port id="1" precision="FP32">
					<dim>-1</dim>
					<dim>-1</dim>
					<dim>2048</dim>
				</port>
			</input>
			<output>
				<port id="2" precision="FP32" names="576,578">
					<dim>-1</dim>
					<dim>-1</dim>
					<dim>2048</dim>
				</port>
			</output>
		</layer>
		<layer id="302" name="self.model.layers.0.mlp.gate_proj.weight" type="Const" version="opset1">
			<data element_type="u4" shape="11008, 32, 64" offset="316738216" size="11272192" />
			<output>
				<port id="0" precision="U4">
					<dim>11008</dim>
					<dim>32</dim>
					<dim>64</dim>
				</port>
			</output>
		</layer>
		<layer id="303" name="Convert_245472" type="Convert" version="opset1">
			<data destination_type="f16" />
			<input>
				<port id="0" precision="U4">
					<dim>11008</dim>
					<dim>32</dim>
					<dim>64</dim>
				</port>
			</input>
			<output>
				<port id="1" precision="FP16">
					<dim>11008</dim>
					<dim>32</dim>
					<dim>64</dim>
				</port>
			</output>
		</layer>
		<layer id="304" name="self.model.layers.0.mlp.gate_proj.weight/zero_point" type="Const" version="opset1">
			<data element_type="u4" shape="11008, 32, 1" offset="328010408" size="176128" />
			<output>
				<port id="0" precision="U4">
					<dim>11008</dim>
					<dim>32</dim>
					<dim>1</dim>
				</port>
			</output>
		</layer>
		<layer id="305" name="Convert_245474" type="Convert" version="opset1">
			<data destination_type="f16" />
			<input>
				<port id="0" precision="U4">
					<dim>11008</dim>
					<dim>32</dim>
					<dim>1</dim>
				</port>
			</input>
			<output>
				<port id="1" precision="FP16">
					<dim>11008</dim>
					<dim>32</dim>
					<dim>1</dim>
				</port>
			</output>
		</layer>
		<layer id="306" name="self.model.layers.0.mlp.gate_proj.weight/zero_point/subtract" type="Subtract" version="opset1">
			<data auto_broadcast="numpy" />
			<input>
				<port id="0" precision="FP16">
					<dim>11008</dim>
					<dim>32</dim>
					<dim>64</dim>
				</port>
				<port id="1" precision="FP16">
					<dim>11008</dim>
					<dim>32</dim>
					<dim>1</dim>
				</port>
			</input>
			<output>
				<port id="2" precision="FP16">
					<dim>11008</dim>
					<dim>32</dim>
					<dim>64</dim>
				</port>
			</output>
		</layer>
		<layer id="307" name="self.model.layers.0.mlp.gate_proj.weight/scale" type="Const" version="opset1">
			<data element_type="f16" shape="11008, 32, 1" offset="328186536" size="704512" />
			<output>
				<port id="0" precision="FP16">
					<dim>11008</dim>
					<dim>32</dim>
					<dim>1</dim>
				</port>
			</output>
		</layer>
		<layer id="308" name="self.model.layers.0.mlp.gate_proj.weight/fq_weights_1" type="Multiply" version="opset1">
			<data auto_broadcast="numpy" />
			<input>
				<port id="0" precision="FP16">
					<dim>11008</dim>
					<dim>32</dim>
					<dim>64</dim>
				</port>
				<port id="1" precision="FP16">
					<dim>11008</dim>
					<dim>32</dim>
					<dim>1</dim>
				</port>
			</input>
			<output>
				<port id="2" precision="FP16">
					<dim>11008</dim>
					<dim>32</dim>
					<dim>64</dim>
				</port>
			</output>
		</layer>
		<layer id="309" name="Constant_245479" type="Const" version="opset1">
			<data element_type="i64" shape="2" offset="328891048" size="16" />
			<output>
				<port id="0" precision="I64">
					<dim>2</dim>
				</port>
			</output>
		</layer>
		<layer id="310" name="Reshape_245480" type="Reshape" version="opset1">
			<data special_zero="false" />
			<input>
				<port id="0" precision="FP16">
					<dim>11008</dim>
					<dim>32</dim>
					<dim>64</dim>
				</port>
				<port id="1" precision="I64">
					<dim>2</dim>
				</port>
			</input>
			<output>
				<port id="2" precision="FP16">
					<dim>11008</dim>
					<dim>2048</dim>
				</port>
			</output>
		</layer>
		<layer id="311" name="__module.model.layers.0.mlp.gate_proj/ov_ext::linear/Convert" type="Convert" version="opset1">
			<data destination_type="f32" />
			<rt_info>
				<attribute name="decompression" version="0" />
			</rt_info>
			<input>
				<port id="0" precision="FP16">
					<dim>11008</dim>
					<dim>2048</dim>
				</port>
			</input>
			<output>
				<port id="1" precision="FP32">
					<dim>11008</dim>
					<dim>2048</dim>
				</port>
			</output>
		</layer>
		<layer id="312" name="__module.model.layers.0.mlp.gate_proj/ov_ext::linear/MatMul" type="MatMul" version="opset1">
			<data transpose_a="false" transpose_b="true" />
			<input>
				<port id="0" precision="FP32">
					<dim>-1</dim>
					<dim>-1</dim>
					<dim>2048</dim>
				</port>
				<port id="1" precision="FP32">
					<dim>11008</dim>
					<dim>2048</dim>
				</port>
			</input>
			<output>
				<port id="2" precision="FP32" names="584,input.1">
					<dim>-1</dim>
					<dim>-1</dim>
					<dim>11008</dim>
				</port>
			</output>
		</layer>
		<layer id="313" name="__module.model.layers.0.mlp.act_fn/aten::silu/Swish" type="Swish" version="opset4">
			<input>
				<port id="0" precision="FP32">
					<dim>-1</dim>
					<dim>-1</dim>
					<dim>11008</dim>
				</port>
			</input>
			<output>
				<port id="1" precision="FP32" names="585">
					<dim>-1</dim>
					<dim>-1</dim>
					<dim>11008</dim>
				</port>
			</output>
		</layer>
		<layer id="314" name="self.model.layers.0.mlp.up_proj.weight" type="Const" version="opset1">
			<data element_type="u4" shape="11008, 32, 64" offset="328891064" size="11272192" />
			<output>
				<port id="0" precision="U4">
					<dim>11008</dim>
					<dim>32</dim>
					<dim>64</dim>
				</port>
			</output>
		</layer>
		<layer id="315" name="Convert_241047" type="Convert" version="opset1">
			<data destination_type="f16" />
			<input>
				<port id="0" precision="U4">
					<dim>11008</dim>
					<dim>32</dim>
					<dim>64</dim>
				</port>
			</input>
			<output>
				<port id="1" precision="FP16">
					<dim>11008</dim>
					<dim>32</dim>
					<dim>64</dim>
				</port>
			</output>
		</layer>
		<layer id="316" name="self.model.layers.0.mlp.up_proj.weight/zero_point" type="Const" version="opset1">
			<data element_type="u4" shape="11008, 32, 1" offset="340163256" size="176128" />
			<output>
				<port id="0" precision="U4">
					<dim>11008</dim>
					<dim>32</dim>
					<dim>1</dim>
				</port>
			</output>
		</layer>
		<layer id="317" name="Convert_241049" type="Convert" version="opset1">
			<data destination_type="f16" />
			<input>
				<port id="0" precision="U4">
					<dim>11008</dim>
					<dim>32</dim>
					<dim>1</dim>
				</port>
			</input>
			<output>
				<port id="1" precision="FP16">
					<dim>11008</dim>
					<dim>32</dim>
					<dim>1</dim>
				</port>
			</output>
		</layer>
		<layer id="318" name="self.model.layers.0.mlp.up_proj.weight/zero_point/subtract" type="Subtract" version="opset1">
			<data auto_broadcast="numpy" />
			<input>
				<port id="0" precision="FP16">
					<dim>11008</dim>
					<dim>32</dim>
					<dim>64</dim>
				</port>
				<port id="1" precision="FP16">
					<dim>11008</dim>
					<dim>32</dim>
					<dim>1</dim>
				</port>
			</input>
			<output>
				<port id="2" precision="FP16">
					<dim>11008</dim>
					<dim>32</dim>
					<dim>64</dim>
				</port>
			</output>
		</layer>
		<layer id="319" name="self.model.layers.0.mlp.up_proj.weight/scale" type="Const" version="opset1">
			<data element_type="f16" shape="11008, 32, 1" offset="340339384" size="704512" />
			<output>
				<port id="0" precision="FP16">
					<dim>11008</dim>
					<dim>32</dim>
					<dim>1</dim>
				</port>
			</output>
		</layer>
		<layer id="320" name="self.model.layers.0.mlp.up_proj.weight/fq_weights_1" type="Multiply" version="opset1">
			<data auto_broadcast="numpy" />
			<input>
				<port id="0" precision="FP16">
					<dim>11008</dim>
					<dim>32</dim>
					<dim>64</dim>
				</port>
				<port id="1" precision="FP16">
					<dim>11008</dim>
					<dim>32</dim>
					<dim>1</dim>
				</port>
			</input>
			<output>
				<port id="2" precision="FP16">
					<dim>11008</dim>
					<dim>32</dim>
					<dim>64</dim>
				</port>
			</output>
		</layer>
		<layer id="321" name="Constant_241054" type="Const" version="opset1">
			<data element_type="i64" shape="2" offset="328891048" size="16" />
			<output>
				<port id="0" precision="I64">
					<dim>2</dim>
				</port>
			</output>
		</layer>
		<layer id="322" name="Reshape_241055" type="Reshape" version="opset1">
			<data special_zero="false" />
			<input>
				<port id="0" precision="FP16">
					<dim>11008</dim>
					<dim>32</dim>
					<dim>64</dim>
				</port>
				<port id="1" precision="I64">
					<dim>2</dim>
				</port>
			</input>
			<output>
				<port id="2" precision="FP16">
					<dim>11008</dim>
					<dim>2048</dim>
				</port>
			</output>
		</layer>
		<layer id="323" name="__module.model.layers.0.mlp.up_proj/ov_ext::linear/Convert" type="Convert" version="opset1">
			<data destination_type="f32" />
			<rt_info>
				<attribute name="decompression" version="0" />
			</rt_info>
			<input>
				<port id="0" precision="FP16">
					<dim>11008</dim>
					<dim>2048</dim>
				</port>
			</input>
			<output>
				<port id="1" precision="FP32">
					<dim>11008</dim>
					<dim>2048</dim>
				</port>
			</output>
		</layer>
		<layer id="324" name="__module.model.layers.0.mlp.up_proj/ov_ext::linear/MatMul" type="MatMul" version="opset1">
			<data transpose_a="false" transpose_b="true" />
			<input>
				<port id="0" precision="FP32">
					<dim>-1</dim>
					<dim>-1</dim>
					<dim>2048</dim>
				</port>
				<port id="1" precision="FP32">
					<dim>11008</dim>
					<dim>2048</dim>
				</port>
			</input>
			<output>
				<port id="2" precision="FP32" names="587">
					<dim>-1</dim>
					<dim>-1</dim>
					<dim>11008</dim>
				</port>
			</output>
		</layer>
		<layer id="325" name="__module.model.layers.0.mlp/aten::mul/Multiply" type="Multiply" version="opset1">
			<data auto_broadcast="numpy" />
			<input>
				<port id="0" precision="FP32">
					<dim>-1</dim>
					<dim>-1</dim>
					<dim>11008</dim>
				</port>
				<port id="1" precision="FP32">
					<dim>-1</dim>
					<dim>-1</dim>
					<dim>11008</dim>
				</port>
			</input>
			<output>
				<port id="2" precision="FP32" names="588">
					<dim>-1</dim>
					<dim>-1</dim>
					<dim>11008</dim>
				</port>
			</output>
		</layer>
		<layer id="326" name="self.model.layers.0.mlp.down_proj.weight" type="Const" version="opset1">
			<data element_type="u4" shape="2048, 172, 64" offset="341043896" size="11272192" />
			<output>
				<port id="0" precision="U4">
					<dim>2048</dim>
					<dim>172</dim>
					<dim>64</dim>
				</port>
			</output>
		</layer>
		<layer id="327" name="Convert_249897" type="Convert" version="opset1">
			<data destination_type="f16" />
			<input>
				<port id="0" precision="U4">
					<dim>2048</dim>
					<dim>172</dim>
					<dim>64</dim>
				</port>
			</input>
			<output>
				<port id="1" precision="FP16">
					<dim>2048</dim>
					<dim>172</dim>
					<dim>64</dim>
				</port>
			</output>
		</layer>
		<layer id="328" name="self.model.layers.0.mlp.down_proj.weight/zero_point" type="Const" version="opset1">
			<data element_type="u4" shape="2048, 172, 1" offset="352316088" size="176128" />
			<output>
				<port id="0" precision="U4">
					<dim>2048</dim>
					<dim>172</dim>
					<dim>1</dim>
				</port>
			</output>
		</layer>
		<layer id="329" name="Convert_249899" type="Convert" version="opset1">
			<data destination_type="f16" />
			<input>
				<port id="0" precision="U4">
					<dim>2048</dim>
					<dim>172</dim>
					<dim>1</dim>
				</port>
			</input>
			<output>
				<port id="1" precision="FP16">
					<dim>2048</dim>
					<dim>172</dim>
					<dim>1</dim>
				</port>
			</output>
		</layer>
		<layer id="330" name="self.model.layers.0.mlp.down_proj.weight/zero_point/subtract" type="Subtract" version="opset1">
			<data auto_broadcast="numpy" />
			<input>
				<port id="0" precision="FP16">
					<dim>2048</dim>
					<dim>172</dim>
					<dim>64</dim>
				</port>
				<port id="1" precision="FP16">
					<dim>2048</dim>
					<dim>172</dim>
					<dim>1</dim>
				</port>
			</input>
			<output>
				<port id="2" precision="FP16">
					<dim>2048</dim>
					<dim>172</dim>
					<dim>64</dim>
				</port>
			</output>
		</layer>
		<layer id="331" name="self.model.layers.0.mlp.down_proj.weight/scale" type="Const" version="opset1">
			<data element_type="f16" shape="2048, 172, 1" offset="352492216" size="704512" />
			<output>
				<port id="0" precision="FP16">
					<dim>2048</dim>
					<dim>172</dim>
					<dim>1</dim>
				</port>
			</output>
		</layer>
		<layer id="332" name="self.model.layers.0.mlp.down_proj.weight/fq_weights_1" type="Multiply" version="opset1">
			<data auto_broadcast="numpy" />
			<input>
				<port id="0" precision="FP16">
					<dim>2048</dim>
					<dim>172</dim>
					<dim>64</dim>
				</port>
				<port id="1" precision="FP16">
					<dim>2048</dim>
					<dim>172</dim>
					<dim>1</dim>
				</port>
			</input>
			<output>
				<port id="2" precision="FP16">
					<dim>2048</dim>
					<dim>172</dim>
					<dim>64</dim>
				</port>
			</output>
		</layer>
		<layer id="333" name="Constant_249904" type="Const" version="opset1">
			<data element_type="i64" shape="2" offset="353196728" size="16" />
			<output>
				<port id="0" precision="I64">
					<dim>2</dim>
				</port>
			</output>
		</layer>
		<layer id="334" name="Reshape_249905" type="Reshape" version="opset1">
			<data special_zero="false" />
			<input>
				<port id="0" precision="FP16">
					<dim>2048</dim>
					<dim>172</dim>
					<dim>64</dim>
				</port>
				<port id="1" precision="I64">
					<dim>2</dim>
				</port>
			</input>
			<output>
				<port id="2" precision="FP16">
					<dim>2048</dim>
					<dim>11008</dim>
				</port>
			</output>
		</layer>
		<layer id="335" name="__module.model.layers.0.mlp.down_proj/ov_ext::linear/Convert" type="Convert" version="opset1">
			<data destination_type="f32" />
			<rt_info>
				<attribute name="decompression" version="0" />
			</rt_info>
			<input>
				<port id="0" precision="FP16">
					<dim>2048</dim>
					<dim>11008</dim>
				</port>
			</input>
			<output>
				<port id="1" precision="FP32">
					<dim>2048</dim>
					<dim>11008</dim>
				</port>
			</output>
		</layer>
		<layer id="336" name="__module.model.layers.0.mlp.down_proj/ov_ext::linear/MatMul" type="MatMul" version="opset1">
			<data transpose_a="false" transpose_b="true" />
			<input>
				<port id="0" precision="FP32">
					<dim>-1</dim>
					<dim>-1</dim>
					<dim>11008</dim>
				</port>
				<port id="1" precision="FP32">
					<dim>2048</dim>
					<dim>11008</dim>
				</port>
			</input>
			<output>
				<port id="2" precision="FP32" names="590,hidden_states.27">
					<dim>-1</dim>
					<dim>-1</dim>
					<dim>2048</dim>
				</port>
			</output>
		</layer>
		<layer id="337" name="__module.model.layers.0/aten::add/Add_1" type="Add" version="opset1">
			<data auto_broadcast="numpy" />
			<input>
				<port id="0" precision="FP32">
					<dim>-1</dim>
					<dim>-1</dim>
					<dim>2048</dim>
				</port>
				<port id="1" precision="FP32">
					<dim>-1</dim>
					<dim>-1</dim>
					<dim>2048</dim>
				</port>
			</input>
			<output>
				<port id="2" precision="FP32" names="591,593,601,612,hidden_states.29,hidden_states.31">
					<dim>-1</dim>
					<dim>-1</dim>
					<dim>2048</dim>
				</port>
			</output>
		</layer>
		<layer id="338" name="Constant_95364" type="Const" version="opset1">
			<data element_type="f32" shape="1, 1, 2048" offset="353196744" size="8192" />
			<output>
				<port id="0" precision="FP32">
					<dim>1</dim>
					<dim>1</dim>
					<dim>2048</dim>
				</port>
			</output>
		</layer>
		<layer id="339" name="Constant_95363" type="Const" version="opset1">
			<data element_type="f32" shape="1, 1, 1" offset="311637148" size="4" />
			<output>
				<port id="0" precision="FP32">
					<dim>1</dim>
					<dim>1</dim>
					<dim>1</dim>
				</port>
			</output>
		</layer>
		<layer id="340" name="Constant_95361" type="Const" version="opset1">
			<data element_type="f32" shape="1, 1, 1" offset="311637152" size="4" />
			<output>
				<port id="0" precision="FP32">
					<dim>1</dim>
					<dim>1</dim>
					<dim>1</dim>
				</port>
			</output>
		</layer>
		<layer id="341" name="__module.model.layers.1.input_layernorm/aten::pow/Power" type="Power" version="opset1">
			<data auto_broadcast="numpy" />
			<input>
				<port id="0" precision="FP32">
					<dim>-1</dim>
					<dim>-1</dim>
					<dim>2048</dim>
				</port>
				<port id="1" precision="FP32">
					<dim>1</dim>
					<dim>1</dim>
					<dim>1</dim>
				</port>
			</input>
			<output>
				<port id="2" precision="FP32" names="602">
					<dim>-1</dim>
					<dim>-1</dim>
					<dim>2048</dim>
				</port>
			</output>
		</layer>
		<layer id="342" name="Constant_1699" type="Const" version="opset1">
			<data element_type="i64" shape="1" offset="311637156" size="8" />
			<output>
				<port id="0" precision="I64" names="603">
					<dim>1</dim>
				</port>
			</output>
		</layer>
		<layer id="343" name="__module.model.layers.1.input_layernorm/aten::mean/ReduceMean" type="ReduceMean" version="opset1">
			<data keep_dims="true" />
			<input>
				<port id="0" precision="FP32">
					<dim>-1</dim>
					<dim>-1</dim>
					<dim>2048</dim>
				</port>
				<port id="1" precision="I64">
					<dim>1</dim>
				</port>
			</input>
			<output>
				<port id="2" precision="FP32" names="604,variance.5">
					<dim>-1</dim>
					<dim>-1</dim>
					<dim>1</dim>
				</port>
			</output>
		</layer>
		<layer id="344" name="Constant_95362" type="Const" version="opset1">
			<data element_type="f32" shape="1, 1, 1" offset="311637164" size="4" />
			<output>
				<port id="0" precision="FP32">
					<dim>1</dim>
					<dim>1</dim>
					<dim>1</dim>
				</port>
			</output>
		</layer>
		<layer id="345" name="__module.model.layers.1.input_layernorm/aten::add/Add" type="Add" version="opset1">
			<data auto_broadcast="numpy" />
			<input>
				<port id="0" precision="FP32">
					<dim>-1</dim>
					<dim>-1</dim>
					<dim>1</dim>
				</port>
				<port id="1" precision="FP32">
					<dim>1</dim>
					<dim>1</dim>
					<dim>1</dim>
				</port>
			</input>
			<output>
				<port id="2" precision="FP32" names="605">
					<dim>-1</dim>
					<dim>-1</dim>
					<dim>1</dim>
				</port>
			</output>
		</layer>
		<layer id="346" name="__module.model.layers.1.input_layernorm/aten::rsqrt/Sqrt" type="Sqrt" version="opset1">
			<input>
				<port id="0" precision="FP32">
					<dim>-1</dim>
					<dim>-1</dim>
					<dim>1</dim>
				</port>
			</input>
			<output>
				<port id="1" precision="FP32">
					<dim>-1</dim>
					<dim>-1</dim>
					<dim>1</dim>
				</port>
			</output>
		</layer>
		<layer id="347" name="__module.model.layers.1.input_layernorm/aten::rsqrt/Divide" type="Divide" version="opset1">
			<data auto_broadcast="numpy" m_pythondiv="true" />
			<input>
				<port id="0" precision="FP32">
					<dim>1</dim>
					<dim>1</dim>
					<dim>1</dim>
				</port>
				<port id="1" precision="FP32">
					<dim>-1</dim>
					<dim>-1</dim>
					<dim>1</dim>
				</port>
			</input>
			<output>
				<port id="2" precision="FP32" names="606">
					<dim>-1</dim>
					<dim>-1</dim>
					<dim>1</dim>
				</port>
			</output>
		</layer>
		<layer id="348" name="__module.model.layers.1.input_layernorm/aten::mul/Multiply" type="Multiply" version="opset1">
			<data auto_broadcast="numpy" />
			<input>
				<port id="0" precision="FP32">
					<dim>-1</dim>
					<dim>-1</dim>
					<dim>2048</dim>
				</port>
				<port id="1" precision="FP32">
					<dim>-1</dim>
					<dim>-1</dim>
					<dim>1</dim>
				</port>
			</input>
			<output>
				<port id="2" precision="FP32" names="607,608,hidden_states.33,hidden_states.35">
					<dim>-1</dim>
					<dim>-1</dim>
					<dim>2048</dim>
				</port>
			</output>
		</layer>
		<layer id="349" name="__module.model.layers.1.input_layernorm/aten::mul/Multiply_1" type="Multiply" version="opset1">
			<data auto_broadcast="numpy" />
			<input>
				<port id="0" precision="FP32">
					<dim>1</dim>
					<dim>1</dim>
					<dim>2048</dim>
				</port>
				<port id="1" precision="FP32">
					<dim>-1</dim>
					<dim>-1</dim>
					<dim>2048</dim>
				</port>
			</input>
			<output>
				<port id="2" precision="FP32" names="609,611,hidden_states.37">
					<dim>-1</dim>
					<dim>-1</dim>
					<dim>2048</dim>
				</port>
			</output>
		</layer>
		<layer id="350" name="self.model.layers.1.self_attn.q_proj.weight" type="Const" version="opset1">
			<data element_type="u4" shape="2048, 32, 64" offset="353204936" size="2097152" />
			<output>
				<port id="0" precision="U4">
					<dim>2048</dim>
					<dim>32</dim>
					<dim>64</dim>
				</port>
			</output>
		</layer>
		<layer id="351" name="Convert_727797" type="Convert" version="opset1">
			<data destination_type="f16" />
			<input>
				<port id="0" precision="U4">
					<dim>2048</dim>
					<dim>32</dim>
					<dim>64</dim>
				</port>
			</input>
			<output>
				<port id="1" precision="FP16">
					<dim>2048</dim>
					<dim>32</dim>
					<dim>64</dim>
				</port>
			</output>
		</layer>
		<layer id="352" name="self.model.layers.1.self_attn.q_proj.weight/zero_point" type="Const" version="opset1">
			<data element_type="u4" shape="2048, 32, 1" offset="355302088" size="32768" />
			<output>
				<port id="0" precision="U4">
					<dim>2048</dim>
					<dim>32</dim>
					<dim>1</dim>
				</port>
			</output>
		</layer>
		<layer id="353" name="Convert_727799" type="Convert" version="opset1">
			<data destination_type="f16" />
			<input>
				<port id="0" precision="U4">
					<dim>2048</dim>
					<dim>32</dim>
					<dim>1</dim>
				</port>
			</input>
			<output>
				<port id="1" precision="FP16">
					<dim>2048</dim>
					<dim>32</dim>
					<dim>1</dim>
				</port>
			</output>
		</layer>
		<layer id="354" name="self.model.layers.1.self_attn.q_proj.weight/zero_point/subtract" type="Subtract" version="opset1">
			<data auto_broadcast="numpy" />
			<input>
				<port id="0" precision="FP16">
					<dim>2048</dim>
					<dim>32</dim>
					<dim>64</dim>
				</port>
				<port id="1" precision="FP16">
					<dim>2048</dim>
					<dim>32</dim>
					<dim>1</dim>
				</port>
			</input>
			<output>
				<port id="2" precision="FP16">
					<dim>2048</dim>
					<dim>32</dim>
					<dim>64</dim>
				</port>
			</output>
		</layer>
		<layer id="355" name="self.model.layers.1.self_attn.q_proj.weight/scale" type="Const" version="opset1">
			<data element_type="f16" shape="2048, 32, 1" offset="355334856" size="131072" />
			<output>
				<port id="0" precision="FP16">
					<dim>2048</dim>
					<dim>32</dim>
					<dim>1</dim>
				</port>
			</output>
		</layer>
		<layer id="356" name="self.model.layers.1.self_attn.q_proj.weight/fq_weights_1" type="Multiply" version="opset1">
			<data auto_broadcast="numpy" />
			<input>
				<port id="0" precision="FP16">
					<dim>2048</dim>
					<dim>32</dim>
					<dim>64</dim>
				</port>
				<port id="1" precision="FP16">
					<dim>2048</dim>
					<dim>32</dim>
					<dim>1</dim>
				</port>
			</input>
			<output>
				<port id="2" precision="FP16">
					<dim>2048</dim>
					<dim>32</dim>
					<dim>64</dim>
				</port>
			</output>
		</layer>
		<layer id="357" name="Constant_727804" type="Const" version="opset1">
			<data element_type="i64" shape="2" offset="313898160" size="16" />
			<output>
				<port id="0" precision="I64">
					<dim>2</dim>
				</port>
			</output>
		</layer>
		<layer id="358" name="Reshape_727805" type="Reshape" version="opset1">
			<data special_zero="false" />
			<input>
				<port id="0" precision="FP16">
					<dim>2048</dim>
					<dim>32</dim>
					<dim>64</dim>
				</port>
				<port id="1" precision="I64">
					<dim>2</dim>
				</port>
			</input>
			<output>
				<port id="2" precision="FP16">
					<dim>2048</dim>
					<dim>2048</dim>
				</port>
			</output>
		</layer>
		<layer id="359" name="__module.model.layers.1.self_attn.q_proj/ov_ext::linear/Convert" type="Convert" version="opset1">
			<data destination_type="f32" />
			<rt_info>
				<attribute name="decompression" version="0" />
			</rt_info>
			<input>
				<port id="0" precision="FP16">
					<dim>2048</dim>
					<dim>2048</dim>
				</port>
			</input>
			<output>
				<port id="1" precision="FP32">
					<dim>2048</dim>
					<dim>2048</dim>
				</port>
			</output>
		</layer>
		<layer id="360" name="__module.model.layers.1.self_attn.q_proj/ov_ext::linear/MatMul" type="MatMul" version="opset1">
			<data transpose_a="false" transpose_b="true" />
			<input>
				<port id="0" precision="FP32">
					<dim>-1</dim>
					<dim>-1</dim>
					<dim>2048</dim>
				</port>
				<port id="1" precision="FP32">
					<dim>2048</dim>
					<dim>2048</dim>
				</port>
			</input>
			<output>
				<port id="2" precision="FP32">
					<dim>-1</dim>
					<dim>-1</dim>
					<dim>2048</dim>
				</port>
			</output>
		</layer>
		<layer id="361" name="self.model.layers.1.self_attn.q_proj.bias" type="Const" version="opset1">
			<data element_type="bf16" shape="2048" offset="355465928" size="4096" />
			<output>
				<port id="0" precision="BF16" names="self.model.layers.1.self_attn.q_proj.bias">
					<dim>2048</dim>
				</port>
			</output>
		</layer>
		<layer id="362" name="__module.model.layers.1.self_attn.q_proj/ov_ext::linear/Convert_1" type="Convert" version="opset1">
			<data destination_type="f32" />
			<rt_info>
				<attribute name="decompression" version="0" />
			</rt_info>
			<input>
				<port id="0" precision="BF16">
					<dim>2048</dim>
				</port>
			</input>
			<output>
				<port id="1" precision="FP32">
					<dim>2048</dim>
				</port>
			</output>
		</layer>
		<layer id="363" name="__module.model.layers.1.self_attn.q_proj/ov_ext::linear/Add" type="Add" version="opset1">
			<data auto_broadcast="numpy" />
			<input>
				<port id="0" precision="FP32">
					<dim>-1</dim>
					<dim>-1</dim>
					<dim>2048</dim>
				</port>
				<port id="1" precision="FP32">
					<dim>2048</dim>
				</port>
			</input>
			<output>
				<port id="2" precision="FP32" names="621">
					<dim>-1</dim>
					<dim>-1</dim>
					<dim>2048</dim>
				</port>
			</output>
		</layer>
		<layer id="364" name="Constant_105934" type="Const" version="opset1">
			<data element_type="i64" shape="4" offset="313902272" size="32" />
			<output>
				<port id="0" precision="I64">
					<dim>4</dim>
				</port>
			</output>
		</layer>
		<layer id="365" name="__module.model.layers.1.self_attn/aten::view/Reshape" type="Reshape" version="opset1">
			<data special_zero="true" />
			<input>
				<port id="0" precision="FP32">
					<dim>-1</dim>
					<dim>-1</dim>
					<dim>2048</dim>
				</port>
				<port id="1" precision="I64">
					<dim>4</dim>
				</port>
			</input>
			<output>
				<port id="2" precision="FP32" names="623">
					<dim>-1</dim>
					<dim>-1</dim>
					<dim>16</dim>
					<dim>128</dim>
				</port>
			</output>
		</layer>
		<layer id="366" name="__module.model.layers.1.self_attn/aten::transpose/Constant" type="Const" version="opset1">
			<data element_type="i32" shape="4" offset="313902304" size="16" />
			<output>
				<port id="0" precision="I32">
					<dim>4</dim>
				</port>
			</output>
		</layer>
		<layer id="367" name="__module.model.layers.1.self_attn/aten::transpose/Transpose" type="Transpose" version="opset1">
			<input>
				<port id="0" precision="FP32">
					<dim>-1</dim>
					<dim>-1</dim>
					<dim>16</dim>
					<dim>128</dim>
				</port>
				<port id="1" precision="I32">
					<dim>4</dim>
				</port>
			</input>
			<output>
				<port id="2" precision="FP32" names="624,q.3">
					<dim>-1</dim>
					<dim>16</dim>
					<dim>-1</dim>
					<dim>128</dim>
				</port>
			</output>
		</layer>
		<layer id="368" name="__module.model.layers.1.self_attn/aten::mul/Multiply" type="Multiply" version="opset1">
			<data auto_broadcast="numpy" />
			<input>
				<port id="0" precision="FP32">
					<dim>-1</dim>
					<dim>16</dim>
					<dim>-1</dim>
					<dim>128</dim>
				</port>
				<port id="1" precision="FP32">
					<dim>-1</dim>
					<dim>1</dim>
					<dim>-1</dim>
					<dim>128</dim>
				</port>
			</input>
			<output>
				<port id="2" precision="FP32" names="639">
					<dim>-1</dim>
					<dim>16</dim>
					<dim>-1</dim>
					<dim>128</dim>
				</port>
			</output>
		</layer>
		<layer id="369" name="Constant_2013" type="Const" version="opset1">
			<data element_type="i64" shape="1" offset="313902596" size="8" />
			<output>
				<port id="0" precision="I64">
					<dim>1</dim>
				</port>
			</output>
		</layer>
		<layer id="370" name="Constant_2015" type="Const" version="opset1">
			<data element_type="i64" shape="1" offset="313902604" size="8" />
			<output>
				<port id="0" precision="I64">
					<dim>1</dim>
				</port>
			</output>
		</layer>
		<layer id="371" name="Constant_2017" type="Const" version="opset1">
			<data element_type="i64" shape="1" offset="313902576" size="8" />
			<output>
				<port id="0" precision="I64">
					<dim>1</dim>
				</port>
			</output>
		</layer>
		<layer id="372" name="Constant_1969" type="Const" version="opset1">
			<data element_type="i64" shape="1" offset="313902612" size="8" />
			<output>
				<port id="0" precision="I64">
					<dim>1</dim>
				</port>
			</output>
		</layer>
		<layer id="373" name="__module.model.layers.1.self_attn/aten::slice/Slice" type="Slice" version="opset8">
			<input>
				<port id="0" precision="FP32">
					<dim>-1</dim>
					<dim>16</dim>
					<dim>-1</dim>
					<dim>128</dim>
				</port>
				<port id="1" precision="I64">
					<dim>1</dim>
				</port>
				<port id="2" precision="I64">
					<dim>1</dim>
				</port>
				<port id="3" precision="I64">
					<dim>1</dim>
				</port>
				<port id="4" precision="I64">
					<dim>1</dim>
				</port>
			</input>
			<output>
				<port id="5" precision="FP32" names="649,x2.5">
					<dim>-1</dim>
					<dim>16</dim>
					<dim>-1</dim>
					<dim>64</dim>
				</port>
			</output>
		</layer>
		<layer id="374" name="__module.model.layers.1.self_attn/aten::neg/Constant" type="Const" version="opset1">
			<data element_type="i32" shape="" offset="313902620" size="4" />
			<output>
				<port id="0" precision="I32" />
			</output>
		</layer>
		<layer id="375" name="__module.model.layers.1.self_attn/aten::neg/ConvertLike" type="Convert" version="opset1">
			<data destination_type="f32" />
			<input>
				<port id="0" precision="I32" />
			</input>
			<output>
				<port id="1" precision="FP32" />
			</output>
		</layer>
		<layer id="376" name="__module.model.layers.1.self_attn/aten::neg/Multiply" type="Multiply" version="opset1">
			<data auto_broadcast="numpy" />
			<input>
				<port id="0" precision="FP32">
					<dim>-1</dim>
					<dim>16</dim>
					<dim>-1</dim>
					<dim>64</dim>
				</port>
				<port id="1" precision="FP32" />
			</input>
			<output>
				<port id="2" precision="FP32" names="650">
					<dim>-1</dim>
					<dim>16</dim>
					<dim>-1</dim>
					<dim>64</dim>
				</port>
			</output>
		</layer>
		<layer id="377" name="Constant_1910" type="Const" version="opset1">
			<data element_type="i64" shape="1" offset="4" size="8" />
			<output>
				<port id="0" precision="I64">
					<dim>1</dim>
				</port>
			</output>
		</layer>
		<layer id="378" name="Constant_1954" type="Const" version="opset1">
			<data element_type="i64" shape="1" offset="313902596" size="8" />
			<output>
				<port id="0" precision="I64">
					<dim>1</dim>
				</port>
			</output>
		</layer>
		<layer id="379" name="Constant_1956" type="Const" version="opset1">
			<data element_type="i64" shape="1" offset="313902576" size="8" />
			<output>
				<port id="0" precision="I64">
					<dim>1</dim>
				</port>
			</output>
		</layer>
		<layer id="380" name="Constant_1908" type="Const" version="opset1">
			<data element_type="i64" shape="1" offset="313902612" size="8" />
			<output>
				<port id="0" precision="I64">
					<dim>1</dim>
				</port>
			</output>
		</layer>
		<layer id="381" name="__module.model.layers.1.self_attn/aten::slice/Slice_1" type="Slice" version="opset8">
			<input>
				<port id="0" precision="FP32">
					<dim>-1</dim>
					<dim>16</dim>
					<dim>-1</dim>
					<dim>128</dim>
				</port>
				<port id="1" precision="I64">
					<dim>1</dim>
				</port>
				<port id="2" precision="I64">
					<dim>1</dim>
				</port>
				<port id="3" precision="I64">
					<dim>1</dim>
				</port>
				<port id="4" precision="I64">
					<dim>1</dim>
				</port>
			</input>
			<output>
				<port id="5" precision="FP32" names="644">
					<dim>-1</dim>
					<dim>16</dim>
					<dim>-1</dim>
					<dim>64</dim>
				</port>
			</output>
		</layer>
		<layer id="382" name="__module.model.layers.1.self_attn/aten::cat/Concat" type="Concat" version="opset1">
			<data axis="-1" />
			<input>
				<port id="0" precision="FP32">
					<dim>-1</dim>
					<dim>16</dim>
					<dim>-1</dim>
					<dim>64</dim>
				</port>
				<port id="1" precision="FP32">
					<dim>-1</dim>
					<dim>16</dim>
					<dim>-1</dim>
					<dim>64</dim>
				</port>
			</input>
			<output>
				<port id="2" precision="FP32" names="652">
					<dim>-1</dim>
					<dim>16</dim>
					<dim>-1</dim>
					<dim>128</dim>
				</port>
			</output>
		</layer>
		<layer id="383" name="__module.model.layers.1.self_attn/aten::mul/Multiply_1" type="Multiply" version="opset1">
			<data auto_broadcast="numpy" />
			<input>
				<port id="0" precision="FP32">
					<dim>-1</dim>
					<dim>16</dim>
					<dim>-1</dim>
					<dim>128</dim>
				</port>
				<port id="1" precision="FP32">
					<dim>-1</dim>
					<dim>1</dim>
					<dim>-1</dim>
					<dim>128</dim>
				</port>
			</input>
			<output>
				<port id="2" precision="FP32" names="653">
					<dim>-1</dim>
					<dim>16</dim>
					<dim>-1</dim>
					<dim>128</dim>
				</port>
			</output>
		</layer>
		<layer id="384" name="__module.model.layers.1.self_attn/aten::add/Add" type="Add" version="opset1">
			<data auto_broadcast="numpy" />
			<input>
				<port id="0" precision="FP32">
					<dim>-1</dim>
					<dim>16</dim>
					<dim>-1</dim>
					<dim>128</dim>
				</port>
				<port id="1" precision="FP32">
					<dim>-1</dim>
					<dim>16</dim>
					<dim>-1</dim>
					<dim>128</dim>
				</port>
			</input>
			<output>
				<port id="2" precision="FP32" names="654,query.5">
					<dim>-1</dim>
					<dim>16</dim>
					<dim>-1</dim>
					<dim>128</dim>
				</port>
			</output>
		</layer>
		<layer id="385" name="Constant_108501" type="Const" version="opset1">
			<data element_type="f32" shape="" offset="0" size="4" />
			<output>
				<port id="0" precision="FP32" />
			</output>
		</layer>
		<layer id="386" name="Constant_108494" type="Const" version="opset1">
			<data element_type="i64" shape="1" offset="12" size="8" />
			<output>
				<port id="0" precision="I64">
					<dim>1</dim>
				</port>
			</output>
		</layer>
		<layer id="387" name="Constant_108496" type="Const" version="opset1">
			<data element_type="i64" shape="1" offset="4" size="8" />
			<output>
				<port id="0" precision="I64">
					<dim>1</dim>
				</port>
			</output>
		</layer>
		<layer id="388" name="Constant_108498" type="Const" version="opset1">
			<data element_type="i64" shape="1" offset="20" size="8" />
			<output>
				<port id="0" precision="I64">
					<dim>1</dim>
				</port>
			</output>
		</layer>
		<layer id="389" name="Concat_108499" type="Concat" version="opset1">
…
		<edge from-layer="6433" from-port="2" to-layer="6444" to-port="0" />
		<edge from-layer="6434" from-port="0" to-layer="6435" to-port="0" />
		<edge from-layer="6435" from-port="1" to-layer="6438" to-port="0" />
		<edge from-layer="6436" from-port="0" to-layer="6437" to-port="0" />
		<edge from-layer="6437" from-port="1" to-layer="6438" to-port="1" />
		<edge from-layer="6438" from-port="2" to-layer="6440" to-port="0" />
		<edge from-layer="6439" from-port="0" to-layer="6440" to-port="1" />
		<edge from-layer="6440" from-port="2" to-layer="6442" to-port="0" />
		<edge from-layer="6441" from-port="0" to-layer="6442" to-port="1" />
		<edge from-layer="6442" from-port="2" to-layer="6443" to-port="0" />
		<edge from-layer="6443" from-port="1" to-layer="6444" to-port="1" />
		<edge from-layer="6444" from-port="2" to-layer="6445" to-port="1" />
		<edge from-layer="6445" from-port="2" to-layer="6493" to-port="0" />
		<edge from-layer="6445" from-port="2" to-layer="6449" to-port="0" />
		<edge from-layer="6445" from-port="2" to-layer="6456" to-port="0" />
		<edge from-layer="6446" from-port="0" to-layer="6457" to-port="0" />
		<edge from-layer="6447" from-port="0" to-layer="6455" to-port="0" />
		<edge from-layer="6448" from-port="0" to-layer="6449" to-port="1" />
		<edge from-layer="6449" from-port="2" to-layer="6451" to-port="0" />
		<edge from-layer="6450" from-port="0" to-layer="6451" to-port="1" />
		<edge from-layer="6451" from-port="2" to-layer="6453" to-port="0" />
		<edge from-layer="6452" from-port="0" to-layer="6453" to-port="1" />
		<edge from-layer="6453" from-port="2" to-layer="6454" to-port="0" />
		<edge from-layer="6454" from-port="1" to-layer="6455" to-port="1" />
		<edge from-layer="6455" from-port="2" to-layer="6456" to-port="1" />
		<edge from-layer="6456" from-port="2" to-layer="6457" to-port="1" />
		<edge from-layer="6457" from-port="2" to-layer="6468" to-port="0" />
		<edge from-layer="6457" from-port="2" to-layer="6480" to-port="0" />
		<edge from-layer="6458" from-port="0" to-layer="6459" to-port="0" />
		<edge from-layer="6459" from-port="1" to-layer="6462" to-port="0" />
		<edge from-layer="6460" from-port="0" to-layer="6461" to-port="0" />
		<edge from-layer="6461" from-port="1" to-layer="6462" to-port="1" />
		<edge from-layer="6462" from-port="2" to-layer="6464" to-port="0" />
		<edge from-layer="6463" from-port="0" to-layer="6464" to-port="1" />
		<edge from-layer="6464" from-port="2" to-layer="6466" to-port="0" />
		<edge from-layer="6465" from-port="0" to-layer="6466" to-port="1" />
		<edge from-layer="6466" from-port="2" to-layer="6467" to-port="0" />
		<edge from-layer="6467" from-port="1" to-layer="6468" to-port="1" />
		<edge from-layer="6468" from-port="2" to-layer="6469" to-port="0" />
		<edge from-layer="6469" from-port="1" to-layer="6481" to-port="0" />
		<edge from-layer="6470" from-port="0" to-layer="6471" to-port="0" />
		<edge from-layer="6471" from-port="1" to-layer="6474" to-port="0" />
		<edge from-layer="6472" from-port="0" to-layer="6473" to-port="0" />
		<edge from-layer="6473" from-port="1" to-layer="6474" to-port="1" />
		<edge from-layer="6474" from-port="2" to-layer="6476" to-port="0" />
		<edge from-layer="6475" from-port="0" to-layer="6476" to-port="1" />
		<edge from-layer="6476" from-port="2" to-layer="6478" to-port="0" />
		<edge from-layer="6477" from-port="0" to-layer="6478" to-port="1" />
		<edge from-layer="6478" from-port="2" to-layer="6479" to-port="0" />
		<edge from-layer="6479" from-port="1" to-layer="6480" to-port="1" />
		<edge from-layer="6480" from-port="2" to-layer="6481" to-port="1" />
		<edge from-layer="6481" from-port="2" to-layer="6492" to-port="0" />
		<edge from-layer="6482" from-port="0" to-layer="6483" to-port="0" />
		<edge from-layer="6483" from-port="1" to-layer="6486" to-port="0" />
		<edge from-layer="6484" from-port="0" to-layer="6485" to-port="0" />
		<edge from-layer="6485" from-port="1" to-layer="6486" to-port="1" />
		<edge from-layer="6486" from-port="2" to-layer="6488" to-port="0" />
		<edge from-layer="6487" from-port="0" to-layer="6488" to-port="1" />
		<edge from-layer="6488" from-port="2" to-layer="6490" to-port="0" />
		<edge from-layer="6489" from-port="0" to-layer="6490" to-port="1" />
		<edge from-layer="6490" from-port="2" to-layer="6491" to-port="0" />
		<edge from-layer="6491" from-port="1" to-layer="6492" to-port="1" />
		<edge from-layer="6492" from-port="2" to-layer="6493" to-port="1" />
		<edge from-layer="6493" from-port="2" to-layer="6637" to-port="0" />
		<edge from-layer="6493" from-port="2" to-layer="6504" to-port="0" />
		<edge from-layer="6493" from-port="2" to-layer="6497" to-port="0" />
		<edge from-layer="6494" from-port="0" to-layer="6505" to-port="0" />
		<edge from-layer="6495" from-port="0" to-layer="6503" to-port="0" />
		<edge from-layer="6496" from-port="0" to-layer="6497" to-port="1" />
		<edge from-layer="6497" from-port="2" to-layer="6499" to-port="0" />
		<edge from-layer="6498" from-port="0" to-layer="6499" to-port="1" />
		<edge from-layer="6499" from-port="2" to-layer="6501" to-port="0" />
		<edge from-layer="6500" from-port="0" to-layer="6501" to-port="1" />
		<edge from-layer="6501" from-port="2" to-layer="6502" to-port="0" />
		<edge from-layer="6502" from-port="1" to-layer="6503" to-port="1" />
		<edge from-layer="6503" from-port="2" to-layer="6504" to-port="1" />
		<edge from-layer="6504" from-port="2" to-layer="6505" to-port="1" />
		<edge from-layer="6505" from-port="2" to-layer="6609" to-port="0" />
		<edge from-layer="6505" from-port="2" to-layer="6516" to-port="0" />
		<edge from-layer="6505" from-port="2" to-layer="6560" to-port="0" />
		<edge from-layer="6506" from-port="0" to-layer="6507" to-port="0" />
		<edge from-layer="6507" from-port="1" to-layer="6510" to-port="0" />
		<edge from-layer="6508" from-port="0" to-layer="6509" to-port="0" />
		<edge from-layer="6509" from-port="1" to-layer="6510" to-port="1" />
		<edge from-layer="6510" from-port="2" to-layer="6512" to-port="0" />
		<edge from-layer="6511" from-port="0" to-layer="6512" to-port="1" />
		<edge from-layer="6512" from-port="2" to-layer="6514" to-port="0" />
		<edge from-layer="6513" from-port="0" to-layer="6514" to-port="1" />
		<edge from-layer="6514" from-port="2" to-layer="6515" to-port="0" />
		<edge from-layer="6515" from-port="1" to-layer="6516" to-port="1" />
		<edge from-layer="6516" from-port="2" to-layer="6519" to-port="0" />
		<edge from-layer="6517" from-port="0" to-layer="6518" to-port="0" />
		<edge from-layer="6518" from-port="1" to-layer="6519" to-port="1" />
		<edge from-layer="6519" from-port="2" to-layer="6521" to-port="0" />
		<edge from-layer="6520" from-port="0" to-layer="6521" to-port="1" />
		<edge from-layer="6521" from-port="2" to-layer="6523" to-port="0" />
		<edge from-layer="6522" from-port="0" to-layer="6523" to-port="1" />
		<edge from-layer="6523" from-port="2" to-layer="6537" to-port="0" />
		<edge from-layer="6523" from-port="2" to-layer="6524" to-port="0" />
		<edge from-layer="6523" from-port="2" to-layer="6529" to-port="0" />
		<edge from-layer="6524" from-port="2" to-layer="6540" to-port="0" />
		<edge from-layer="6525" from-port="0" to-layer="6529" to-port="1" />
		<edge from-layer="6526" from-port="0" to-layer="6529" to-port="2" />
		<edge from-layer="6527" from-port="0" to-layer="6529" to-port="3" />
		<edge from-layer="6528" from-port="0" to-layer="6529" to-port="4" />
		<edge from-layer="6529" from-port="5" to-layer="6532" to-port="0" />
		<edge from-layer="6530" from-port="0" to-layer="6531" to-port="0" />
		<edge from-layer="6531" from-port="1" to-layer="6532" to-port="1" />
		<edge from-layer="6532" from-port="2" to-layer="6538" to-port="0" />
		<edge from-layer="6533" from-port="0" to-layer="6537" to-port="1" />
		<edge from-layer="6534" from-port="0" to-layer="6537" to-port="2" />
		<edge from-layer="6535" from-port="0" to-layer="6537" to-port="3" />
		<edge from-layer="6536" from-port="0" to-layer="6537" to-port="4" />
		<edge from-layer="6537" from-port="5" to-layer="6538" to-port="1" />
		<edge from-layer="6538" from-port="2" to-layer="6539" to-port="0" />
		<edge from-layer="6539" from-port="2" to-layer="6540" to-port="1" />
		<edge from-layer="6540" from-port="2" to-layer="6622" to-port="0" />
		<edge from-layer="6541" from-port="0" to-layer="6546" to-port="0" />
		<edge from-layer="6542" from-port="0" to-layer="6545" to-port="1" />
		<edge from-layer="6543" from-port="0" to-layer="6545" to-port="2" />
		<edge from-layer="6544" from-port="0" to-layer="6545" to-port="3" />
		<edge from-layer="6545" from-port="4" to-layer="6546" to-port="1" />
		<edge from-layer="6546" from-port="2" to-layer="6547" to-port="0" />
		<edge from-layer="6547" from-port="1" to-layer="6549" to-port="0" />
		<edge from-layer="6548" from-port="0" to-layer="6549" to-port="2" />
		<edge from-layer="6549" from-port="3" to-layer="6585" to-port="0" />
		<edge from-layer="6550" from-port="0" to-layer="6551" to-port="0" />
		<edge from-layer="6551" from-port="1" to-layer="6554" to-port="0" />
		<edge from-layer="6552" from-port="0" to-layer="6553" to-port="0" />
		<edge from-layer="6553" from-port="1" to-layer="6554" to-port="1" />
		<edge from-layer="6554" from-port="2" to-layer="6556" to-port="0" />
		<edge from-layer="6555" from-port="0" to-layer="6556" to-port="1" />
		<edge from-layer="6556" from-port="2" to-layer="6558" to-port="0" />
		<edge from-layer="6557" from-port="0" to-layer="6558" to-port="1" />
		<edge from-layer="6558" from-port="2" to-layer="6559" to-port="0" />
		<edge from-layer="6559" from-port="1" to-layer="6560" to-port="1" />
		<edge from-layer="6560" from-port="2" to-layer="6563" to-port="0" />
		<edge from-layer="6561" from-port="0" to-layer="6562" to-port="0" />
		<edge from-layer="6562" from-port="1" to-layer="6563" to-port="1" />
		<edge from-layer="6563" from-port="2" to-layer="6565" to-port="0" />
		<edge from-layer="6564" from-port="0" to-layer="6565" to-port="1" />
		<edge from-layer="6565" from-port="2" to-layer="6567" to-port="0" />
		<edge from-layer="6566" from-port="0" to-layer="6567" to-port="1" />
		<edge from-layer="6567" from-port="2" to-layer="6568" to-port="0" />
		<edge from-layer="6567" from-port="2" to-layer="6573" to-port="0" />
		<edge from-layer="6567" from-port="2" to-layer="6581" to-port="0" />
		<edge from-layer="6568" from-port="2" to-layer="6584" to-port="0" />
		<edge from-layer="6569" from-port="0" to-layer="6573" to-port="1" />
		<edge from-layer="6570" from-port="0" to-layer="6573" to-port="2" />
		<edge from-layer="6571" from-port="0" to-layer="6573" to-port="3" />
		<edge from-layer="6572" from-port="0" to-layer="6573" to-port="4" />
		<edge from-layer="6573" from-port="5" to-layer="6576" to-port="0" />
		<edge from-layer="6574" from-port="0" to-layer="6575" to-port="0" />
		<edge from-layer="6575" from-port="1" to-layer="6576" to-port="1" />
		<edge from-layer="6576" from-port="2" to-layer="6582" to-port="0" />
		<edge from-layer="6577" from-port="0" to-layer="6581" to-port="1" />
		<edge from-layer="6578" from-port="0" to-layer="6581" to-port="2" />
		<edge from-layer="6579" from-port="0" to-layer="6581" to-port="3" />
		<edge from-layer="6580" from-port="0" to-layer="6581" to-port="4" />
		<edge from-layer="6581" from-port="5" to-layer="6582" to-port="1" />
		<edge from-layer="6582" from-port="2" to-layer="6583" to-port="0" />
		<edge from-layer="6583" from-port="2" to-layer="6584" to-port="1" />
		<edge from-layer="6584" from-port="2" to-layer="6585" to-port="1" />
		<edge from-layer="6585" from-port="2" to-layer="6586" to-port="0" />
		<edge from-layer="6585" from-port="2" to-layer="6958" to-port="0" />
		<edge from-layer="6586" from-port="2" to-layer="6587" to-port="0" />
		<edge from-layer="6587" from-port="2" to-layer="6589" to-port="0" />
		<edge from-layer="6588" from-port="0" to-layer="6589" to-port="1" />
		<edge from-layer="6589" from-port="2" to-layer="6622" to-port="1" />
		<edge from-layer="6590" from-port="0" to-layer="6595" to-port="0" />
		<edge from-layer="6591" from-port="0" to-layer="6594" to-port="1" />
		<edge from-layer="6592" from-port="0" to-layer="6594" to-port="2" />
		<edge from-layer="6593" from-port="0" to-layer="6594" to-port="3" />
		<edge from-layer="6594" from-port="4" to-layer="6595" to-port="1" />
		<edge from-layer="6595" from-port="2" to-layer="6596" to-port="0" />
		<edge from-layer="6596" from-port="1" to-layer="6598" to-port="0" />
		<edge from-layer="6597" from-port="0" to-layer="6598" to-port="2" />
		<edge from-layer="6598" from-port="3" to-layer="6617" to-port="0" />
		<edge from-layer="6599" from-port="0" to-layer="6600" to-port="0" />
		<edge from-layer="6600" from-port="1" to-layer="6603" to-port="0" />
		<edge from-layer="6601" from-port="0" to-layer="6602" to-port="0" />
		<edge from-layer="6602" from-port="1" to-layer="6603" to-port="1" />
		<edge from-layer="6603" from-port="2" to-layer="6605" to-port="0" />
		<edge from-layer="6604" from-port="0" to-layer="6605" to-port="1" />
		<edge from-layer="6605" from-port="2" to-layer="6607" to-port="0" />
		<edge from-layer="6606" from-port="0" to-layer="6607" to-port="1" />
		<edge from-layer="6607" from-port="2" to-layer="6608" to-port="0" />
		<edge from-layer="6608" from-port="1" to-layer="6609" to-port="1" />
		<edge from-layer="6609" from-port="2" to-layer="6612" to-port="0" />
		<edge from-layer="6610" from-port="0" to-layer="6611" to-port="0" />
		<edge from-layer="6611" from-port="1" to-layer="6612" to-port="1" />
		<edge from-layer="6612" from-port="2" to-layer="6614" to-port="0" />
		<edge from-layer="6613" from-port="0" to-layer="6614" to-port="1" />
		<edge from-layer="6614" from-port="2" to-layer="6616" to-port="0" />
		<edge from-layer="6615" from-port="0" to-layer="6616" to-port="1" />
		<edge from-layer="6616" from-port="2" to-layer="6617" to-port="1" />
		<edge from-layer="6617" from-port="2" to-layer="6618" to-port="0" />
		<edge from-layer="6617" from-port="2" to-layer="6957" to-port="0" />
		<edge from-layer="6618" from-port="2" to-layer="6619" to-port="0" />
		<edge from-layer="6619" from-port="2" to-layer="6621" to-port="0" />
		<edge from-layer="6620" from-port="0" to-layer="6621" to-port="1" />
		<edge from-layer="6621" from-port="2" to-layer="6622" to-port="2" />
		<edge from-layer="6622" from-port="5" to-layer="6624" to-port="0" />
		<edge from-layer="6623" from-port="0" to-layer="6624" to-port="1" />
		<edge from-layer="6624" from-port="2" to-layer="6625" to-port="0" />
		<edge from-layer="6625" from-port="2" to-layer="6636" to-port="0" />
		<edge from-layer="6626" from-port="0" to-layer="6627" to-port="0" />
		<edge from-layer="6627" from-port="1" to-layer="6630" to-port="0" />
		<edge from-layer="6628" from-port="0" to-layer="6629" to-port="0" />
		<edge from-layer="6629" from-port="1" to-layer="6630" to-port="1" />
		<edge from-layer="6630" from-port="2" to-layer="6632" to-port="0" />
		<edge from-layer="6631" from-port="0" to-layer="6632" to-port="1" />
		<edge from-layer="6632" from-port="2" to-layer="6634" to-port="0" />
		<edge from-layer="6633" from-port="0" to-layer="6634" to-port="1" />
		<edge from-layer="6634" from-port="2" to-layer="6635" to-port="0" />
		<edge from-layer="6635" from-port="1" to-layer="6636" to-port="1" />
		<edge from-layer="6636" from-port="2" to-layer="6637" to-port="1" />
		<edge from-layer="6637" from-port="2" to-layer="6648" to-port="0" />
		<edge from-layer="6637" from-port="2" to-layer="6685" to-port="0" />
		<edge from-layer="6637" from-port="2" to-layer="6641" to-port="0" />
		<edge from-layer="6638" from-port="0" to-layer="6649" to-port="0" />
		<edge from-layer="6639" from-port="0" to-layer="6647" to-port="0" />
		<edge from-layer="6640" from-port="0" to-layer="6641" to-port="1" />
		<edge from-layer="6641" from-port="2" to-layer="6643" to-port="0" />
		<edge from-layer="6642" from-port="0" to-layer="6643" to-port="1" />
		<edge from-layer="6643" from-port="2" to-layer="6645" to-port="0" />
		<edge from-layer="6644" from-port="0" to-layer="6645" to-port="1" />
		<edge from-layer="6645" from-port="2" to-layer="6646" to-port="0" />
		<edge from-layer="6646" from-port="1" to-layer="6647" to-port="1" />
		<edge from-layer="6647" from-port="2" to-layer="6648" to-port="1" />
		<edge from-layer="6648" from-port="2" to-layer="6649" to-port="1" />
		<edge from-layer="6649" from-port="2" to-layer="6672" to-port="0" />
		<edge from-layer="6649" from-port="2" to-layer="6660" to-port="0" />
		<edge from-layer="6650" from-port="0" to-layer="6651" to-port="0" />
		<edge from-layer="6651" from-port="1" to-layer="6654" to-port="0" />
		<edge from-layer="6652" from-port="0" to-layer="6653" to-port="0" />
		<edge from-layer="6653" from-port="1" to-layer="6654" to-port="1" />
		<edge from-layer="6654" from-port="2" to-layer="6656" to-port="0" />
		<edge from-layer="6655" from-port="0" to-layer="6656" to-port="1" />
		<edge from-layer="6656" from-port="2" to-layer="6658" to-port="0" />
		<edge from-layer="6657" from-port="0" to-layer="6658" to-port="1" />
		<edge from-layer="6658" from-port="2" to-layer="6659" to-port="0" />
		<edge from-layer="6659" from-port="1" to-layer="6660" to-port="1" />
		<edge from-layer="6660" from-port="2" to-layer="6661" to-port="0" />
		<edge from-layer="6661" from-port="1" to-layer="6673" to-port="0" />
		<edge from-layer="6662" from-port="0" to-layer="6663" to-port="0" />
		<edge from-layer="6663" from-port="1" to-layer="6666" to-port="0" />
		<edge from-layer="6664" from-port="0" to-layer="6665" to-port="0" />
		<edge from-layer="6665" from-port="1" to-layer="6666" to-port="1" />
		<edge from-layer="6666" from-port="2" to-layer="6668" to-port="0" />
		<edge from-layer="6667" from-port="0" to-layer="6668" to-port="1" />
		<edge from-layer="6668" from-port="2" to-layer="6670" to-port="0" />
		<edge from-layer="6669" from-port="0" to-layer="6670" to-port="1" />
		<edge from-layer="6670" from-port="2" to-layer="6671" to-port="0" />
		<edge from-layer="6671" from-port="1" to-layer="6672" to-port="1" />
		<edge from-layer="6672" from-port="2" to-layer="6673" to-port="1" />
		<edge from-layer="6673" from-port="2" to-layer="6684" to-port="0" />
		<edge from-layer="6674" from-port="0" to-layer="6675" to-port="0" />
		<edge from-layer="6675" from-port="1" to-layer="6678" to-port="0" />
		<edge from-layer="6676" from-port="0" to-layer="6677" to-port="0" />
		<edge from-layer="6677" from-port="1" to-layer="6678" to-port="1" />
		<edge from-layer="6678" from-port="2" to-layer="6680" to-port="0" />
		<edge from-layer="6679" from-port="0" to-layer="6680" to-port="1" />
		<edge from-layer="6680" from-port="2" to-layer="6682" to-port="0" />
		<edge from-layer="6681" from-port="0" to-layer="6682" to-port="1" />
		<edge from-layer="6682" from-port="2" to-layer="6683" to-port="0" />
		<edge from-layer="6683" from-port="1" to-layer="6684" to-port="1" />
		<edge from-layer="6684" from-port="2" to-layer="6685" to-port="1" />
		<edge from-layer="6685" from-port="2" to-layer="6689" to-port="0" />
		<edge from-layer="6685" from-port="2" to-layer="6829" to-port="0" />
		<edge from-layer="6685" from-port="2" to-layer="6696" to-port="0" />
		<edge from-layer="6686" from-port="0" to-layer="6697" to-port="0" />
		<edge from-layer="6687" from-port="0" to-layer="6695" to-port="0" />
		<edge from-layer="6688" from-port="0" to-layer="6689" to-port="1" />
		<edge from-layer="6689" from-port="2" to-layer="6691" to-port="0" />
		<edge from-layer="6690" from-port="0" to-layer="6691" to-port="1" />
		<edge from-layer="6691" from-port="2" to-layer="6693" to-port="0" />
		<edge from-layer="6692" from-port="0" to-layer="6693" to-port="1" />
		<edge from-layer="6693" from-port="2" to-layer="6694" to-port="0" />
		<edge from-layer="6694" from-port="1" to-layer="6695" to-port="1" />
		<edge from-layer="6695" from-port="2" to-layer="6696" to-port="1" />
		<edge from-layer="6696" from-port="2" to-layer="6697" to-port="1" />
		<edge from-layer="6697" from-port="2" to-layer="6801" to-port="0" />
		<edge from-layer="6697" from-port="2" to-layer="6708" to-port="0" />
		<edge from-layer="6697" from-port="2" to-layer="6752" to-port="0" />
		<edge from-layer="6698" from-port="0" to-layer="6699" to-port="0" />
		<edge from-layer="6699" from-port="1" to-layer="6702" to-port="0" />
		<edge from-layer="6700" from-port="0" to-layer="6701" to-port="0" />
		<edge from-layer="6701" from-port="1" to-layer="6702" to-port="1" />
		<edge from-layer="6702" from-port="2" to-layer="6704" to-port="0" />
		<edge from-layer="6703" from-port="0" to-layer="6704" to-port="1" />
		<edge from-layer="6704" from-port="2" to-layer="6706" to-port="0" />
		<edge from-layer="6705" from-port="0" to-layer="6706" to-port="1" />
		<edge from-layer="6706" from-port="2" to-layer="6707" to-port="0" />
		<edge from-layer="6707" from-port="1" to-layer="6708" to-port="1" />
		<edge from-layer="6708" from-port="2" to-layer="6711" to-port="0" />
		<edge from-layer="6709" from-port="0" to-layer="6710" to-port="0" />
		<edge from-layer="6710" from-port="1" to-layer="6711" to-port="1" />
		<edge from-layer="6711" from-port="2" to-layer="6713" to-port="0" />
		<edge from-layer="6712" from-port="0" to-layer="6713" to-port="1" />
		<edge from-layer="6713" from-port="2" to-layer="6715" to-port="0" />
		<edge from-layer="6714" from-port="0" to-layer="6715" to-port="1" />
		<edge from-layer="6715" from-port="2" to-layer="6716" to-port="0" />
		<edge from-layer="6715" from-port="2" to-layer="6721" to-port="0" />
		<edge from-layer="6715" from-port="2" to-layer="6729" to-port="0" />
		<edge from-layer="6716" from-port="2" to-layer="6732" to-port="0" />
		<edge from-layer="6717" from-port="0" to-layer="6721" to-port="1" />
		<edge from-layer="6718" from-port="0" to-layer="6721" to-port="2" />
		<edge from-layer="6719" from-port="0" to-layer="6721" to-port="3" />
		<edge from-layer="6720" from-port="0" to-layer="6721" to-port="4" />
		<edge from-layer="6721" from-port="5" to-layer="6724" to-port="0" />
		<edge from-layer="6722" from-port="0" to-layer="6723" to-port="0" />
		<edge from-layer="6723" from-port="1" to-layer="6724" to-port="1" />
		<edge from-layer="6724" from-port="2" to-layer="6730" to-port="0" />
		<edge from-layer="6725" from-port="0" to-layer="6729" to-port="1" />
		<edge from-layer="6726" from-port="0" to-layer="6729" to-port="2" />
		<edge from-layer="6727" from-port="0" to-layer="6729" to-port="3" />
		<edge from-layer="6728" from-port="0" to-layer="6729" to-port="4" />
		<edge from-layer="6729" from-port="5" to-layer="6730" to-port="1" />
		<edge from-layer="6730" from-port="2" to-layer="6731" to-port="0" />
		<edge from-layer="6731" from-port="2" to-layer="6732" to-port="1" />
		<edge from-layer="6732" from-port="2" to-layer="6814" to-port="0" />
		<edge from-layer="6733" from-port="0" to-layer="6738" to-port="0" />
		<edge from-layer="6734" from-port="0" to-layer="6737" to-port="1" />
		<edge from-layer="6735" from-port="0" to-layer="6737" to-port="2" />
		<edge from-layer="6736" from-port="0" to-layer="6737" to-port="3" />
		<edge from-layer="6737" from-port="4" to-layer="6738" to-port="1" />
		<edge from-layer="6738" from-port="2" to-layer="6739" to-port="0" />
		<edge from-layer="6739" from-port="1" to-layer="6741" to-port="0" />
		<edge from-layer="6740" from-port="0" to-layer="6741" to-port="2" />
		<edge from-layer="6741" from-port="3" to-layer="6777" to-port="0" />
		<edge from-layer="6742" from-port="0" to-layer="6743" to-port="0" />
		<edge from-layer="6743" from-port="1" to-layer="6746" to-port="0" />
		<edge from-layer="6744" from-port="0" to-layer="6745" to-port="0" />
		<edge from-layer="6745" from-port="1" to-layer="6746" to-port="1" />
		<edge from-layer="6746" from-port="2" to-layer="6748" to-port="0" />
		<edge from-layer="6747" from-port="0" to-layer="6748" to-port="1" />
		<edge from-layer="6748" from-port="2" to-layer="6750" to-port="0" />
		<edge from-layer="6749" from-port="0" to-layer="6750" to-port="1" />
		<edge from-layer="6750" from-port="2" to-layer="6751" to-port="0" />
		<edge from-layer="6751" from-port="1" to-layer="6752" to-port="1" />
		<edge from-layer="6752" from-port="2" to-layer="6755" to-port="0" />
		<edge from-layer="6753" from-port="0" to-layer="6754" to-port="0" />
		<edge from-layer="6754" from-port="1" to-layer="6755" to-port="1" />
		<edge from-layer="6755" from-port="2" to-layer="6757" to-port="0" />
		<edge from-layer="6756" from-port="0" to-layer="6757" to-port="1" />
		<edge from-layer="6757" from-port="2" to-layer="6759" to-port="0" />
		<edge from-layer="6758" from-port="0" to-layer="6759" to-port="1" />
		<edge from-layer="6759" from-port="2" to-layer="6765" to-port="0" />
		<edge from-layer="6759" from-port="2" to-layer="6760" to-port="0" />
		<edge from-layer="6759" from-port="2" to-layer="6773" to-port="0" />
		<edge from-layer="6760" from-port="2" to-layer="6776" to-port="0" />
		<edge from-layer="6761" from-port="0" to-layer="6765" to-port="1" />
		<edge from-layer="6762" from-port="0" to-layer="6765" to-port="2" />
		<edge from-layer="6763" from-port="0" to-layer="6765" to-port="3" />
		<edge from-layer="6764" from-port="0" to-layer="6765" to-port="4" />
		<edge from-layer="6765" from-port="5" to-layer="6768" to-port="0" />
		<edge from-layer="6766" from-port="0" to-layer="6767" to-port="0" />
		<edge from-layer="6767" from-port="1" to-layer="6768" to-port="1" />
		<edge from-layer="6768" from-port="2" to-layer="6774" to-port="0" />
		<edge from-layer="6769" from-port="0" to-layer="6773" to-port="1" />
		<edge from-layer="6770" from-port="0" to-layer="6773" to-port="2" />
		<edge from-layer="6771" from-port="0" to-layer="6773" to-port="3" />
		<edge from-layer="6772" from-port="0" to-layer="6773" to-port="4" />
		<edge from-layer="6773" from-port="5" to-layer="6774" to-port="1" />
		<edge from-layer="6774" from-port="2" to-layer="6775" to-port="0" />
		<edge from-layer="6775" from-port="2" to-layer="6776" to-port="1" />
		<edge from-layer="6776" from-port="2" to-layer="6777" to-port="1" />
		<edge from-layer="6777" from-port="2" to-layer="6778" to-port="0" />
		<edge from-layer="6777" from-port="2" to-layer="6956" to-port="0" />
		<edge from-layer="6778" from-port="2" to-layer="6779" to-port="0" />
		<edge from-layer="6779" from-port="2" to-layer="6781" to-port="0" />
		<edge from-layer="6780" from-port="0" to-layer="6781" to-port="1" />
		<edge from-layer="6781" from-port="2" to-layer="6814" to-port="1" />
		<edge from-layer="6782" from-port="0" to-layer="6787" to-port="0" />
		<edge from-layer="6783" from-port="0" to-layer="6786" to-port="1" />
		<edge from-layer="6784" from-port="0" to-layer="6786" to-port="2" />
		<edge from-layer="6785" from-port="0" to-layer="6786" to-port="3" />
		<edge from-layer="6786" from-port="4" to-layer="6787" to-port="1" />
		<edge from-layer="6787" from-port="2" to-layer="6788" to-port="0" />
		<edge from-layer="6788" from-port="1" to-layer="6790" to-port="0" />
		<edge from-layer="6789" from-port="0" to-layer="6790" to-port="2" />
		<edge from-layer="6790" from-port="3" to-layer="6809" to-port="0" />
		<edge from-layer="6791" from-port="0" to-layer="6792" to-port="0" />
		<edge from-layer="6792" from-port="1" to-layer="6795" to-port="0" />
		<edge from-layer="6793" from-port="0" to-layer="6794" to-port="0" />
		<edge from-layer="6794" from-port="1" to-layer="6795" to-port="1" />
		<edge from-layer="6795" from-port="2" to-layer="6797" to-port="0" />
		<edge from-layer="6796" from-port="0" to-layer="6797" to-port="1" />
		<edge from-layer="6797" from-port="2" to-layer="6799" to-port="0" />
		<edge from-layer="6798" from-port="0" to-layer="6799" to-port="1" />
		<edge from-layer="6799" from-port="2" to-layer="6800" to-port="0" />
		<edge from-layer="6800" from-port="1" to-layer="6801" to-port="1" />
		<edge from-layer="6801" from-port="2" to-layer="6804" to-port="0" />
		<edge from-layer="6802" from-port="0" to-layer="6803" to-port="0" />
		<edge from-layer="6803" from-port="1" to-layer="6804" to-port="1" />
		<edge from-layer="6804" from-port="2" to-layer="6806" to-port="0" />
		<edge from-layer="6805" from-port="0" to-layer="6806" to-port="1" />
		<edge from-layer="6806" from-port="2" to-layer="6808" to-port="0" />
		<edge from-layer="6807" from-port="0" to-layer="6808" to-port="1" />
		<edge from-layer="6808" from-port="2" to-layer="6809" to-port="1" />
		<edge from-layer="6809" from-port="2" to-layer="6810" to-port="0" />
		<edge from-layer="6809" from-port="2" to-layer="6955" to-port="0" />
		<edge from-layer="6810" from-port="2" to-layer="6811" to-port="0" />
		<edge from-layer="6811" from-port="2" to-layer="6813" to-port="0" />
		<edge from-layer="6812" from-port="0" to-layer="6813" to-port="1" />
		<edge from-layer="6813" from-port="2" to-layer="6814" to-port="2" />
		<edge from-layer="6814" from-port="5" to-layer="6816" to-port="0" />
		<edge from-layer="6815" from-port="0" to-layer="6816" to-port="1" />
		<edge from-layer="6816" from-port="2" to-layer="6817" to-port="0" />
		<edge from-layer="6817" from-port="2" to-layer="6828" to-port="0" />
		<edge from-layer="6818" from-port="0" to-layer="6819" to-port="0" />
		<edge from-layer="6819" from-port="1" to-layer="6822" to-port="0" />
		<edge from-layer="6820" from-port="0" to-layer="6821" to-port="0" />
		<edge from-layer="6821" from-port="1" to-layer="6822" to-port="1" />
		<edge from-layer="6822" from-port="2" to-layer="6824" to-port="0" />
		<edge from-layer="6823" from-port="0" to-layer="6824" to-port="1" />
		<edge from-layer="6824" from-port="2" to-layer="6826" to-port="0" />
		<edge from-layer="6825" from-port="0" to-layer="6826" to-port="1" />
		<edge from-layer="6826" from-port="2" to-layer="6827" to-port="0" />
		<edge from-layer="6827" from-port="1" to-layer="6828" to-port="1" />
		<edge from-layer="6828" from-port="2" to-layer="6829" to-port="1" />
		<edge from-layer="6829" from-port="2" to-layer="6833" to-port="0" />
		<edge from-layer="6829" from-port="2" to-layer="6877" to-port="0" />
		<edge from-layer="6829" from-port="2" to-layer="6840" to-port="0" />
		<edge from-layer="6830" from-port="0" to-layer="6841" to-port="0" />
		<edge from-layer="6831" from-port="0" to-layer="6839" to-port="0" />
		<edge from-layer="6832" from-port="0" to-layer="6833" to-port="1" />
		<edge from-layer="6833" from-port="2" to-layer="6835" to-port="0" />
		<edge from-layer="6834" from-port="0" to-layer="6835" to-port="1" />
		<edge from-layer="6835" from-port="2" to-layer="6837" to-port="0" />
		<edge from-layer="6836" from-port="0" to-layer="6837" to-port="1" />
		<edge from-layer="6837" from-port="2" to-layer="6838" to-port="0" />
		<edge from-layer="6838" from-port="1" to-layer="6839" to-port="1" />
		<edge from-layer="6839" from-port="2" to-layer="6840" to-port="1" />
		<edge from-layer="6840" from-port="2" to-layer="6841" to-port="1" />
		<edge from-layer="6841" from-port="2" to-layer="6852" to-port="0" />
		<edge from-layer="6841" from-port="2" to-layer="6864" to-port="0" />
		<edge from-layer="6842" from-port="0" to-layer="6843" to-port="0" />
		<edge from-layer="6843" from-port="1" to-layer="6846" to-port="0" />
		<edge from-layer="6844" from-port="0" to-layer="6845" to-port="0" />
		<edge from-layer="6845" from-port="1" to-layer="6846" to-port="1" />
		<edge from-layer="6846" from-port="2" to-layer="6848" to-port="0" />
		<edge from-layer="6847" from-port="0" to-layer="6848" to-port="1" />
		<edge from-layer="6848" from-port="2" to-layer="6850" to-port="0" />
		<edge from-layer="6849" from-port="0" to-layer="6850" to-port="1" />
		<edge from-layer="6850" from-port="2" to-layer="6851" to-port="0" />
		<edge from-layer="6851" from-port="1" to-layer="6852" to-port="1" />
		<edge from-layer="6852" from-port="2" to-layer="6853" to-port="0" />
		<edge from-layer="6853" from-port="1" to-layer="6865" to-port="0" />
		<edge from-layer="6854" from-port="0" to-layer="6855" to-port="0" />
		<edge from-layer="6855" from-port="1" to-layer="6858" to-port="0" />
		<edge from-layer="6856" from-port="0" to-layer="6857" to-port="0" />
		<edge from-layer="6857" from-port="1" to-layer="6858" to-port="1" />
		<edge from-layer="6858" from-port="2" to-layer="6860" to-port="0" />
		<edge from-layer="6859" from-port="0" to-layer="6860" to-port="1" />
		<edge from-layer="6860" from-port="2" to-layer="6862" to-port="0" />
		<edge from-layer="6861" from-port="0" to-layer="6862" to-port="1" />
		<edge from-layer="6862" from-port="2" to-layer="6863" to-port="0" />
		<edge from-layer="6863" from-port="1" to-layer="6864" to-port="1" />
		<edge from-layer="6864" from-port="2" to-layer="6865" to-port="1" />
		<edge from-layer="6865" from-port="2" to-layer="6876" to-port="0" />
		<edge from-layer="6866" from-port="0" to-layer="6867" to-port="0" />
		<edge from-layer="6867" from-port="1" to-layer="6870" to-port="0" />
		<edge from-layer="6868" from-port="0" to-layer="6869" to-port="0" />
		<edge from-layer="6869" from-port="1" to-layer="6870" to-port="1" />
		<edge from-layer="6870" from-port="2" to-layer="6872" to-port="0" />
		<edge from-layer="6871" from-port="0" to-layer="6872" to-port="1" />
		<edge from-layer="6872" from-port="2" to-layer="6874" to-port="0" />
		<edge from-layer="6873" from-port="0" to-layer="6874" to-port="1" />
		<edge from-layer="6874" from-port="2" to-layer="6875" to-port="0" />
		<edge from-layer="6875" from-port="1" to-layer="6876" to-port="1" />
		<edge from-layer="6876" from-port="2" to-layer="6877" to-port="1" />
		<edge from-layer="6877" from-port="2" to-layer="7072" to-port="0" />
		<edge from-layer="6877" from-port="2" to-layer="6880" to-port="0" />
		<edge from-layer="6877" from-port="2" to-layer="6887" to-port="0" />
		<edge from-layer="6878" from-port="0" to-layer="6886" to-port="0" />
		<edge from-layer="6879" from-port="0" to-layer="6880" to-port="1" />
		<edge from-layer="6880" from-port="2" to-layer="6882" to-port="0" />
		<edge from-layer="6881" from-port="0" to-layer="6882" to-port="1" />
		<edge from-layer="6882" from-port="2" to-layer="6884" to-port="0" />
		<edge from-layer="6883" from-port="0" to-layer="6884" to-port="1" />
		<edge from-layer="6884" from-port="2" to-layer="6885" to-port="0" />
		<edge from-layer="6885" from-port="1" to-layer="6886" to-port="1" />
		<edge from-layer="6886" from-port="2" to-layer="6887" to-port="1" />
		<edge from-layer="6887" from-port="2" to-layer="6888" to-port="1" />
		<edge from-layer="6888" from-port="2" to-layer="6899" to-port="0" />
		<edge from-layer="6888" from-port="2" to-layer="6928" to-port="0" />
		<edge from-layer="6888" from-port="2" to-layer="7024" to-port="0" />
		<edge from-layer="6889" from-port="0" to-layer="6890" to-port="0" />
		<edge from-layer="6890" from-port="1" to-layer="6893" to-port="0" />
		<edge from-layer="6891" from-port="0" to-layer="6892" to-port="0" />
		<edge from-layer="6892" from-port="1" to-layer="6893" to-port="1" />
		<edge from-layer="6893" from-port="2" to-layer="6895" to-port="0" />
		<edge from-layer="6894" from-port="0" to-layer="6895" to-port="1" />
		<edge from-layer="6895" from-port="2" to-layer="6897" to-port="0" />
		<edge from-layer="6896" from-port="0" to-layer="6897" to-port="1" />
		<edge from-layer="6897" from-port="2" to-layer="6898" to-port="0" />
		<edge from-layer="6898" from-port="1" to-layer="6899" to-port="1" />
		<edge from-layer="6899" from-port="2" to-layer="6902" to-port="0" />
		<edge from-layer="6900" from-port="0" to-layer="6901" to-port="0" />
		<edge from-layer="6901" from-port="1" to-layer="6902" to-port="1" />
		<edge from-layer="6902" from-port="2" to-layer="6904" to-port="0" />
		<edge from-layer="6903" from-port="0" to-layer="6904" to-port="1" />
		<edge from-layer="6904" from-port="2" to-layer="6906" to-port="0" />
		<edge from-layer="6905" from-port="0" to-layer="6906" to-port="1" />
		<edge from-layer="6906" from-port="2" to-layer="6907" to-port="1" />
		<edge from-layer="6907" from-port="2" to-layer="6908" to-port="0" />
		<edge from-layer="6907" from-port="2" to-layer="7053" to-port="0" />
		<edge from-layer="6909" from-port="0" to-layer="6914" to-port="0" />
		<edge from-layer="6910" from-port="0" to-layer="6913" to-port="1" />
		<edge from-layer="6911" from-port="0" to-layer="6913" to-port="2" />
		<edge from-layer="6912" from-port="0" to-layer="6913" to-port="3" />
		<edge from-layer="6913" from-port="4" to-layer="6914" to-port="1" />
		<edge from-layer="6914" from-port="2" to-layer="6915" to-port="0" />
		<edge from-layer="6915" from-port="1" to-layer="6917" to-port="0" />
		<edge from-layer="6916" from-port="0" to-layer="6917" to-port="2" />
		<edge from-layer="6917" from-port="3" to-layer="6953" to-port="0" />
		<edge from-layer="6918" from-port="0" to-layer="6919" to-port="0" />
		<edge from-layer="6919" from-port="1" to-layer="6922" to-port="0" />
		<edge from-layer="6920" from-port="0" to-layer="6921" to-port="0" />
		<edge from-layer="6921" from-port="1" to-layer="6922" to-port="1" />
		<edge from-layer="6922" from-port="2" to-layer="6924" to-port="0" />
		<edge from-layer="6923" from-port="0" to-layer="6924" to-port="1" />
		<edge from-layer="6924" from-port="2" to-layer="6926" to-port="0" />
		<edge from-layer="6925" from-port="0" to-layer="6926" to-port="1" />
		<edge from-layer="6926" from-port="2" to-layer="6927" to-port="0" />
		<edge from-layer="6927" from-port="1" to-layer="6928" to-port="1" />
		<edge from-layer="6928" from-port="2" to-layer="6931" to-port="0" />
		<edge from-layer="6929" from-port="0" to-layer="6930" to-port="0" />
		<edge from-layer="6930" from-port="1" to-layer="6931" to-port="1" />
		<edge from-layer="6931" from-port="2" to-layer="6933" to-port="0" />
		<edge from-layer="6932" from-port="0" to-layer="6933" to-port="1" />
		<edge from-layer="6933" from-port="2" to-layer="6935" to-port="0" />
		<edge from-layer="6934" from-port="0" to-layer="6935" to-port="1" />
		<edge from-layer="6935" from-port="2" to-layer="6936" to-port="0" />
		<edge from-layer="6935" from-port="2" to-layer="6941" to-port="0" />
		<edge from-layer="6935" from-port="2" to-layer="6949" to-port="0" />
		<edge from-layer="6936" from-port="2" to-layer="6952" to-port="0" />
		<edge from-layer="6937" from-port="0" to-layer="6941" to-port="1" />
		<edge from-layer="6938" from-port="0" to-layer="6941" to-port="2" />
		<edge from-layer="6939" from-port="0" to-layer="6941" to-port="3" />
		<edge from-layer="6940" from-port="0" to-layer="6941" to-port="4" />
		<edge from-layer="6941" from-port="5" to-layer="6944" to-port="0" />
		<edge from-layer="6942" from-port="0" to-layer="6943" to-port="0" />
		<edge from-layer="6943" from-port="1" to-layer="6944" to-port="1" />
		<edge from-layer="6944" from-port="2" to-layer="6950" to-port="0" />
		<edge from-layer="6945" from-port="0" to-layer="6949" to-port="1" />
		<edge from-layer="6946" from-port="0" to-layer="6949" to-port="2" />
		<edge from-layer="6947" from-port="0" to-layer="6949" to-port="3" />
		<edge from-layer="6948" from-port="0" to-layer="6949" to-port="4" />
		<edge from-layer="6949" from-port="5" to-layer="6950" to-port="1" />
		<edge from-layer="6950" from-port="2" to-layer="6951" to-port="0" />
		<edge from-layer="6951" from-port="2" to-layer="6952" to-port="1" />
		<edge from-layer="6952" from-port="2" to-layer="6953" to-port="1" />
		<edge from-layer="6953" from-port="2" to-layer="7049" to-port="0" />
		<edge from-layer="6953" from-port="2" to-layer="6954" to-port="0" />
		<edge from-layer="7013" from-port="0" to-layer="7131" to-port="0" />
		<edge from-layer="7014" from-port="0" to-layer="7015" to-port="0" />
		<edge from-layer="7015" from-port="1" to-layer="7018" to-port="0" />
		<edge from-layer="7016" from-port="0" to-layer="7017" to-port="0" />
		<edge from-layer="7017" from-port="1" to-layer="7018" to-port="1" />
		<edge from-layer="7018" from-port="2" to-layer="7020" to-port="0" />
		<edge from-layer="7019" from-port="0" to-layer="7020" to-port="1" />
		<edge from-layer="7020" from-port="2" to-layer="7022" to-port="0" />
		<edge from-layer="7021" from-port="0" to-layer="7022" to-port="1" />
		<edge from-layer="7022" from-port="2" to-layer="7023" to-port="0" />
		<edge from-layer="7023" from-port="1" to-layer="7024" to-port="1" />
		<edge from-layer="7024" from-port="2" to-layer="7027" to-port="0" />
		<edge from-layer="7025" from-port="0" to-layer="7026" to-port="0" />
		<edge from-layer="7026" from-port="1" to-layer="7027" to-port="1" />
		<edge from-layer="7027" from-port="2" to-layer="7029" to-port="0" />
		<edge from-layer="7028" from-port="0" to-layer="7029" to-port="1" />
		<edge from-layer="7029" from-port="2" to-layer="7031" to-port="0" />
		<edge from-layer="7030" from-port="0" to-layer="7031" to-port="1" />
		<edge from-layer="7031" from-port="2" to-layer="7037" to-port="0" />
		<edge from-layer="7031" from-port="2" to-layer="7032" to-port="0" />
		<edge from-layer="7031" from-port="2" to-layer="7045" to-port="0" />
		<edge from-layer="7032" from-port="2" to-layer="7048" to-port="0" />
		<edge from-layer="7033" from-port="0" to-layer="7037" to-port="1" />
		<edge from-layer="7034" from-port="0" to-layer="7037" to-port="2" />
		<edge from-layer="7035" from-port="0" to-layer="7037" to-port="3" />
		<edge from-layer="7036" from-port="0" to-layer="7037" to-port="4" />
		<edge from-layer="7037" from-port="5" to-layer="7040" to-port="0" />
		<edge from-layer="7038" from-port="0" to-layer="7039" to-port="0" />
		<edge from-layer="7039" from-port="1" to-layer="7040" to-port="1" />
		<edge from-layer="7040" from-port="2" to-layer="7046" to-port="0" />
		<edge from-layer="7041" from-port="0" to-layer="7045" to-port="1" />
		<edge from-layer="7042" from-port="0" to-layer="7045" to-port="2" />
		<edge from-layer="7043" from-port="0" to-layer="7045" to-port="3" />
		<edge from-layer="7044" from-port="0" to-layer="7045" to-port="4" />
		<edge from-layer="7045" from-port="5" to-layer="7046" to-port="1" />
		<edge from-layer="7046" from-port="2" to-layer="7047" to-port="0" />
		<edge from-layer="7047" from-port="2" to-layer="7048" to-port="1" />
		<edge from-layer="7048" from-port="2" to-layer="7057" to-port="0" />
		<edge from-layer="7049" from-port="2" to-layer="7050" to-port="0" />
		<edge from-layer="7050" from-port="2" to-layer="7052" to-port="0" />
		<edge from-layer="7051" from-port="0" to-layer="7052" to-port="1" />
		<edge from-layer="7052" from-port="2" to-layer="7057" to-port="1" />
		<edge from-layer="7053" from-port="2" to-layer="7054" to-port="0" />
		<edge from-layer="7054" from-port="2" to-layer="7056" to-port="0" />
		<edge from-layer="7055" from-port="0" to-layer="7056" to-port="1" />
		<edge from-layer="7056" from-port="2" to-layer="7057" to-port="2" />
		<edge from-layer="7057" from-port="5" to-layer="7059" to-port="0" />
		<edge from-layer="7058" from-port="0" to-layer="7059" to-port="1" />
		<edge from-layer="7059" from-port="2" to-layer="7060" to-port="0" />
		<edge from-layer="7060" from-port="2" to-layer="7071" to-port="0" />
		<edge from-layer="7061" from-port="0" to-layer="7062" to-port="0" />
		<edge from-layer="7062" from-port="1" to-layer="7065" to-port="0" />
		<edge from-layer="7063" from-port="0" to-layer="7064" to-port="0" />
		<edge from-layer="7064" from-port="1" to-layer="7065" to-port="1" />
		<edge from-layer="7065" from-port="2" to-layer="7067" to-port="0" />
		<edge from-layer="7066" from-port="0" to-layer="7067" to-port="1" />
		<edge from-layer="7067" from-port="2" to-layer="7069" to-port="0" />
		<edge from-layer="7068" from-port="0" to-layer="7069" to-port="1" />
		<edge from-layer="7069" from-port="2" to-layer="7070" to-port="0" />
		<edge from-layer="7070" from-port="1" to-layer="7071" to-port="1" />
		<edge from-layer="7071" from-port="2" to-layer="7072" to-port="1" />
		<edge from-layer="7072" from-port="2" to-layer="7120" to-port="0" />
		<edge from-layer="7072" from-port="2" to-layer="7083" to-port="0" />
		<edge from-layer="7072" from-port="2" to-layer="7076" to-port="0" />
		<edge from-layer="7073" from-port="0" to-layer="7084" to-port="0" />
		<edge from-layer="7074" from-port="0" to-layer="7082" to-port="0" />
		<edge from-layer="7075" from-port="0" to-layer="7076" to-port="1" />
		<edge from-layer="7076" from-port="2" to-layer="7078" to-port="0" />
		<edge from-layer="7077" from-port="0" to-layer="7078" to-port="1" />
		<edge from-layer="7078" from-port="2" to-layer="7080" to-port="0" />
		<edge from-layer="7079" from-port="0" to-layer="7080" to-port="1" />
		<edge from-layer="7080" from-port="2" to-layer="7081" to-port="0" />
		<edge from-layer="7081" from-port="1" to-layer="7082" to-port="1" />
		<edge from-layer="7082" from-port="2" to-layer="7083" to-port="1" />
		<edge from-layer="7083" from-port="2" to-layer="7084" to-port="1" />
		<edge from-layer="7084" from-port="2" to-layer="7095" to-port="0" />
		<edge from-layer="7084" from-port="2" to-layer="7107" to-port="0" />
		<edge from-layer="7085" from-port="0" to-layer="7086" to-port="0" />
		<edge from-layer="7086" from-port="1" to-layer="7089" to-port="0" />
		<edge from-layer="7087" from-port="0" to-layer="7088" to-port="0" />
		<edge from-layer="7088" from-port="1" to-layer="7089" to-port="1" />
		<edge from-layer="7089" from-port="2" to-layer="7091" to-port="0" />
		<edge from-layer="7090" from-port="0" to-layer="7091" to-port="1" />
		<edge from-layer="7091" from-port="2" to-layer="7093" to-port="0" />
		<edge from-layer="7092" from-port="0" to-layer="7093" to-port="1" />
		<edge from-layer="7093" from-port="2" to-layer="7094" to-port="0" />
		<edge from-layer="7094" from-port="1" to-layer="7095" to-port="1" />
		<edge from-layer="7095" from-port="2" to-layer="7096" to-port="0" />
		<edge from-layer="7096" from-port="1" to-layer="7108" to-port="0" />
		<edge from-layer="7097" from-port="0" to-layer="7098" to-port="0" />
		<edge from-layer="7098" from-port="1" to-layer="7101" to-port="0" />
		<edge from-layer="7099" from-port="0" to-layer="7100" to-port="0" />
		<edge from-layer="7100" from-port="1" to-layer="7101" to-port="1" />
		<edge from-layer="7101" from-port="2" to-layer="7103" to-port="0" />
		<edge from-layer="7102" from-port="0" to-layer="7103" to-port="1" />
		<edge from-layer="7103" from-port="2" to-layer="7105" to-port="0" />
		<edge from-layer="7104" from-port="0" to-layer="7105" to-port="1" />
		<edge from-layer="7105" from-port="2" to-layer="7106" to-port="0" />
		<edge from-layer="7106" from-port="1" to-layer="7107" to-port="1" />
		<edge from-layer="7107" from-port="2" to-layer="7108" to-port="1" />
		<edge from-layer="7108" from-port="2" to-layer="7119" to-port="0" />
		<edge from-layer="7109" from-port="0" to-layer="7110" to-port="0" />
		<edge from-layer="7110" from-port="1" to-layer="7113" to-port="0" />
		<edge from-layer="7111" from-port="0" to-layer="7112" to-port="0" />
		<edge from-layer="7112" from-port="1" to-layer="7113" to-port="1" />
		<edge from-layer="7113" from-port="2" to-layer="7115" to-port="0" />
		<edge from-layer="7114" from-port="0" to-layer="7115" to-port="1" />
		<edge from-layer="7115" from-port="2" to-layer="7117" to-port="0" />
		<edge from-layer="7116" from-port="0" to-layer="7117" to-port="1" />
		<edge from-layer="7117" from-port="2" to-layer="7118" to-port="0" />
		<edge from-layer="7118" from-port="1" to-layer="7119" to-port="1" />
		<edge from-layer="7119" from-port="2" to-layer="7120" to-port="1" />
		<edge from-layer="7120" from-port="2" to-layer="7123" to-port="0" />
		<edge from-layer="7120" from-port="2" to-layer="7130" to-port="0" />
		<edge from-layer="7121" from-port="0" to-layer="7129" to-port="0" />
		<edge from-layer="7122" from-port="0" to-layer="7123" to-port="1" />
		<edge from-layer="7123" from-port="2" to-layer="7125" to-port="0" />
		<edge from-layer="7124" from-port="0" to-layer="7125" to-port="1" />
		<edge from-layer="7125" from-port="2" to-layer="7127" to-port="0" />
		<edge from-layer="7126" from-port="0" to-layer="7127" to-port="1" />
		<edge from-layer="7127" from-port="2" to-layer="7128" to-port="0" />
		<edge from-layer="7128" from-port="1" to-layer="7129" to-port="1" />
		<edge from-layer="7129" from-port="2" to-layer="7130" to-port="1" />
		<edge from-layer="7130" from-port="2" to-layer="7131" to-port="1" />
		<edge from-layer="7131" from-port="2" to-layer="7132" to-port="0" />
		<edge from-layer="7132" from-port="2" to-layer="7133" to-port="0" />
	</edges>
	<rt_info>
		<Runtime_version value="2025.2.0-19140-c01cd93e24d-releases/2025/2" />
		<conversion_parameters>
			<framework value="pytorch" />
			<is_python_object value="True" />
		</conversion_parameters>
		<nncf>
			<friendly_names_were_updated value="True" />
			<weight_compression>
				<advanced_parameters value="{'statistics_path': None, 'awq_params': {'subset_size': 32, 'percent_to_apply': 0.002, 'alpha_min': 0.0, 'alpha_max': 1.0, 'steps': 100}, 'scale_estimation_params': {'subset_size': 64, 'initial_steps': 5, 'scale_steps': 5, 'weight_penalty': -1.0}, 'gptq_params': {'damp_percent': 0.1, 'block_size': 128, 'subset_size': 128}, 'lora_correction_params': {'adapter_rank': 8, 'num_iterations': 3, 'apply_regularization': True, 'subset_size': 128, 'use_int8_adapters': True}}" />
				<all_layers value="False" />
				<awq value="False" />
				<backup_mode value="int8_asym" />
				<gptq value="False" />
				<group_size value="64" />
				<ignored_scope value="[]" />
				<lora_correction value="False" />
				<mode value="int4_asym" />
				<ratio value="1.0" />
				<scale_estimation value="True" />
				<sensitivity_metric value="max_activation_variance" />
			</weight_compression>
		</nncf>
		<optimum>
			<nncf_version value="2.15.0" />
			<optimum_intel_version value="1.26.0.dev0+3c8e4ba" />
			<optimum_version value="1.27.0" />
			<pytorch_version value="2.8.0+cpu" />
			<transformers_version value="4.51.3" />
		</optimum>
		<runtime_options>
			<ACTIVATIONS_SCALE_FACTOR value="8.0" />
		</runtime_options>
	</rt_info>
</net>
