<?xml version="1.0"?>
<net name="Model0" version="11">
	<layers>
		<layer id="3" name="input_ids" type="Parameter" version="opset1">
			<data shape="?,?" element_type="i64" />
			<output>
				<port id="0" precision="I64" names="input_ids">
					<dim>-1</dim>
					<dim>-1</dim>
				</port>
			</output>
		</layer>
		<layer id="2" name="attention_mask" type="Parameter" version="opset1">
			<data shape="?,?" element_type="i64" />
			<output>
				<port id="0" precision="I64" names="attention_mask">
					<dim>-1</dim>
					<dim>-1</dim>
				</port>
			</output>
		</layer>
		<layer id="1" name="position_ids" type="Parameter" version="opset1">
			<data shape="?,?" element_type="i64" />
			<output>
				<port id="0" precision="I64" names="position_ids">
					<dim>-1</dim>
					<dim>-1</dim>
				</port>
			</output>
		</layer>
		<layer id="0" name="beam_idx" type="Parameter" version="opset1">
			<data shape="?" element_type="i32" />
			<output>
				<port id="0" precision="I32" names="beam_idx">
					<dim>-1</dim>
				</port>
			</output>
		</layer>
		<layer id="4" name="Constant_85764" type="Const" version="opset1">
			<data element_type="f32" shape="" offset="0" size="4" />
			<output>
				<port id="0" precision="FP32" />
			</output>
		</layer>
		<layer id="5" name="ShapeOf_85750" type="ShapeOf" version="opset3">
			<data output_type="i64" />
			<input>
				<port id="0" precision="I64">
					<dim>-1</dim>
					<dim>-1</dim>
				</port>
			</input>
			<output>
				<port id="1" precision="I64">
					<dim>2</dim>
				</port>
			</output>
		</layer>
		<layer id="6" name="Constant_85752" type="Const" version="opset1">
			<data element_type="i64" shape="1" offset="4" size="8" />
			<output>
				<port id="0" precision="I64">
					<dim>1</dim>
				</port>
			</output>
		</layer>
		<layer id="7" name="Constant_85754" type="Const" version="opset1">
			<data element_type="i64" shape="" offset="4" size="8" />
			<output>
				<port id="0" precision="I64" />
			</output>
		</layer>
		<layer id="8" name="Gather_85755" type="Gather" version="opset8">
			<data batch_dims="0" />
			<input>
				<port id="0" precision="I64">
					<dim>2</dim>
				</port>
				<port id="1" precision="I64">
					<dim>1</dim>
				</port>
				<port id="2" precision="I64" />
			</input>
			<output>
				<port id="3" precision="I64">
					<dim>1</dim>
				</port>
			</output>
		</layer>
		<layer id="9" name="Constant_85757" type="Const" version="opset1">
			<data element_type="i64" shape="1" offset="12" size="8" />
			<output>
				<port id="0" precision="I64">
					<dim>1</dim>
				</port>
			</output>
		</layer>
		<layer id="10" name="Constant_85759" type="Const" version="opset1">
			<data element_type="i64" shape="1" offset="4" size="8" />
			<output>
				<port id="0" precision="I64">
					<dim>1</dim>
				</port>
			</output>
		</layer>
		<layer id="11" name="Constant_85761" type="Const" version="opset1">
			<data element_type="i64" shape="1" offset="20" size="8" />
			<output>
				<port id="0" precision="I64">
					<dim>1</dim>
				</port>
			</output>
		</layer>
		<layer id="12" name="Concat_85762" type="Concat" version="opset1">
			<data axis="0" />
			<input>
				<port id="0" precision="I64">
					<dim>1</dim>
				</port>
				<port id="1" precision="I64">
					<dim>1</dim>
				</port>
				<port id="2" precision="I64">
					<dim>1</dim>
				</port>
				<port id="3" precision="I64">
					<dim>1</dim>
				</port>
			</input>
			<output>
				<port id="4" precision="I64">
					<dim>4</dim>
				</port>
			</output>
		</layer>
		<layer id="13" name="Broadcast_85765" type="Broadcast" version="opset3">
			<data mode="numpy" />
			<input>
				<port id="0" precision="FP32" />
				<port id="1" precision="I64">
					<dim>4</dim>
				</port>
			</input>
			<output>
				<port id="2" precision="FP32">
					<dim>-1</dim>
					<dim>2</dim>
					<dim>0</dim>
					<dim>128</dim>
				</port>
			</output>
		</layer>
		<layer id="14" name="ReadValue_85410" type="ReadValue" version="opset6">
			<data variable_id="past_key_values.9.valuepresent.9.value" variable_type="f32" variable_shape="?,2,?,128" />
			<input>
				<port id="0" precision="FP32">
					<dim>-1</dim>
					<dim>2</dim>
					<dim>0</dim>
					<dim>128</dim>
				</port>
			</input>
			<output>
				<port id="1" precision="FP32" names="past_key_values.9.value">
					<dim>-1</dim>
					<dim>2</dim>
					<dim>-1</dim>
					<dim>128</dim>
				</port>
			</output>
		</layer>
		<layer id="15" name="Constant_84852" type="Const" version="opset1">
			<data element_type="i64" shape="" offset="4" size="8" />
			<output>
				<port id="0" precision="I64" />
			</output>
		</layer>
		<layer id="16" name="Gather_84853" type="Gather" version="opset8">
			<data batch_dims="0" />
			<input>
				<port id="0" precision="FP32">
					<dim>-1</dim>
					<dim>2</dim>
					<dim>-1</dim>
					<dim>128</dim>
				</port>
				<port id="1" precision="I32">
					<dim>-1</dim>
				</port>
				<port id="2" precision="I64" />
			</input>
			<output>
				<port id="3" precision="FP32">
					<dim>-1</dim>
					<dim>2</dim>
					<dim>-1</dim>
					<dim>128</dim>
				</port>
			</output>
		</layer>
		<layer id="17" name="Constant_75315" type="Const" version="opset1">
			<data element_type="f32" shape="1, 1, 1536" offset="28" size="6144" />
			<output>
				<port id="0" precision="FP32">
					<dim>1</dim>
					<dim>1</dim>
					<dim>1536</dim>
				</port>
			</output>
		</layer>
		<layer id="18" name="self.model.embed_tokens.weight" type="Const" version="opset1">
			<data element_type="u8" shape="151936, 1536" offset="6172" size="233373696" />
			<output>
				<port id="0" precision="U8">
					<dim>151936</dim>
					<dim>1536</dim>
				</port>
			</output>
		</layer>
		<layer id="19" name="Convert_105967" type="Convert" version="opset1">
			<data destination_type="f16" />
			<input>
				<port id="0" precision="U8">
					<dim>151936</dim>
					<dim>1536</dim>
				</port>
			</input>
			<output>
				<port id="1" precision="FP16">
					<dim>151936</dim>
					<dim>1536</dim>
				</port>
			</output>
		</layer>
		<layer id="20" name="self.model.embed_tokens.weight/zero_point" type="Const" version="opset1">
			<data element_type="u8" shape="151936, 1" offset="233379868" size="151936" />
			<output>
				<port id="0" precision="U8">
					<dim>151936</dim>
					<dim>1</dim>
				</port>
			</output>
		</layer>
		<layer id="21" name="Convert_105970" type="Convert" version="opset1">
			<data destination_type="f16" />
			<input>
				<port id="0" precision="U8">
					<dim>151936</dim>
					<dim>1</dim>
				</port>
			</input>
			<output>
				<port id="1" precision="FP16">
					<dim>151936</dim>
					<dim>1</dim>
				</port>
			</output>
		</layer>
		<layer id="22" name="self.model.embed_tokens.weight/zero_point/subtract" type="Subtract" version="opset1">
			<data auto_broadcast="numpy" />
			<input>
				<port id="0" precision="FP16">
					<dim>151936</dim>
					<dim>1536</dim>
				</port>
				<port id="1" precision="FP16">
					<dim>151936</dim>
					<dim>1</dim>
				</port>
			</input>
			<output>
				<port id="2" precision="FP16">
					<dim>151936</dim>
					<dim>1536</dim>
				</port>
			</output>
		</layer>
		<layer id="23" name="self.model.embed_tokens.weight/scale" type="Const" version="opset1">
			<data element_type="f16" shape="151936, 1" offset="233531804" size="303872" />
			<output>
				<port id="0" precision="FP16">
					<dim>151936</dim>
					<dim>1</dim>
				</port>
			</output>
		</layer>
		<layer id="24" name="self.model.embed_tokens.weight/fq_weights_0" type="Multiply" version="opset1">
			<data auto_broadcast="numpy" />
			<input>
				<port id="0" precision="FP16">
					<dim>151936</dim>
					<dim>1536</dim>
				</port>
				<port id="1" precision="FP16">
					<dim>151936</dim>
					<dim>1</dim>
				</port>
			</input>
			<output>
				<port id="2" precision="FP16">
					<dim>151936</dim>
					<dim>1536</dim>
				</port>
			</output>
		</layer>
		<layer id="25" name="__module.model.embed_tokens/ov_ext::embedding/Convert" type="Convert" version="opset1">
			<data destination_type="f32" />
			<rt_info>
				<attribute name="decompression" version="0" />
			</rt_info>
			<input>
				<port id="0" precision="FP16">
					<dim>151936</dim>
					<dim>1536</dim>
				</port>
			</input>
			<output>
				<port id="1" precision="FP32">
					<dim>151936</dim>
					<dim>1536</dim>
				</port>
			</output>
		</layer>
		<layer id="26" name="__module.model.embed_tokens/ov_ext::embedding/Convert_1" type="Convert" version="opset1">
			<data destination_type="i32" />
			<input>
				<port id="0" precision="I64">
					<dim>-1</dim>
					<dim>-1</dim>
				</port>
			</input>
			<output>
				<port id="1" precision="I32">
					<dim>-1</dim>
					<dim>-1</dim>
				</port>
			</output>
		</layer>
		<layer id="27" name="__module.model.embed_tokens/ov_ext::embedding/Constant" type="Const" version="opset1">
			<data element_type="i32" shape="" offset="0" size="4" />
			<output>
				<port id="0" precision="I32" />
			</output>
		</layer>
		<layer id="28" name="__module.model.embed_tokens/ov_ext::embedding/Gather" type="Gather" version="opset8">
			<data batch_dims="0" />
			<input>
				<port id="0" precision="FP32">
					<dim>151936</dim>
					<dim>1536</dim>
				</port>
				<port id="1" precision="I32">
					<dim>-1</dim>
					<dim>-1</dim>
				</port>
				<port id="2" precision="I32" />
			</input>
			<output>
				<port id="3" precision="FP32" names="286,372,383,hidden_states.1,inputs_embeds">
					<dim>-1</dim>
					<dim>-1</dim>
					<dim>1536</dim>
				</port>
			</output>
		</layer>
		<layer id="29" name="Constant_75240" type="Const" version="opset1">
			<data element_type="f32" shape="1, 1, 1536" offset="233835676" size="6144" />
			<output>
				<port id="0" precision="FP32">
					<dim>1</dim>
					<dim>1</dim>
					<dim>1536</dim>
				</port>
			</output>
		</layer>
		<layer id="30" name="Constant_75239" type="Const" version="opset1">
			<data element_type="f32" shape="1, 1, 1" offset="233841820" size="4" />
			<output>
				<port id="0" precision="FP32">
					<dim>1</dim>
					<dim>1</dim>
					<dim>1</dim>
				</port>
			</output>
		</layer>
		<layer id="31" name="Constant_75237" type="Const" version="opset1">
			<data element_type="f32" shape="1, 1, 1" offset="233841824" size="4" />
			<output>
				<port id="0" precision="FP32">
					<dim>1</dim>
					<dim>1</dim>
					<dim>1</dim>
				</port>
			</output>
		</layer>
		<layer id="32" name="__module.model.layers.0.input_layernorm/aten::pow/Power" type="Power" version="opset1">
			<data auto_broadcast="numpy" />
			<input>
				<port id="0" precision="FP32">
					<dim>-1</dim>
					<dim>-1</dim>
					<dim>1536</dim>
				</port>
				<port id="1" precision="FP32">
					<dim>1</dim>
					<dim>1</dim>
					<dim>1</dim>
				</port>
			</input>
			<output>
				<port id="2" precision="FP32" names="373">
					<dim>-1</dim>
					<dim>-1</dim>
					<dim>1536</dim>
				</port>
			</output>
		</layer>
		<layer id="33" name="Constant_566" type="Const" version="opset1">
			<data element_type="i64" shape="1" offset="233841828" size="8" />
			<output>
				<port id="0" precision="I64" names="374">
					<dim>1</dim>
				</port>
			</output>
		</layer>
		<layer id="34" name="__module.model.layers.0.input_layernorm/aten::mean/ReduceMean" type="ReduceMean" version="opset1">
			<data keep_dims="true" />
			<input>
				<port id="0" precision="FP32">
					<dim>-1</dim>
					<dim>-1</dim>
					<dim>1536</dim>
				</port>
				<port id="1" precision="I64">
					<dim>1</dim>
				</port>
			</input>
			<output>
				<port id="2" precision="FP32" names="375,variance.1">
					<dim>-1</dim>
					<dim>-1</dim>
					<dim>1</dim>
				</port>
			</output>
		</layer>
		<layer id="35" name="Constant_75238" type="Const" version="opset1">
			<data element_type="f32" shape="1, 1, 1" offset="233841836" size="4" />
			<output>
				<port id="0" precision="FP32">
					<dim>1</dim>
					<dim>1</dim>
					<dim>1</dim>
				</port>
			</output>
		</layer>
		<layer id="36" name="__module.model.layers.0.input_layernorm/aten::add/Add" type="Add" version="opset1">
			<data auto_broadcast="numpy" />
			<input>
				<port id="0" precision="FP32">
					<dim>-1</dim>
					<dim>-1</dim>
					<dim>1</dim>
				</port>
				<port id="1" precision="FP32">
					<dim>1</dim>
					<dim>1</dim>
					<dim>1</dim>
				</port>
			</input>
			<output>
				<port id="2" precision="FP32" names="376">
					<dim>-1</dim>
					<dim>-1</dim>
					<dim>1</dim>
				</port>
			</output>
		</layer>
		<layer id="37" name="__module.model.layers.0.input_layernorm/aten::rsqrt/Sqrt" type="Sqrt" version="opset1">
			<input>
				<port id="0" precision="FP32">
					<dim>-1</dim>
					<dim>-1</dim>
					<dim>1</dim>
				</port>
			</input>
			<output>
				<port id="1" precision="FP32">
					<dim>-1</dim>
					<dim>-1</dim>
					<dim>1</dim>
				</port>
			</output>
		</layer>
		<layer id="38" name="__module.model.layers.0.input_layernorm/aten::rsqrt/Divide" type="Divide" version="opset1">
			<data auto_broadcast="numpy" m_pythondiv="true" />
			<input>
				<port id="0" precision="FP32">
					<dim>1</dim>
					<dim>1</dim>
					<dim>1</dim>
				</port>
				<port id="1" precision="FP32">
					<dim>-1</dim>
					<dim>-1</dim>
					<dim>1</dim>
				</port>
			</input>
			<output>
				<port id="2" precision="FP32" names="377">
					<dim>-1</dim>
					<dim>-1</dim>
					<dim>1</dim>
				</port>
			</output>
		</layer>
		<layer id="39" name="__module.model.layers.0.input_layernorm/aten::mul/Multiply" type="Multiply" version="opset1">
			<data auto_broadcast="numpy" />
			<input>
				<port id="0" precision="FP32">
					<dim>-1</dim>
					<dim>-1</dim>
					<dim>1536</dim>
				</port>
				<port id="1" precision="FP32">
					<dim>-1</dim>
					<dim>-1</dim>
					<dim>1</dim>
				</port>
			</input>
			<output>
				<port id="2" precision="FP32" names="378,379,hidden_states.3,hidden_states.5">
					<dim>-1</dim>
					<dim>-1</dim>
					<dim>1536</dim>
				</port>
			</output>
		</layer>
		<layer id="40" name="__module.model.layers.0.input_layernorm/aten::mul/Multiply_1" type="Multiply" version="opset1">
			<data auto_broadcast="numpy" />
			<input>
				<port id="0" precision="FP32">
					<dim>1</dim>
					<dim>1</dim>
					<dim>1536</dim>
				</port>
				<port id="1" precision="FP32">
					<dim>-1</dim>
					<dim>-1</dim>
					<dim>1536</dim>
				</port>
			</input>
			<output>
				<port id="2" precision="FP32" names="380,382,hidden_states.7">
					<dim>-1</dim>
					<dim>-1</dim>
					<dim>1536</dim>
				</port>
			</output>
		</layer>
		<layer id="41" name="self.model.layers.0.self_attn.q_proj.weight" type="Const" version="opset1">
			<data element_type="u4" shape="1536, 12, 128" offset="233841840" size="1179648" />
			<output>
				<port id="0" precision="U4">
					<dim>1536</dim>
					<dim>12</dim>
					<dim>128</dim>
				</port>
			</output>
		</layer>
		<layer id="42" name="Convert_541510" type="Convert" version="opset1">
			<data destination_type="f16" />
			<input>
				<port id="0" precision="U4">
					<dim>1536</dim>
					<dim>12</dim>
					<dim>128</dim>
				</port>
			</input>
			<output>
				<port id="1" precision="FP16">
					<dim>1536</dim>
					<dim>12</dim>
					<dim>128</dim>
				</port>
			</output>
		</layer>
		<layer id="43" name="self.model.layers.0.self_attn.q_proj.weight/zero_point" type="Const" version="opset1">
			<data element_type="u4" shape="1536, 12, 1" offset="235021488" size="9216" />
			<output>
				<port id="0" precision="U4">
					<dim>1536</dim>
					<dim>12</dim>
					<dim>1</dim>
				</port>
			</output>
		</layer>
		<layer id="44" name="Convert_541513" type="Convert" version="opset1">
			<data destination_type="f16" />
			<input>
				<port id="0" precision="U4">
					<dim>1536</dim>
					<dim>12</dim>
					<dim>1</dim>
				</port>
			</input>
			<output>
				<port id="1" precision="FP16">
					<dim>1536</dim>
					<dim>12</dim>
					<dim>1</dim>
				</port>
			</output>
		</layer>
		<layer id="45" name="self.model.layers.0.self_attn.q_proj.weight/zero_point/subtract" type="Subtract" version="opset1">
			<data auto_broadcast="numpy" />
			<input>
				<port id="0" precision="FP16">
					<dim>1536</dim>
					<dim>12</dim>
					<dim>128</dim>
				</port>
				<port id="1" precision="FP16">
					<dim>1536</dim>
					<dim>12</dim>
					<dim>1</dim>
				</port>
			</input>
			<output>
				<port id="2" precision="FP16">
					<dim>1536</dim>
					<dim>12</dim>
					<dim>128</dim>
				</port>
			</output>
		</layer>
		<layer id="46" name="self.model.layers.0.self_attn.q_proj.weight/scale" type="Const" version="opset1">
			<data element_type="f16" shape="1536, 12, 1" offset="235030704" size="36864" />
			<output>
				<port id="0" precision="FP16">
					<dim>1536</dim>
					<dim>12</dim>
					<dim>1</dim>
				</port>
			</output>
		</layer>
		<layer id="47" name="self.model.layers.0.self_attn.q_proj.weight/fq_weights_1" type="Multiply" version="opset1">
			<data auto_broadcast="numpy" />
			<input>
				<port id="0" precision="FP16">
					<dim>1536</dim>
					<dim>12</dim>
					<dim>128</dim>
				</port>
				<port id="1" precision="FP16">
					<dim>1536</dim>
					<dim>12</dim>
					<dim>1</dim>
				</port>
			</input>
			<output>
				<port id="2" precision="FP16">
					<dim>1536</dim>
					<dim>12</dim>
					<dim>128</dim>
				</port>
			</output>
		</layer>
		<layer id="48" name="Constant_541518" type="Const" version="opset1">
			<data element_type="i64" shape="2" offset="235067568" size="16" />
			<output>
				<port id="0" precision="I64">
					<dim>2</dim>
				</port>
			</output>
		</layer>
		<layer id="49" name="Reshape_541519" type="Reshape" version="opset1">
			<data special_zero="false" />
			<input>
				<port id="0" precision="FP16">
					<dim>1536</dim>
					<dim>12</dim>
					<dim>128</dim>
				</port>
				<port id="1" precision="I64">
					<dim>2</dim>
				</port>
			</input>
			<output>
				<port id="2" precision="FP16">
					<dim>1536</dim>
					<dim>1536</dim>
				</port>
			</output>
		</layer>
		<layer id="50" name="__module.model.layers.0.self_attn.q_proj/ov_ext::linear/Convert" type="Convert" version="opset1">
			<data destination_type="f32" />
			<rt_info>
				<attribute name="decompression" version="0" />
			</rt_info>
			<input>
				<port id="0" precision="FP16">
					<dim>1536</dim>
					<dim>1536</dim>
				</port>
			</input>
			<output>
				<port id="1" precision="FP32">
					<dim>1536</dim>
					<dim>1536</dim>
				</port>
			</output>
		</layer>
		<layer id="51" name="__module.model.layers.0.self_attn.q_proj/ov_ext::linear/MatMul" type="MatMul" version="opset1">
			<data transpose_a="false" transpose_b="true" />
			<input>
				<port id="0" precision="FP32">
					<dim>-1</dim>
					<dim>-1</dim>
					<dim>1536</dim>
				</port>
				<port id="1" precision="FP32">
					<dim>1536</dim>
					<dim>1536</dim>
				</port>
			</input>
			<output>
				<port id="2" precision="FP32">
					<dim>-1</dim>
					<dim>-1</dim>
					<dim>1536</dim>
				</port>
			</output>
		</layer>
		<layer id="52" name="self.model.layers.0.self_attn.q_proj.bias" type="Const" version="opset1">
			<data element_type="bf16" shape="1536" offset="235067584" size="3072" />
			<output>
				<port id="0" precision="BF16" names="self.model.layers.0.self_attn.q_proj.bias">
					<dim>1536</dim>
				</port>
			</output>
		</layer>
		<layer id="53" name="__module.model.layers.0.self_attn.q_proj/ov_ext::linear/Convert_1" type="Convert" version="opset1">
			<data destination_type="f32" />
			<rt_info>
				<attribute name="decompression" version="0" />
			</rt_info>
			<input>
				<port id="0" precision="BF16">
					<dim>1536</dim>
				</port>
			</input>
			<output>
				<port id="1" precision="FP32">
					<dim>1536</dim>
				</port>
			</output>
		</layer>
		<layer id="54" name="__module.model.layers.0.self_attn.q_proj/ov_ext::linear/Add" type="Add" version="opset1">
			<data auto_broadcast="numpy" />
			<input>
				<port id="0" precision="FP32">
					<dim>-1</dim>
					<dim>-1</dim>
					<dim>1536</dim>
				</port>
				<port id="1" precision="FP32">
					<dim>1536</dim>
				</port>
			</input>
			<output>
				<port id="2" precision="FP32" names="392">
					<dim>-1</dim>
					<dim>-1</dim>
					<dim>1536</dim>
				</port>
			</output>
		</layer>
		<layer id="55" name="Constant_83520" type="Const" version="opset1">
			<data element_type="i64" shape="4" offset="235070656" size="32" />
			<output>
				<port id="0" precision="I64">
					<dim>4</dim>
				</port>
			</output>
		</layer>
		<layer id="56" name="__module.model.layers.0.self_attn/aten::view/Reshape" type="Reshape" version="opset1">
			<data special_zero="true" />
			<input>
				<port id="0" precision="FP32">
					<dim>-1</dim>
					<dim>-1</dim>
					<dim>1536</dim>
				</port>
				<port id="1" precision="I64">
					<dim>4</dim>
				</port>
			</input>
			<output>
				<port id="2" precision="FP32" names="394">
					<dim>-1</dim>
					<dim>-1</dim>
					<dim>12</dim>
					<dim>128</dim>
				</port>
			</output>
		</layer>
		<layer id="57" name="__module.model.layers.0.self_attn/aten::transpose/Constant" type="Const" version="opset1">
			<data element_type="i32" shape="4" offset="235070688" size="16" />
			<output>
				<port id="0" precision="I32">
					<dim>4</dim>
				</port>
			</output>
		</layer>
		<layer id="58" name="__module.model.layers.0.self_attn/aten::transpose/Transpose" type="Transpose" version="opset1">
			<input>
				<port id="0" precision="FP32">
					<dim>-1</dim>
					<dim>-1</dim>
					<dim>12</dim>
					<dim>128</dim>
				</port>
				<port id="1" precision="I32">
					<dim>4</dim>
				</port>
			</input>
			<output>
				<port id="2" precision="FP32" names="395,q.1">
					<dim>-1</dim>
					<dim>12</dim>
					<dim>-1</dim>
					<dim>128</dim>
				</port>
			</output>
		</layer>
		<layer id="59" name="__module.model.rotary_emb/aten::to/Convert" type="Const" version="opset1">
			<data element_type="f32" shape="1, 64, 1" offset="235070704" size="256" />
			<output>
				<port id="0" precision="FP32" names="343">
					<dim>1</dim>
					<dim>64</dim>
					<dim>1</dim>
				</port>
			</output>
		</layer>
		<layer id="60" name="ShapeOf_76960" type="ShapeOf" version="opset3">
			<data output_type="i64" />
			<input>
				<port id="0" precision="FP32">
					<dim>-1</dim>
					<dim>-1</dim>
					<dim>1536</dim>
				</port>
			</input>
			<output>
				<port id="1" precision="I64">
					<dim>3</dim>
				</port>
			</output>
		</layer>
		<layer id="61" name="Constant_76961" type="Const" version="opset1">
			<data element_type="i64" shape="1" offset="4" size="8" />
			<output>
				<port id="0" precision="I64">
					<dim>1</dim>
				</port>
			</output>
		</layer>
		<layer id="62" name="Constant_76962" type="Const" version="opset1">
			<data element_type="i64" shape="" offset="4" size="8" />
			<output>
				<port id="0" precision="I64" />
			</output>
		</layer>
		<layer id="63" name="Gather_76963" type="Gather" version="opset8">
			<data batch_dims="0" />
			<input>
				<port id="0" precision="I64">
					<dim>3</dim>
				</port>
				<port id="1" precision="I64">
					<dim>1</dim>
				</port>
				<port id="2" precision="I64" />
			</input>
			<output>
				<port id="3" precision="I64" names="1093,1109,1254,1270,1415,1431,1576,1592,1737,1753,1898,1914,2059,2075,2220,2236,2381,2397,2542,2558,2703,2719,2864,2880,296,3025,3041,3186,3202,3347,3363,344,3508,3524,3669,3685,3830,3846,3991,4007,4152,4168,4313,4329,4474,449,4490,4635,465,4651,4796,4812,610,626,771,787,932,948">
					<dim>1</dim>
				</port>
			</output>
		</layer>
		<layer id="64" name="Constant_58581" type="Const" version="opset1">
			<data element_type="i64" shape="1" offset="235070960" size="8" />
			<output>
				<port id="0" precision="I64">
					<dim>1</dim>
				</port>
			</output>
		</layer>
		<layer id="65" name="Constant_58583" type="Const" version="opset1">
			<data element_type="i64" shape="1" offset="235070960" size="8" />
			<output>
				<port id="0" precision="I64">
					<dim>1</dim>
				</port>
			</output>
		</layer>
		<layer id="66" name="__module.model.rotary_emb/prim::ListConstruct" type="Concat" version="opset1">
			<data axis="0" />
			<input>
				<port id="0" precision="I64">
					<dim>1</dim>
				</port>
				<port id="1" precision="I64">
					<dim>1</dim>
				</port>
				<port id="2" precision="I64">
					<dim>1</dim>
				</port>
			</input>
			<output>
				<port id="3" precision="I64">
					<dim>3</dim>
				</port>
			</output>
		</layer>
		<layer id="67" name="__module.model.rotary_emb/aten::expand/Broadcast" type="Broadcast" version="opset3">
			<data mode="bidirectional" />
			<input>
				<port id="0" precision="FP32">
					<dim>1</dim>
					<dim>64</dim>
					<dim>1</dim>
				</port>
				<port id="1" precision="I64">
					<dim>3</dim>
				</port>
			</input>
			<output>
				<port id="2" precision="FP32" names="346,347,352,inv_freq_expanded,inv_freq_expanded.1">
					<dim>-1</dim>
					<dim>64</dim>
					<dim>1</dim>
				</port>
			</output>
		</layer>
		<layer id="68" name="224" type="Const" version="opset1">
			<data element_type="i64" shape="" offset="235070960" size="8" />
			<output>
				<port id="0" precision="I64" names="224" />
			</output>
		</layer>
		<layer id="69" name="__module.model.rotary_emb/aten::unsqueeze/Unsqueeze_2" type="Unsqueeze" version="opset1">
			<input>
				<port id="0" precision="I64">
					<dim>-1</dim>
					<dim>-1</dim>
				</port>
				<port id="1" precision="I64" />
			</input>
			<output>
				<port id="2" precision="I64" names="349,350">
					<dim>-1</dim>
					<dim>1</dim>
					<dim>-1</dim>
				</port>
			</output>
		</layer>
		<layer id="70" name="__module.model.rotary_emb/aten::to/Convert_3" type="Convert" version="opset1">
			<data destination_type="f32" />
			<input>
				<port id="0" precision="I64">
					<dim>-1</dim>
					<dim>1</dim>
					<dim>-1</dim>
				</port>
			</input>
			<output>
				<port id="1" precision="FP32" names="351,353,position_ids_expanded,position_ids_expanded.1">
					<dim>-1</dim>
					<dim>1</dim>
					<dim>-1</dim>
				</port>
			</output>
		</layer>
		<layer id="71" name="__module.model.rotary_emb/aten::matmul/MatMul" type="MatMul" version="opset1">
			<data transpose_a="false" transpose_b="false" />
			<input>
				<port id="0" precision="FP32">
					<dim>-1</dim>
					<dim>64</dim>
					<dim>1</dim>
				</port>
				<port id="1" precision="FP32">
					<dim>-1</dim>
					<dim>1</dim>
					<dim>-1</dim>
				</port>
			</input>
			<output>
				<port id="2" precision="FP32" names="354">
					<dim>-1</dim>
					<dim>64</dim>
					<dim>-1</dim>
				</port>
			</output>
		</layer>
		<layer id="72" name="__module.model.rotary_emb/aten::transpose/Constant" type="Const" version="opset1">
			<data element_type="i32" shape="3" offset="235070968" size="12" />
			<output>
				<port id="0" precision="I32">
					<dim>3</dim>
				</port>
			</output>
		</layer>
		<layer id="73" name="__module.model.rotary_emb/aten::transpose/Transpose" type="Transpose" version="opset1">
			<input>
				<port id="0" precision="FP32">
					<dim>-1</dim>
					<dim>64</dim>
					<dim>-1</dim>
				</port>
				<port id="1" precision="I32">
					<dim>3</dim>
				</port>
			</input>
			<output>
				<port id="2" precision="FP32" names="355">
					<dim>-1</dim>
					<dim>-1</dim>
					<dim>64</dim>
				</port>
			</output>
		</layer>
		<layer id="74" name="__module.model.rotary_emb/aten::cat/Concat" type="Concat" version="opset1">
			<data axis="-1" />
			<input>
				<port id="0" precision="FP32">
					<dim>-1</dim>
					<dim>-1</dim>
					<dim>64</dim>
				</port>
				<port id="1" precision="FP32">
					<dim>-1</dim>
					<dim>-1</dim>
					<dim>64</dim>
				</port>
			</input>
			<output>
				<port id="2" precision="FP32" names="357,emb">
					<dim>-1</dim>
					<dim>-1</dim>
					<dim>128</dim>
				</port>
			</output>
		</layer>
		<layer id="75" name="__module.model.rotary_emb/aten::cos/Cos" type="Cos" version="opset1">
			<input>
				<port id="0" precision="FP32">
					<dim>-1</dim>
					<dim>-1</dim>
					<dim>128</dim>
				</port>
			</input>
			<output>
				<port id="1" precision="FP32" names="358,359,362,365,cos.1,cos.3">
					<dim>-1</dim>
					<dim>-1</dim>
					<dim>128</dim>
				</port>
			</output>
		</layer>
		<layer id="76" name="__module.model.layers.0.self_attn/aten::unsqueeze/Unsqueeze" type="Unsqueeze" version="opset1">
			<input>
				<port id="0" precision="FP32">
					<dim>-1</dim>
					<dim>-1</dim>
					<dim>128</dim>
				</port>
				<port id="1" precision="I64" />
			</input>
			<output>
				<port id="2" precision="FP32" names="1055,1216,1377,1538,1699,1860,2021,2182,2343,2504,2665,2826,2987,3148,3309,3470,3631,3792,3953,408,4114,4275,4436,4597,4758,572,733,894,cos,cos.11,cos.13,cos.15,cos.17,cos.19,cos.21,cos.23,cos.25,cos.27,cos.29,cos.31,cos.33,cos.35,cos.37,cos.39,cos.41,cos.43,cos.45,cos.47,cos.49,cos.5,cos.51,cos.53,cos.55,cos.57,cos.7,cos.9">
					<dim>-1</dim>
					<dim>1</dim>
					<dim>-1</dim>
					<dim>128</dim>
				</port>
			</output>
		</layer>
		<layer id="77" name="__module.model.layers.0.self_attn/aten::mul/Multiply" type="Multiply" version="opset1">
			<data auto_broadcast="numpy" />
			<input>
				<port id="0" precision="FP32">
					<dim>-1</dim>
					<dim>12</dim>
					<dim>-1</dim>
					<dim>128</dim>
				</port>
				<port id="1" precision="FP32">
					<dim>-1</dim>
					<dim>1</dim>
					<dim>-1</dim>
					<dim>128</dim>
				</port>
			</input>
			<output>
				<port id="2" precision="FP32" names="410">
					<dim>-1</dim>
					<dim>12</dim>
					<dim>-1</dim>
					<dim>128</dim>
				</port>
			</output>
		</layer>
		<layer id="78" name="Constant_880" type="Const" version="opset1">
			<data element_type="i64" shape="1" offset="235070980" size="8" />
			<output>
				<port id="0" precision="I64">
					<dim>1</dim>
				</port>
			</output>
		</layer>
		<layer id="79" name="Constant_882" type="Const" version="opset1">
			<data element_type="i64" shape="1" offset="235070988" size="8" />
			<output>
				<port id="0" precision="I64">
					<dim>1</dim>
				</port>
			</output>
		</layer>
		<layer id="80" name="Constant_884" type="Const" version="opset1">
			<data element_type="i64" shape="1" offset="235070960" size="8" />
			<output>
				<port id="0" precision="I64">
					<dim>1</dim>
				</port>
			</output>
		</layer>
		<layer id="81" name="Constant_836" type="Const" version="opset1">
			<data element_type="i64" shape="1" offset="235070996" size="8" />
			<output>
				<port id="0" precision="I64">
					<dim>1</dim>
				</port>
			</output>
		</layer>
		<layer id="82" name="__module.model.layers.0.self_attn/aten::slice/Slice" type="Slice" version="opset8">
			<input>
				<port id="0" precision="FP32">
					<dim>-1</dim>
					<dim>12</dim>
					<dim>-1</dim>
					<dim>128</dim>
				</port>
				<port id="1" precision="I64">
					<dim>1</dim>
				</port>
				<port id="2" precision="I64">
					<dim>1</dim>
				</port>
				<port id="3" precision="I64">
					<dim>1</dim>
				</port>
				<port id="4" precision="I64">
					<dim>1</dim>
				</port>
			</input>
			<output>
				<port id="5" precision="FP32" names="420,x2.1">
					<dim>-1</dim>
					<dim>12</dim>
					<dim>-1</dim>
					<dim>64</dim>
				</port>
			</output>
		</layer>
		<layer id="83" name="__module.model.layers.0.self_attn/aten::neg/Constant" type="Const" version="opset1">
			<data element_type="i32" shape="" offset="235071004" size="4" />
			<output>
				<port id="0" precision="I32" />
			</output>
		</layer>
		<layer id="84" name="__module.model.layers.0.self_attn/aten::neg/ConvertLike" type="Convert" version="opset1">
			<data destination_type="f32" />
			<input>
				<port id="0" precision="I32" />
			</input>
			<output>
				<port id="1" precision="FP32" />
			</output>
		</layer>
		<layer id="85" name="__module.model.layers.0.self_attn/aten::neg/Multiply" type="Multiply" version="opset1">
			<data auto_broadcast="numpy" />
			<input>
				<port id="0" precision="FP32">
					<dim>-1</dim>
					<dim>12</dim>
					<dim>-1</dim>
					<dim>64</dim>
				</port>
				<port id="1" precision="FP32" />
			</input>
			<output>
				<port id="2" precision="FP32" names="421">
					<dim>-1</dim>
					<dim>12</dim>
					<dim>-1</dim>
					<dim>64</dim>
				</port>
			</output>
		</layer>
		<layer id="86" name="Constant_777" type="Const" version="opset1">
			<data element_type="i64" shape="1" offset="4" size="8" />
			<output>
				<port id="0" precision="I64">
					<dim>1</dim>
				</port>
			</output>
		</layer>
		<layer id="87" name="Constant_821" type="Const" version="opset1">
			<data element_type="i64" shape="1" offset="235070980" size="8" />
			<output>
				<port id="0" precision="I64">
					<dim>1</dim>
				</port>
			</output>
		</layer>
		<layer id="88" name="Constant_823" type="Const" version="opset1">
			<data element_type="i64" shape="1" offset="235070960" size="8" />
			<output>
				<port id="0" precision="I64">
					<dim>1</dim>
				</port>
			</output>
		</layer>
		<layer id="89" name="Constant_775" type="Const" version="opset1">
			<data element_type="i64" shape="1" offset="235070996" size="8" />
			<output>
				<port id="0" precision="I64">
					<dim>1</dim>
				</port>
			</output>
		</layer>
		<layer id="90" name="__module.model.layers.0.self_attn/aten::slice/Slice_1" type="Slice" version="opset8">
			<input>
				<port id="0" precision="FP32">
					<dim>-1</dim>
					<dim>12</dim>
					<dim>-1</dim>
					<dim>128</dim>
				</port>
				<port id="1" precision="I64">
					<dim>1</dim>
				</port>
				<port id="2" precision="I64">
					<dim>1</dim>
				</port>
				<port id="3" precision="I64">
					<dim>1</dim>
				</port>
				<port id="4" precision="I64">
					<dim>1</dim>
				</port>
			</input>
			<output>
				<port id="5" precision="FP32" names="415">
					<dim>-1</dim>
					<dim>12</dim>
					<dim>-1</dim>
					<dim>64</dim>
				</port>
			</output>
		</layer>
		<layer id="91" name="__module.model.layers.0.self_attn/aten::cat/Concat" type="Concat" version="opset1">
			<data axis="-1" />
			<input>
				<port id="0" precision="FP32">
					<dim>-1</dim>
					<dim>12</dim>
					<dim>-1</dim>
					<dim>64</dim>
				</port>
				<port id="1" precision="FP32">
					<dim>-1</dim>
					<dim>12</dim>
					<dim>-1</dim>
					<dim>64</dim>
				</port>
			</input>
			<output>
				<port id="2" precision="FP32" names="423">
					<dim>-1</dim>
					<dim>12</dim>
					<dim>-1</dim>
					<dim>128</dim>
				</port>
			</output>
		</layer>
		<layer id="92" name="__module.model.rotary_emb/aten::sin/Sin" type="Sin" version="opset1">
			<input>
				<port id="0" precision="FP32">
					<dim>-1</dim>
					<dim>-1</dim>
					<dim>128</dim>
				</port>
			</input>
			<output>
				<port id="1" precision="FP32" names="360,361,363,366,sin.1,sin.3">
					<dim>-1</dim>
					<dim>-1</dim>
					<dim>128</dim>
				</port>
			</output>
		</layer>
		<layer id="93" name="__module.model.layers.0.self_attn/aten::unsqueeze/Unsqueeze_1" type="Unsqueeze" version="opset1">
			<input>
				<port id="0" precision="FP32">
					<dim>-1</dim>
					<dim>-1</dim>
					<dim>128</dim>
				</port>
				<port id="1" precision="I64" />
			</input>
			<output>
				<port id="2" precision="FP32" names="1056,1217,1378,1539,1700,1861,2022,2183,2344,2505,2666,2827,2988,3149,3310,3471,3632,3793,3954,409,4115,4276,4437,4598,4759,573,734,895,sin,sin.11,sin.13,sin.15,sin.17,sin.19,sin.21,sin.23,sin.25,sin.27,sin.29,sin.31,sin.33,sin.35,sin.37,sin.39,sin.41,sin.43,sin.45,sin.47,sin.49,sin.5,sin.51,sin.53,sin.55,sin.57,sin.7,sin.9">
					<dim>-1</dim>
					<dim>1</dim>
					<dim>-1</dim>
					<dim>128</dim>
				</port>
			</output>
		</layer>
		<layer id="94" name="__module.model.layers.0.self_attn/aten::mul/Multiply_1" type="Multiply" version="opset1">
			<data auto_broadcast="numpy" />
			<input>
				<port id="0" precision="FP32">
					<dim>-1</dim>
					<dim>12</dim>
					<dim>-1</dim>
					<dim>128</dim>
				</port>
				<port id="1" precision="FP32">
					<dim>-1</dim>
					<dim>1</dim>
					<dim>-1</dim>
					<dim>128</dim>
				</port>
			</input>
			<output>
				<port id="2" precision="FP32" names="424">
					<dim>-1</dim>
					<dim>12</dim>
					<dim>-1</dim>
					<dim>128</dim>
				</port>
			</output>
		</layer>
		<layer id="95" name="__module.model.layers.0.self_attn/aten::add/Add" type="Add" version="opset1">
			<data auto_broadcast="numpy" />
			<input>
				<port id="0" precision="FP32">
					<dim>-1</dim>
					<dim>12</dim>
					<dim>-1</dim>
					<dim>128</dim>
				</port>
				<port id="1" precision="FP32">
					<dim>-1</dim>
					<dim>12</dim>
					<dim>-1</dim>
					<dim>128</dim>
				</port>
			</input>
			<output>
				<port id="2" precision="FP32" names="425,query.1">
					<dim>-1</dim>
					<dim>12</dim>
					<dim>-1</dim>
					<dim>128</dim>
				</port>
			</output>
		</layer>
		<layer id="96" name="Constant_85776" type="Const" version="opset1">
			<data element_type="f32" shape="" offset="0" size="4" />
			<output>
				<port id="0" precision="FP32" />
			</output>
		</layer>
		<layer id="97" name="Constant_85769" type="Const" version="opset1">
			<data element_type="i64" shape="1" offset="12" size="8" />
			<output>
				<port id="0" precision="I64">
					<dim>1</dim>
				</port>
			</output>
		</layer>
		<layer id="98" name="Constant_85771" type="Const" version="opset1">
			<data element_type="i64" shape="1" offset="4" size="8" />
			<output>
				<port id="0" precision="I64">
					<dim>1</dim>
				</port>
			</output>
		</layer>
		<layer id="99" name="Constant_85773" type="Const" version="opset1">
			<data element_type="i64" shape="1" offset="20" size="8" />
			<output>
				<port id="0" precision="I64">
					<dim>1</dim>
				</port>
			</output>
		</layer>
		<layer id="100" name="Concat_85774" type="Concat" version="opset1">
			<data axis="0" />
			<input>
				<port id="0" precision="I64">
					<dim>1</dim>
				</port>
				<port id="1" precision="I64">
					<dim>1</dim>
				</port>
				<port id="2" precision="I64">
					<dim>1</dim>
				</port>
				<port id="3" precision="I64">
					<dim>1</dim>
				</port>
			</input>
			<output>
				<port id="4" precision="I64">
					<dim>4</dim>
				</port>
			</output>
		</layer>
		<layer id="101" name="Broadcast_85777" type="Broadcast" version="opset3">
			<data mode="numpy" />
			<input>
				<port id="0" precision="FP32" />
				<port id="1" precision="I64">
					<dim>4</dim>
				</port>
			</input>
			<output>
				<port id="2" precision="FP32">
					<dim>-1</dim>
					<dim>2</dim>
					<dim>0</dim>
					<dim>128</dim>
				</port>
			</output>
		</layer>
		<layer id="102" name="ReadValue_85300" type="ReadValue" version="opset6">
			<data variable_id="past_key_values.0.keypresent.0.key" variable_type="f32" variable_shape="?,2,?,128" />
			<input>
				<port id="0" precision="FP32">
					<dim>-1</dim>
					<dim>2</dim>
					<dim>0</dim>
					<dim>128</dim>
				</port>
			</input>
			<output>
				<port id="1" precision="FP32" names="past_key_values.0.key">
					<dim>-1</dim>
					<dim>2</dim>
					<dim>-1</dim>
					<dim>128</dim>
				</port>
			</output>
		</layer>
		<layer id="103" name="Constant_84795" type="Const" version="opset1">
			<data element_type="i64" shape="" offset="4" size="8" />
			<output>
				<port id="0" precision="I64" />
			</output>
		</layer>
		<layer id="104" name="Gather_84796" type="Gather" version="opset8">
			<data batch_dims="0" />
			<input>
				<port id="0" precision="FP32">
					<dim>-1</dim>
					<dim>2</dim>
					<dim>-1</dim>
					<dim>128</dim>
				</port>
				<port id="1" precision="I32">
					<dim>-1</dim>
				</port>
				<port id="2" precision="I64" />
			</input>
			<output>
				<port id="3" precision="FP32">
					<dim>-1</dim>
					<dim>2</dim>
					<dim>-1</dim>
					<dim>128</dim>
				</port>
			</output>
		</layer>
		<layer id="105" name="self.model.layers.0.self_attn.k_proj.weight" type="Const" version="opset1">
			<data element_type="u4" shape="256, 12, 128" offset="235071008" size="196608" />
			<output>
				<port id="0" precision="U4">
					<dim>256</dim>
					<dim>12</dim>
					<dim>128</dim>
				</port>
			</output>
		</layer>
		<layer id="106" name="Convert_827166" type="Convert" version="opset1">
			<data destination_type="f16" />
			<input>
				<port id="0" precision="U4">
					<dim>256</dim>
					<dim>12</dim>
					<dim>128</dim>
				</port>
			</input>
			<output>
				<port id="1" precision="FP16">
					<dim>256</dim>
					<dim>12</dim>
					<dim>128</dim>
				</port>
			</output>
		</layer>
		<layer id="107" name="self.model.layers.0.self_attn.k_proj.weight/zero_point" type="Const" version="opset1">
			<data element_type="u4" shape="256, 12, 1" offset="235267616" size="1536" />
			<output>
				<port id="0" precision="U4">
					<dim>256</dim>
					<dim>12</dim>
					<dim>1</dim>
				</port>
			</output>
		</layer>
		<layer id="108" name="Convert_827169" type="Convert" version="opset1">
			<data destination_type="f16" />
			<input>
				<port id="0" precision="U4">
					<dim>256</dim>
					<dim>12</dim>
					<dim>1</dim>
				</port>
			</input>
			<output>
				<port id="1" precision="FP16">
					<dim>256</dim>
					<dim>12</dim>
					<dim>1</dim>
				</port>
			</output>
		</layer>
		<layer id="109" name="self.model.layers.0.self_attn.k_proj.weight/zero_point/subtract" type="Subtract" version="opset1">
			<data auto_broadcast="numpy" />
			<input>
				<port id="0" precision="FP16">
					<dim>256</dim>
					<dim>12</dim>
					<dim>128</dim>
				</port>
				<port id="1" precision="FP16">
					<dim>256</dim>
					<dim>12</dim>
					<dim>1</dim>
				</port>
			</input>
			<output>
				<port id="2" precision="FP16">
					<dim>256</dim>
					<dim>12</dim>
					<dim>128</dim>
				</port>
			</output>
		</layer>
		<layer id="110" name="self.model.layers.0.self_attn.k_proj.weight/scale" type="Const" version="opset1">
			<data element_type="f16" shape="256, 12, 1" offset="235269152" size="6144" />
			<output>
				<port id="0" precision="FP16">
					<dim>256</dim>
					<dim>12</dim>
					<dim>1</dim>
				</port>
			</output>
		</layer>
		<layer id="111" name="self.model.layers.0.self_attn.k_proj.weight/fq_weights_1" type="Multiply" version="opset1">
			<data auto_broadcast="numpy" />
			<input>
				<port id="0" precision="FP16">
					<dim>256</dim>
					<dim>12</dim>
					<dim>128</dim>
				</port>
				<port id="1" precision="FP16">
					<dim>256</dim>
					<dim>12</dim>
					<dim>1</dim>
				</port>
			</input>
			<output>
				<port id="2" precision="FP16">
					<dim>256</dim>
					<dim>12</dim>
					<dim>128</dim>
				</port>
			</output>
		</layer>
		<layer id="112" name="Constant_827174" type="Const" version="opset1">
			<data element_type="i64" shape="2" offset="235275296" size="16" />
			<output>
				<port id="0" precision="I64">
					<dim>2</dim>
				</port>
			</output>
		</layer>
		<layer id="113" name="Reshape_827175" type="Reshape" version="opset1">
			<data special_zero="false" />
			<input>
				<port id="0" precision="FP16">
					<dim>256</dim>
					<dim>12</dim>
					<dim>128</dim>
				</port>
				<port id="1" precision="I64">
					<dim>2</dim>
				</port>
			</input>
			<output>
				<port id="2" precision="FP16">
					<dim>256</dim>
					<dim>1536</dim>
				</port>
			</output>
		</layer>
		<layer id="114" name="__module.model.layers.0.self_attn.k_proj/ov_ext::linear/Convert" type="Convert" version="opset1">
			<data destination_type="f32" />
			<rt_info>
				<attribute name="decompression" version="0" />
			</rt_info>
			<input>
				<port id="0" precision="FP16">
					<dim>256</dim>
					<dim>1536</dim>
				</port>
			</input>
			<output>
				<port id="1" precision="FP32">
					<dim>256</dim>
					<dim>1536</dim>
				</port>
			</output>
		</layer>
		<layer id="115" name="__module.model.layers.0.self_attn.k_proj/ov_ext::linear/MatMul" type="MatMul" version="opset1">
			<data transpose_a="false" transpose_b="true" />
			<input>
				<port id="0" precision="FP32">
					<dim>-1</dim>
					<dim>-1</dim>
					<dim>1536</dim>
				</port>
				<port id="1" precision="FP32">
					<dim>256</dim>
					<dim>1536</dim>
				</port>
			</input>
			<output>
				<port id="2" precision="FP32">
					<dim>-1</dim>
					<dim>-1</dim>
					<dim>256</dim>
				</port>
			</output>
		</layer>
		<layer id="116" name="self.model.layers.0.self_attn.k_proj.bias" type="Const" version="opset1">
			<data element_type="bf16" shape="256" offset="235275312" size="512" />
			<output>
				<port id="0" precision="BF16" names="self.model.layers.0.self_attn.k_proj.bias">
					<dim>256</dim>
				</port>
			</output>
		</layer>
		<layer id="117" name="__module.model.layers.0.self_attn.k_proj/ov_ext::linear/Convert_1" type="Convert" version="opset1">
			<data destination_type="f32" />
			<rt_info>
				<attribute name="decompression" version="0" />
			</rt_info>
			<input>
				<port id="0" precision="BF16">
					<dim>256</dim>
				</port>
			</input>
			<output>
				<port id="1" precision="FP32">
					<dim>256</dim>
				</port>
			</output>
		</layer>
		<layer id="118" name="__module.model.layers.0.self_attn.k_proj/ov_ext::linear/Add" type="Add" version="opset1">
			<data auto_broadcast="numpy" />
			<input>
				<port id="0" precision="FP32">
					<dim>-1</dim>
					<dim>-1</dim>
					<dim>256</dim>
				</port>
				<port id="1" precision="FP32">
					<dim>256</dim>
				</port>
			</input>
			<output>
				<port id="2" precision="FP32" names="398">
					<dim>-1</dim>
					<dim>-1</dim>
					<dim>256</dim>
				</port>
			</output>
		</layer>
		<layer id="119" name="Constant_83521" type="Const" version="opset1">
			<data element_type="i64" shape="4" offset="235275824" size="32" />
			<output>
				<port id="0" precision="I64">
					<dim>4</dim>
				</port>
			</output>
		</layer>
		<layer id="120" name="__module.model.layers.0.self_attn/aten::view/Reshape_1" type="Reshape" version="opset1">
			<data special_zero="true" />
			<input>
				<port id="0" precision="FP32">
					<dim>-1</dim>
					<dim>-1</dim>
					<dim>256</dim>
				</port>
				<port id="1" precision="I64">
					<dim>4</dim>
				</port>
			</input>
			<output>
				<port id="2" precision="FP32" names="400">
					<dim>-1</dim>
					<dim>-1</dim>
					<dim>2</dim>
					<dim>128</dim>
				</port>
			</output>
		</layer>
		<layer id="121" name="__module.model.layers.0.self_attn/aten::transpose/Constant_1" type="Const" version="opset1">
			<data element_type="i32" shape="4" offset="235070688" size="16" />
			<output>
				<port id="0" precision="I32">
					<dim>4</dim>
				</port>
			</output>
		</layer>
		<layer id="122" name="__module.model.layers.0.self_attn/aten::transpose/Transpose_1" type="Transpose" version="opset1">
			<input>
				<port id="0" precision="FP32">
					<dim>-1</dim>
					<dim>-1</dim>
					<dim>2</dim>
					<dim>128</dim>
				</port>
				<port id="1" precision="I32">
					<dim>4</dim>
				</port>
			</input>
			<output>
				<port id="2" precision="FP32" names="401,k.1">
					<dim>-1</dim>
					<dim>2</dim>
					<dim>-1</dim>
					<dim>128</dim>
				</port>
			</output>
		</layer>
		<layer id="123" name="__module.model.layers.0.self_attn/aten::mul/Multiply_2" type="Multiply" version="opset1">
			<data auto_broadcast="numpy" />
			<input>
				<port id="0" precision="FP32">
					<dim>-1</dim>
					<dim>2</dim>
					<dim>-1</dim>
					<dim>128</dim>
				</port>
				<port id="1" precision="FP32">
					<dim>-1</dim>
					<dim>1</dim>
					<dim>-1</dim>
					<dim>128</dim>
				</port>
			</input>
			<output>
				<port id="2" precision="FP32" names="426">
					<dim>-1</dim>
					<dim>2</dim>
					<dim>-1</dim>
					<dim>128</dim>
				</port>
			</output>
		</layer>
		<layer id="124" name="Constant_1023" type="Const" version="opset1">
			<data element_type="i64" shape="1" offset="235070980" size="8" />
			<output>
				<port id="0" precision="I64">
					<dim>1</dim>
				</port>
			</output>
		</layer>
		<layer id="125" name="Constant_1025" type="Const" version="opset1">
			<data element_type="i64" shape="1" offset="235070988" size="8" />
			<output>
				<port id="0" precision="I64">
					<dim>1</dim>
				</port>
			</output>
		</layer>
		<layer id="126" name="Constant_1027" type="Const" version="opset1">
			<data element_type="i64" shape="1" offset="235070960" size="8" />
			<output>
				<port id="0" precision="I64">
					<dim>1</dim>
				</port>
			</output>
		</layer>
		<layer id="127" name="Constant_979" type="Const" version="opset1">
			<data element_type="i64" shape="1" offset="235070996" size="8" />
			<output>
				<port id="0" precision="I64">
					<dim>1</dim>
				</port>
			</output>
		</layer>
		<layer id="128" name="__module.model.layers.0.self_attn/aten::slice/Slice_2" type="Slice" version="opset8">
			<input>
				<port id="0" precision="FP32">
					<dim>-1</dim>
					<dim>2</dim>
					<dim>-1</dim>
					<dim>128</dim>
				</port>
				<port id="1" precision="I64">
					<dim>1</dim>
				</port>
				<port id="2" precision="I64">
					<dim>1</dim>
				</port>
				<port id="3" precision="I64">
					<dim>1</dim>
				</port>
				<port id="4" precision="I64">
					<dim>1</dim>
				</port>
			</input>
			<output>
				<port id="5" precision="FP32" names="436,x2.3">
					<dim>-1</dim>
					<dim>2</dim>
					<dim>-1</dim>
					<dim>64</dim>
				</port>
			</output>
		</layer>
		<layer id="129" name="__module.model.layers.0.self_attn/aten::neg/Constant_1" type="Const" version="opset1">
			<data element_type="i32" shape="" offset="235071004" size="4" />
			<output>
				<port id="0" precision="I32" />
			</output>
		</layer>
		<layer id="130" name="__module.model.layers.0.self_attn/aten::neg/ConvertLike_1" type="Convert" version="opset1">
			<data destination_type="f32" />
			<input>
				<port id="0" precision="I32" />
			</input>
			<output>
				<port id="1" precision="FP32" />
			</output>
		</layer>
		<layer id="131" name="__module.model.layers.0.self_attn/aten::neg/Multiply_1" type="Multiply" version="opset1">
			<data auto_broadcast="numpy" />
			<input>
				<port id="0" precision="FP32">
					<dim>-1</dim>
					<dim>2</dim>
					<dim>-1</dim>
					<dim>64</dim>
				</port>
				<port id="1" precision="FP32" />
			</input>
			<output>
				<port id="2" precision="FP32" names="437">
					<dim>-1</dim>
					<dim>2</dim>
					<dim>-1</dim>
					<dim>64</dim>
				</port>
			</output>
		</layer>
		<layer id="132" name="Constant_920" type="Const" version="opset1">
			<data element_type="i64" shape="1" offset="4" size="8" />
			<output>
				<port id="0" precision="I64">
					<dim>1</dim>
				</port>
			</output>
		</layer>
		<layer id="133" name="Constant_964" type="Const" version="opset1">
			<data element_type="i64" shape="1" offset="235070980" size="8" />
			<output>
				<port id="0" precision="I64">
					<dim>1</dim>
				</port>
			</output>
		</layer>
		<layer id="134" name="Constant_966" type="Const" version="opset1">
			<data element_type="i64" shape="1" offset="235070960" size="8" />
			<output>
				<port id="0" precision="I64">
					<dim>1</dim>
				</port>
			</output>
		</layer>
		<layer id="135" name="Constant_918" type="Const" version="opset1">
			<data element_type="i64" shape="1" offset="235070996" size="8" />
			<output>
				<port id="0" precision="I64">
					<dim>1</dim>
				</port>
			</output>
		</layer>
		<layer id="136" name="__module.model.layers.0.self_attn/aten::slice/Slice_3" type="Slice" version="opset8">
			<input>
				<port id="0" precision="FP32">
					<dim>-1</dim>
					<dim>2</dim>
					<dim>-1</dim>
					<dim>128</dim>
				</port>
				<port id="1" precision="I64">
					<dim>1</dim>
				</port>
				<port id="2" precision="I64">
					<dim>1</dim>
				</port>
				<port id="3" precision="I64">
					<dim>1</dim>
				</port>
				<port id="4" precision="I64">
					<dim>1</dim>
				</port>
			</input>
			<output>
				<port id="5" precision="FP32" names="431">
					<dim>-1</dim>
					<dim>2</dim>
					<dim>-1</dim>
					<dim>64</dim>
				</port>
			</output>
		</layer>
		<layer id="137" name="__module.model.layers.0.self_attn/aten::cat/Concat_1" type="Concat" version="opset1">
			<data axis="-1" />
			<input>
				<port id="0" precision="FP32">
					<dim>-1</dim>
					<dim>2</dim>
					<dim>-1</dim>
					<dim>64</dim>
				</port>
				<port id="1" precision="FP32">
					<dim>-1</dim>
					<dim>2</dim>
					<dim>-1</dim>
					<dim>64</dim>
				</port>
			</input>
			<output>
				<port id="2" precision="FP32" names="439">
					<dim>-1</dim>
					<dim>2</dim>
					<dim>-1</dim>
					<dim>128</dim>
				</port>
			</output>
		</layer>
		<layer id="138" name="__module.model.layers.0.self_attn/aten::mul/Multiply_3" type="Multiply" version="opset1">
			<data auto_broadcast="numpy" />
			<input>
				<port id="0" precision="FP32">
					<dim>-1</dim>
					<dim>2</dim>
					<dim>-1</dim>
					<dim>128</dim>
				</port>
				<port id="1" precision="FP32">
					<dim>-1</dim>
					<dim>1</dim>
					<dim>-1</dim>
					<dim>128</dim>
				</port>
			</input>
			<output>
				<port id="2" precision="FP32" names="440">
					<dim>-1</dim>
					<dim>2</dim>
					<dim>-1</dim>
					<dim>128</dim>
				</port>
			</output>
		</layer>
		<layer id="139" name="__module.model.layers.0.self_attn/aten::add/Add_1" type="Add" version="opset1">
			<data auto_broadcast="numpy" />
			<input>
				<port id="0" precision="FP32">
					<dim>-1</dim>
					<dim>2</dim>
					<dim>-1</dim>
					<dim>128</dim>
				</port>
				<port id="1" precision="FP32">
					<dim>-1</dim>
					<dim>2</dim>
					<dim>-1</dim>
					<dim>128</dim>
				</port>
			</input>
			<output>
				<port id="2" precision="FP32" names="441,key_states">
					<dim>-1</dim>
					<dim>2</dim>
					<dim>-1</dim>
					<dim>128</dim>
				</port>
			</output>
		</layer>
		<layer id="140" name="__module.model.layers.0.self_attn/aten::cat/Concat_2" type="Concat" version="opset1">
			<data axis="-2" />
			<input>
				<port id="0" precision="FP32">
					<dim>-1</dim>
					<dim>2</dim>
					<dim>-1</dim>
					<dim>128</dim>
				</port>
				<port id="1" precision="FP32">
					<dim>-1</dim>
					<dim>2</dim>
					<dim>-1</dim>
					<dim>128</dim>
				</port>
			</input>
			<output>
				<port id="2" precision="FP32" names="454,455,hidden_states.9">
					<dim>-1</dim>
					<dim>2</dim>
					<dim>-1</dim>
					<dim>128</dim>
				</port>
			</output>
		</layer>
		<layer id="141" name="225" type="Const" version="opset1">
			<data element_type="i64" shape="" offset="12" size="8" />
			<output>
				<port id="0" precision="I64" names="225" />
			</output>
		</layer>
		<layer id="142" name="__module.model.layers.0.self_attn/aten::unsqueeze/Unsqueeze_2" type="Unsqueeze" version="opset1">
			<input>
				<port id="0" precision="FP32">
					<dim>-1</dim>
					<dim>2</dim>
					<dim>-1</dim>
					<dim>128</dim>
				</port>
				<port id="1" precision="I64" />
			</input>
			<output>
				<port id="2" precision="FP32" names="456,457,458">
					<dim>-1</dim>
					<dim>2</dim>
					<dim>1</dim>
					<dim>-1</dim>
					<dim>128</dim>
				</port>
			</output>
		</layer>
		<layer id="143" name="__module.model.layers.0.self_attn/aten::size/ShapeOf_2" type="ShapeOf" version="opset3">
			<data output_type="i64" />
			<input>
				<port id="0" precision="FP32">
					<dim>-1</dim>
					<dim>2</dim>
					<dim>-1</dim>
					<dim>128</dim>
				</port>
			</input>
			<output>
				<port id="1" precision="I64">
					<dim>4</dim>
				</port>
			</output>
		</layer>
		<layer id="144" name="Constant_60531" type="Const" version="opset1">
			<data element_type="i64" shape="2" offset="235275856" size="16" />
			<output>
				<port id="0" precision="I64">
					<dim>2</dim>
				</port>
			</output>
		</layer>
		<layer id="145" name="Constant_60532" type="Const" version="opset1">
			<data element_type="i64" shape="" offset="4" size="8" />
			<output>
				<port id="0" precision="I64" />
			</output>
		</layer>
		<layer id="146" name="Gather_60533" type="Gather" version="opset8">
			<data batch_dims="0" />
			<input>
				<port id="0" precision="I64">
					<dim>4</dim>
				</port>
				<port id="1" precision="I64">
					<dim>2</dim>
				</port>
				<port id="2" precision="I64" />
			</input>
			<output>
				<port id="3" precision="I64">
					<dim>2</dim>
				</port>
			</output>
		</layer>
		<layer id="147" name="Constant_58590" type="Const" version="opset1">
			<data element_type="i64" shape="1" offset="235275872" size="8" />
			<output>
				<port id="0" precision="I64">
					<dim>1</dim>
				</port>
			</output>
		</layer>
		<layer id="148" name="ShapeOf_76974" type="ShapeOf" version="opset3">
			<data output_type="i64" />
			<input>
				<port id="0" precision="FP32">
					<dim>-1</dim>
					<dim>2</dim>
					<dim>-1</dim>
					<dim>128</dim>
				</port>
			</input>
			<output>
				<port id="1" precision="I64">
					<dim>4</dim>
				</port>
			</output>
		</layer>
		<layer id="149" name="Constant_76975" type="Const" version="opset1">
			<data element_type="i64" shape="" offset="12" size="8" />
			<output>
				<port id="0" precision="I64" />
			</output>
		</layer>
		<layer id="150" name="Constant_76976" type="Const" version="opset1">
			<data element_type="i64" shape="" offset="4" size="8" />
			<output>
				<port id="0" precision="I64" />
			</output>
		</layer>
		<layer id="151" name="Gather_76977" type="Gather" version="opset8">
			<data batch_dims="0" />
			<input>
				<port id="0" precision="I64">
					<dim>4</dim>
				</port>
				<port id="1" precision="I64" />
				<port id="2" precision="I64" />
			</input>
			<output>
				<port id="3" precision="I64" names="287" />
			</output>
		</layer>
		<layer id="152" name="Constant_77004" type="Const" version="opset1">
			<data element_type="i64" shape="1" offset="235070960" size="8" />
			<output>
				<port id="0" precision="I64">
					<dim>1</dim>
				</port>
			</output>
		</layer>
		<layer id="153" name="Reshape_77005" type="Reshape" version="opset1">
			<data special_zero="false" />
			<input>
				<port id="0" precision="I64" />
				<port id="1" precision="I64">
					<dim>1</dim>
				</port>
			</input>
			<output>
				<port id="2" precision="I64">
					<dim>1</dim>
				</port>
			</output>
		</layer>
		<layer id="154" name="Constant_76983" type="Const" version="opset1">
			<data element_type="i64" shape="" offset="235070960" size="8" />
			<output>
				<port id="0" precision="I64" />
			</output>
		</layer>
		<layer id="155" name="Constant_76984" type="Const" version="opset1">
			<data element_type="i64" shape="" offset="4" size="8" />
			<output>
				<port id="0" precision="I64" />
			</output>
		</layer>
		<layer id="156" name="Gather_76985" type="Gather" version="opset8">
			<data batch_dims="0" />
			<input>
				<port id="0" precision="I64">
					<dim>3</dim>
				</port>
				<port id="1" precision="I64" />
				<port id="2" precision="I64" />
			</input>
			<output>
				<port id="3" precision="I64" names="289,294" />
			</output>
		</layer>
		<layer id="157" name="Constant_77006" type="Const" version="opset1">
			<data element_type="i64" shape="1" offset="235070960" size="8" />
			<output>
				<port id="0" precision="I64">
					<dim>1</dim>
				</port>
			</output>
		</layer>
		<layer id="158" name="Reshape_77007" type="Reshape" version="opset1">
			<data special_zero="false" />
			<input>
				<port id="0" precision="I64" />
				<port id="1" precision="I64">
					<dim>1</dim>
				</port>
			</input>
			<output>
				<port id="2" precision="I64">
					<dim>1</dim>
				</port>
			</output>
		</layer>
		<layer id="159" name="Add_77008" type="Add" version="opset1">
			<data auto_broadcast="numpy" />
			<input>
				<port id="0" precision="I64">
					<dim>1</dim>
				</port>
				<port id="1" precision="I64">
					<dim>1</dim>
				</port>
			</input>
			<output>
				<port id="2" precision="I64" names="1096,1125,1257,1286,1418,1447,1579,1608,1740,1769,1901,1930,2062,2091,2223,2252,2384,2413,2545,2574,2706,2735,2867,2896,3028,3057,3189,3218,3350,3379,3511,3540,3672,3701,3833,3862,3994,4023,4155,4184,4316,4345,4477,4506,452,4638,4667,4799,481,4828,613,642,774,803,935,964">
					<dim>1</dim>
				</port>
			</output>
		</layer>
		<layer id="160" name="Constant_58593" type="Const" version="opset1">
			<data element_type="i64" shape="1" offset="20" size="8" />
			<output>
				<port id="0" precision="I64">
					<dim>1</dim>
				</port>
			</output>
		</layer>
		<layer id="161" name="__module.model.layers.0.self_attn/prim::ListConstruct_2" type="Concat" version="opset1">
			<data axis="0" />
			<input>
				<port id="0" precision="I64">
					<dim>2</dim>
				</port>
				<port id="1" precision="I64">
					<dim>1</dim>
				</port>
				<port id="2" precision="I64">
					<dim>1</dim>
				</port>
				<port id="3" precision="I64">
					<dim>1</dim>
				</port>
			</input>
			<output>
				<port id="4" precision="I64">
					<dim>5</dim>
				</port>
			</output>
		</layer>
		<layer id="162" name="__module.model.layers.0.self_attn/aten::expand/Broadcast" type="Broadcast" version="opset3">
			<data mode="bidirectional" />
			<input>
				<port id="0" precision="FP32">
					<dim>-1</dim>
					<dim>2</dim>
					<dim>1</dim>
					<dim>-1</dim>
					<dim>128</dim>
				</port>
				<port id="1" precision="I64">
					<dim>5</dim>
				</port>
			</input>
			<output>
				<port id="2" precision="FP32" names="460,hidden_states.11">
					<dim>-1</dim>
					<dim>2</dim>
					<dim>6</dim>
					<dim>-1</dim>
					<dim>128</dim>
				</port>
			</output>
		</layer>
		<layer id="163" name="Constant_83522" type="Const" version="opset1">
			<data element_type="i64" shape="4" offset="235275880" size="32" />
			<output>
				<port id="0" precision="I64">
					<dim>4</dim>
				</port>
			</output>
		</layer>
		<layer id="164" name="__module.model.layers.0.self_attn/aten::reshape/Reshape" type="Reshape" version="opset1">
			<data special_zero="true" />
			<input>
				<port id="0" precision="FP32">
					<dim>-1</dim>
					<dim>2</dim>
					<dim>6</dim>
					<dim>-1</dim>
					<dim>128</dim>
				</port>
				<port id="1" precision="I64">
					<dim>4</dim>
				</port>
			</input>
			<output>
				<port id="2" precision="FP32" names="464,key.1">
					<dim>-1</dim>
					<dim>12</dim>
					<dim>-1</dim>
					<dim>128</dim>
				</port>
			</output>
		</layer>
		<layer id="165" name="Constant_85788" type="Const" version="opset1">
			<data element_type="f32" shape="" offset="0" size="4" />
			<output>
				<port id="0" precision="FP32" />
			</output>
		</layer>
		<layer id="166" name="Constant_85781" type="Const" version="opset1">
			<data element_type="i64" shape="1" offset="12" size="8" />
			<output>
				<port id="0" precision="I64">
					<dim>1</dim>
				</port>
			</output>
		</layer>
		<layer id="167" name="Constant_85783" type="Const" version="opset1">
			<data element_type="i64" shape="1" offset="4" size="8" />
			<output>
				<port id="0" precision="I64">
					<dim>1</dim>
				</port>
			</output>
		</layer>
		<layer id="168" name="Constant_85785" type="Const" version="opset1">
			<data element_type="i64" shape="1" offset="20" size="8" />
			<output>
				<port id="0" precision="I64">
					<dim>1</dim>
				</port>
			</output>
		</layer>
		<layer id="169" name="Concat_85786" type="Concat" version="opset1">
			<data axis="0" />
			<input>
				<port id="0" precision="I64">
					<dim>1</dim>
				</port>
				<port id="1" precision="I64">
					<dim>1</dim>
				</port>
				<port id="2" precision="I64">
					<dim>1</dim>
				</port>
				<port id="3" precision="I64">
					<dim>1</dim>
				</port>
			</input>
			<output>
				<port id="4" precision="I64">
					<dim>4</dim>
				</port>
			</output>
		</layer>
		<layer id="170" name="Broadcast_85789" type="Broadcast" version="opset3">
			<data mode="numpy" />
			<input>
				<port id="0" precision="FP32" />
				<port id="1" precision="I64">
					<dim>4</dim>
				</port>
			</input>
			<output>
				<port id="2" precision="FP32">
					<dim>-1</dim>
					<dim>2</dim>
					<dim>0</dim>
					<dim>128</dim>
				</port>
			</output>
		</layer>
		<layer id="171" name="ReadValue_85302" type="ReadValue" version="opset6">
			<data variable_id="past_key_values.0.valuepresent.0.value" variable_type="f32" variable_shape="?,2,?,128" />
			<input>
				<port id="0" precision="FP32">
					<dim>-1</dim>
					<dim>2</dim>
					<dim>0</dim>
					<dim>128</dim>
				</port>
			</input>
			<output>
				<port id="1" precision="FP32" names="past_key_values.0.value">
					<dim>-1</dim>
					<dim>2</dim>
					<dim>-1</dim>
					<dim>128</dim>
				</port>
			</output>
		</layer>
		<layer id="172" name="Constant_84798" type="Const" version="opset1">
			<data element_type="i64" shape="" offset="4" size="8" />
			<output>
				<port id="0" precision="I64" />
			</output>
		</layer>
		<layer id="173" name="Gather_84799" type="Gather" version="opset8">
			<data batch_dims="0" />
			<input>
				<port id="0" precision="FP32">
					<dim>-1</dim>
					<dim>2</dim>
					<dim>-1</dim>
					<dim>128</dim>
				</port>
				<port id="1" precision="I32">
					<dim>-1</dim>
				</port>
				<port id="2" precision="I64" />
			</input>
			<output>
				<port id="3" precision="FP32">
					<dim>-1</dim>
					<dim>2</dim>
					<dim>-1</dim>
					<dim>128</dim>
				</port>
			</output>
		</layer>
		<layer id="174" name="self.model.layers.0.self_attn.v_proj.weight" type="Const" version="opset1">
			<data element_type="u4" shape="256, 12, 128" offset="235275912" size="196608" />
			<output>
				<port id="0" precision="U4">
					<dim>256</dim>
					<dim>12</dim>
					<dim>128</dim>
				</port>
			</output>
		</layer>
		<layer id="175" name="Convert_832267" type="Convert" version="opset1">
			<data destination_type="f16" />
			<input>
				<port id="0" precision="U4">
					<dim>256</dim>
					<dim>12</dim>
					<dim>128</dim>
				</port>
			</input>
			<output>
				<port id="1" precision="FP16">
					<dim>256</dim>
					<dim>12</dim>
					<dim>128</dim>
				</port>
			</output>
		</layer>
		<layer id="176" name="self.model.layers.0.self_attn.v_proj.weight/zero_point" type="Const" version="opset1">
			<data element_type="u4" shape="256, 12, 1" offset="235472520" size="1536" />
			<output>
				<port id="0" precision="U4">
					<dim>256</dim>
					<dim>12</dim>
					<dim>1</dim>
				</port>
			</output>
		</layer>
		<layer id="177" name="Convert_832270" type="Convert" version="opset1">
			<data destination_type="f16" />
			<input>
				<port id="0" precision="U4">
					<dim>256</dim>
					<dim>12</dim>
					<dim>1</dim>
				</port>
			</input>
			<output>
				<port id="1" precision="FP16">
					<dim>256</dim>
					<dim>12</dim>
					<dim>1</dim>
				</port>
			</output>
		</layer>
		<layer id="178" name="self.model.layers.0.self_attn.v_proj.weight/zero_point/subtract" type="Subtract" version="opset1">
			<data auto_broadcast="numpy" />
			<input>
				<port id="0" precision="FP16">
					<dim>256</dim>
					<dim>12</dim>
					<dim>128</dim>
				</port>
				<port id="1" precision="FP16">
					<dim>256</dim>
					<dim>12</dim>
					<dim>1</dim>
				</port>
			</input>
			<output>
				<port id="2" precision="FP16">
					<dim>256</dim>
					<dim>12</dim>
					<dim>128</dim>
				</port>
			</output>
		</layer>
		<layer id="179" name="self.model.layers.0.self_attn.v_proj.weight/scale" type="Const" version="opset1">
			<data element_type="f16" shape="256, 12, 1" offset="235474056" size="6144" />
			<output>
				<port id="0" precision="FP16">
					<dim>256</dim>
					<dim>12</dim>
					<dim>1</dim>
				</port>
			</output>
		</layer>
		<layer id="180" name="self.model.layers.0.self_attn.v_proj.weight/fq_weights_1" type="Multiply" version="opset1">
			<data auto_broadcast="numpy" />
			<input>
				<port id="0" precision="FP16">
					<dim>256</dim>
					<dim>12</dim>
					<dim>128</dim>
				</port>
				<port id="1" precision="FP16">
					<dim>256</dim>
					<dim>12</dim>
					<dim>1</dim>
				</port>
			</input>
			<output>
				<port id="2" precision="FP16">
					<dim>256</dim>
					<dim>12</dim>
					<dim>128</dim>
				</port>
			</output>
		</layer>
		<layer id="181" name="Constant_832275" type="Const" version="opset1">
			<data element_type="i64" shape="2" offset="235275296" size="16" />
			<output>
				<port id="0" precision="I64">
					<dim>2</dim>
				</port>
			</output>
		</layer>
		<layer id="182" name="Reshape_832276" type="Reshape" version="opset1">
			<data special_zero="false" />
			<input>
				<port id="0" precision="FP16">
					<dim>256</dim>
					<dim>12</dim>
					<dim>128</dim>
				</port>
				<port id="1" precision="I64">
					<dim>2</dim>
				</port>
			</input>
			<output>
				<port id="2" precision="FP16">
					<dim>256</dim>
					<dim>1536</dim>
				</port>
			</output>
		</layer>
		<layer id="183" name="__module.model.layers.0.self_attn.v_proj/ov_ext::linear/Convert" type="Convert" version="opset1">
			<data destination_type="f32" />
			<rt_info>
				<attribute name="decompression" version="0" />
			</rt_info>
			<input>
				<port id="0" precision="FP16">
					<dim>256</dim>
					<dim>1536</dim>
				</port>
			</input>
			<output>
				<port id="1" precision="FP32">
					<dim>256</dim>
					<dim>1536</dim>
				</port>
			</output>
		</layer>
		<layer id="184" name="__module.model.layers.0.self_attn.v_proj/ov_ext::linear/MatMul" type="MatMul" version="opset1">
			<data transpose_a="false" transpose_b="true" />
			<input>
				<port id="0" precision="FP32">
					<dim>-1</dim>
					<dim>-1</dim>
					<dim>1536</dim>
				</port>
				<port id="1" precision="FP32">
					<dim>256</dim>
					<dim>1536</dim>
				</port>
			</input>
			<output>
				<port id="2" precision="FP32">
					<dim>-1</dim>
					<dim>-1</dim>
					<dim>256</dim>
				</port>
			</output>
		</layer>
		<layer id="185" name="self.model.layers.0.self_attn.v_proj.bias" type="Const" version="opset1">
			<data element_type="bf16" shape="256" offset="235480200" size="512" />
			<output>
				<port id="0" precision="BF16" names="self.model.layers.0.self_attn.v_proj.bias">
					<dim>256</dim>
				</port>
			</output>
		</layer>
		<layer id="186" name="__module.model.layers.0.self_attn.v_proj/ov_ext::linear/Convert_1" type="Convert" version="opset1">
			<data destination_type="f32" />
			<rt_info>
				<attribute name="decompression" version="0" />
			</rt_info>
			<input>
				<port id="0" precision="BF16">
					<dim>256</dim>
				</port>
			</input>
			<output>
				<port id="1" precision="FP32">
					<dim>256</dim>
				</port>
			</output>
		</layer>
		<layer id="187" name="__module.model.layers.0.self_attn.v_proj/ov_ext::linear/Add" type="Add" version="opset1">
			<data auto_broadcast="numpy" />
			<input>
				<port id="0" precision="FP32">
					<dim>-1</dim>
					<dim>-1</dim>
					<dim>256</dim>
				</port>
				<port id="1" precision="FP32">
					<dim>256</dim>
				</port>
			</input>
			<output>
				<port id="2" precision="FP32" names="404">
					<dim>-1</dim>
					<dim>-1</dim>
					<dim>256</dim>
				</port>
			</output>
		</layer>
		<layer id="188" name="Constant_83523" type="Const" version="opset1">
			<data element_type="i64" shape="4" offset="235275824" size="32" />
			<output>
				<port id="0" precision="I64">
					<dim>4</dim>
				</port>
			</output>
		</layer>
		<layer id="189" name="__module.model.layers.0.self_attn/aten::view/Reshape_2" type="Reshape" version="opset1">
			<data special_zero="true" />
			<input>
				<port id="0" precision="FP32">
					<dim>-1</dim>
					<dim>-1</dim>
					<dim>256</dim>
				</port>
				<port id="1" precision="I64">
					<dim>4</dim>
				</port>
			</input>
			<output>
				<port id="2" precision="FP32" names="406">
					<dim>-1</dim>
					<dim>-1</dim>
					<dim>2</dim>
					<dim>128</dim>
				</port>
			</output>
		</layer>
		<layer id="190" name="__module.model.layers.0.self_attn/aten::transpose/Constant_2" type="Const" version="opset1">
			<data element_type="i32" shape="4" offset="235070688" size="16" />
			<output>
				<port id="0" precision="I32">
					<dim>4</dim>
				</port>
			</output>
		</layer>
		<layer id="191" name="__module.model.layers.0.self_attn/aten::transpose/Transpose_2" type="Transpose" version="opset1">
			<input>
				<port id="0" precision="FP32">
					<dim>-1</dim>
					<dim>-1</dim>
					<dim>2</dim>
					<dim>128</dim>
				</port>
				<port id="1" precision="I32">
					<dim>4</dim>
				</port>
			</input>
			<output>
				<port id="2" precision="FP32" names="407">
					<dim>-1</dim>
					<dim>2</dim>
					<dim>-1</dim>
					<dim>128</dim>
				</port>
			</output>
		</layer>
		<layer id="192" name="__module.model.layers.0.self_attn/aten::cat/Concat_3" type="Concat" version="opset1">
			<data axis="-2" />
			<input>
				<port id="0" precision="FP32">
					<dim>-1</dim>
					<dim>2</dim>
					<dim>-1</dim>
					<dim>128</dim>
				</port>
				<port id="1" precision="FP32">
					<dim>-1</dim>
					<dim>2</dim>
					<dim>-1</dim>
					<dim>128</dim>
				</port>
			</input>
			<output>
				<port id="2" precision="FP32" names="470,471,hidden_states.13">
					<dim>-1</dim>
					<dim>2</dim>
					<dim>-1</dim>
					<dim>128</dim>
				</port>
			</output>
		</layer>
		<layer id="193" name="__module.model.layers.0.self_attn/aten::unsqueeze/Unsqueeze_3" type="Unsqueeze" version="opset1">
			<input>
				<port id="0" precision="FP32">
					<dim>-1</dim>
					<dim>2</dim>
					<dim>-1</dim>
					<dim>128</dim>
				</port>
				<port id="1" precision="I64" />
			</input>
			<output>
				<port id="2" precision="FP32" names="472,473,474">
					<dim>-1</dim>
					<dim>2</dim>
					<dim>1</dim>
					<dim>-1</dim>
					<dim>128</dim>
				</port>
			</output>
		</layer>
		<layer id="194" name="__module.model.layers.0.self_attn/aten::expand/Broadcast_1" type="Broadcast" version="opset3">
			<data mode="bidirectional" />
			<input>
				<port id="0" precision="FP32">
					<dim>-1</dim>
					<dim>2</dim>
					<dim>1</dim>
					<dim>-1</dim>
					<dim>128</dim>
				</port>
				<port id="1" precision="I64">
					<dim>5</dim>
				</port>
			</input>
			<output>
				<port id="2" precision="FP32" names="476,hidden_states.15">
					<dim>-1</dim>
					<dim>2</dim>
					<dim>6</dim>
					<dim>-1</dim>
					<dim>128</dim>
				</port>
			</output>
		</layer>
		<layer id="195" name="Constant_83524" type="Const" version="opset1">
			<data element_type="i64" shape="4" offset="235275880" size="32" />
			<output>
				<port id="0" precision="I64">
					<dim>4</dim>
				</port>
			</output>
		</layer>
		<layer id="196" name="__module.model.layers.0.self_attn/aten::reshape/Reshape_1" type="Reshape" version="opset1">
			<data special_zero="true" />
			<input>
				<port id="0" precision="FP32">
					<dim>-1</dim>
					<dim>2</dim>
					<dim>6</dim>
					<dim>-1</dim>
					<dim>128</dim>
				</port>
				<port id="1" precision="I64">
					<dim>4</dim>
				</port>
			</input>
			<output>
				<port id="2" precision="FP32" names="480,value.1">
					<dim>-1</dim>
					<dim>12</dim>
					<dim>-1</dim>
					<dim>128</dim>
				</port>
			</output>
		</layer>
		<layer id="197" name="Constant_75242" type="Const" version="opset1">
			<data element_type="f32" shape="1, 1" offset="235480712" size="4" />
			<output>
				<port id="0" precision="FP32">
					<dim>1</dim>
					<dim>1</dim>
				</port>
			</output>
		</layer>
		<layer id="198" name="__module.model/aten::arange/Constant" type="Const" version="opset1">
			<data element_type="i32" shape="" offset="0" size="4" />
			<output>
				<port id="0" precision="I32" />
			</output>
		</layer>
		<layer id="199" name="ShapeOf_76968" type="ShapeOf" version="opset3">
			<data output_type="i64" />
			<input>
				<port id="0" precision="I64">
					<dim>-1</dim>
					<dim>-1</dim>
				</port>
			</input>
			<output>
				<port id="1" precision="I64">
					<dim>2</dim>
				</port>
			</output>
		</layer>
		<layer id="200" name="Constant_76969" type="Const" version="opset1">
			<data element_type="i64" shape="" offset="235070960" size="8" />
			<output>
				<port id="0" precision="I64" />
			</output>
		</layer>
		<layer id="201" name="Constant_76970" type="Const" version="opset1">
			<data element_type="i64" shape="" offset="4" size="8" />
			<output>
				<port id="0" precision="I64" />
			</output>
		</layer>
		<layer id="202" name="Gather_76971" type="Gather" version="opset8">
			<data batch_dims="0" />
			<input>
				<port id="0" precision="I64">
					<dim>2</dim>
				</port>
				<port id="1" precision="I64" />
				<port id="2" precision="I64" />
			</input>
			<output>
				<port id="3" precision="I64" names="295,317" />
			</output>
		</layer>
		<layer id="203" name="__module.model/aten::arange/Constant_1" type="Const" version="opset1">
			<data element_type="i32" shape="" offset="235480716" size="4" />
			<output>
				<port id="0" precision="I32" />
			</output>
		</layer>
		<layer id="204" name="__module.model/aten::arange/Range" type="Range" version="opset4">
			<data output_type="f32" />
			<input>
				<port id="0" precision="I32" />
				<port id="1" precision="I64" />
				<port id="2" precision="I32" />
			</input>
			<output>
				<port id="3" precision="FP32">
					<dim>-1</dim>
				</port>
			</output>
		</layer>
		<layer id="205" name="__module.model/aten::arange/ConvertLike" type="Convert" version="opset1">
			<data destination_type="i64" />
			<input>
				<port id="0" precision="FP32">
					<dim>-1</dim>
				</port>
			</input>
			<output>
				<port id="1" precision="I64" names="299,303">
					<dim>-1</dim>
				</port>
			</output>
		</layer>
		<layer id="206" name="__module.model/aten::gt/Convert" type="Convert" version="opset1">
			<data destination_type="f32" />
			<input>
				<port id="0" precision="I64">
					<dim>-1</dim>
				</port>
			</input>
			<output>
				<port id="1" precision="FP32">
					<dim>-1</dim>
				</port>
			</output>
		</layer>
		<layer id="207" name="__module.model/aten::add/Add" type="Add" version="opset1">
			<data auto_broadcast="numpy" />
			<input>
				<port id="0" precision="I64" />
				<port id="1" precision="I64" />
			</input>
			<output>
				<port id="2" precision="I64" names="291" />
			</output>
		</layer>
		<layer id="208" name="__module.model/aten::arange/Constant_2" type="Const" version="opset1">
			<data element_type="i32" shape="" offset="235480716" size="4" />
			<output>
				<port id="0" precision="I32" />
			</output>
		</layer>
		<layer id="209" name="__module.model/aten::arange/Range_1" type="Range" version="opset4">
			<data output_type="f32" />
			<input>
				<port id="0" precision="I64" />
				<port id="1" precision="I64" />
				<port id="2" precision="I32" />
			</input>
			<output>
				<port id="3" precision="FP32" names="293,cache_position">
					<dim>-1</dim>
				</port>
			</output>
		</layer>
		<layer id="210" name="Constant_181" type="Const" version="opset1">
			<data element_type="i64" shape="2" offset="235480720" size="16" />
			<output>
				<port id="0" precision="I64" names="300">
					<dim>2</dim>
				</port>
			</output>
		</layer>
		<layer id="211" name="__module.model/aten::reshape/Reshape" type="Reshape" version="opset1">
			<data special_zero="false" />
			<input>
				<port id="0" precision="FP32">
					<dim>-1</dim>
				</port>
				<port id="1" precision="I64">
					<dim>2</dim>
				</port>
			</input>
			<output>
				<port id="2" precision="FP32" names="301,305">
					<dim>-1</dim>
					<dim>1</dim>
				</port>
			</output>
		</layer>
		<layer id="212" name="__module.model/aten::gt/Greater" type="Greater" version="opset1">
			<data auto_broadcast="numpy" />
			<input>
				<port id="0" precision="FP32">
					<dim>-1</dim>
				</port>
				<port id="1" precision="FP32">
					<dim>-1</dim>
					<dim>1</dim>
				</port>
			</input>
			<output>
				<port id="2" precision="BOOL" names="302_1">
					<dim>-1</dim>
					<dim>-1</dim>
				</port>
			</output>
		</layer>
		<layer id="213" name="Constant_75241" type="Const" version="opset1">
			<data element_type="f32" shape="1, 1" offset="235480736" size="4" />
			<output>
				<port id="0" precision="FP32">
					<dim>1</dim>
					<dim>1</dim>
				</port>
			</output>
		</layer>
		<layer id="214" name="__module.model/aten::sub/Subtract" type="Add" version="opset1">
			<data auto_broadcast="numpy" />
			<input>
				<port id="0" precision="FP32">
					<dim>-1</dim>
					<dim>1</dim>
				</port>
				<port id="1" precision="FP32">
					<dim>1</dim>
					<dim>1</dim>
				</port>
			</input>
			<output>
				<port id="2" precision="FP32" names="306">
					<dim>-1</dim>
					<dim>1</dim>
				</port>
			</output>
		</layer>
		<layer id="215" name="__module.model/aten::le/LessEqual" type="LessEqual" version="opset1">
			<data auto_broadcast="numpy" />
			<input>
				<port id="0" precision="FP32">
					<dim>-1</dim>
				</port>
				<port id="1" precision="FP32">
					<dim>-1</dim>
					<dim>1</dim>
				</port>
			</input>
			<output>
				<port id="2" precision="BOOL" names="307,sliding_attend_mask">
					<dim>-1</dim>
					<dim>-1</dim>
				</port>
			</output>
		</layer>
		<layer id="216" name="__module.model/aten::bitwise_or_/BitwiseOr" type="BitwiseOr" version="opset13">
			<data auto_broadcast="numpy" />
			<input>
				<port id="0" precision="BOOL">
					<dim>-1</dim>
					<dim>-1</dim>
				</port>
				<port id="1" precision="BOOL">
					<dim>-1</dim>
					<dim>-1</dim>
				</port>
			</input>
			<output>
				<port id="2" precision="BOOL" names="302,diagonal_attend_mask.1">
					<dim>-1</dim>
					<dim>-1</dim>
				</port>
			</output>
		</layer>
		<layer id="217" name="__module.model/aten::mul_/ConvertLike" type="Convert" version="opset1">
			<data destination_type="f32" />
			<input>
				<port id="0" precision="BOOL">
					<dim>-1</dim>
					<dim>-1</dim>
				</port>
			</input>
			<output>
				<port id="1" precision="FP32">
					<dim>-1</dim>
					<dim>-1</dim>
				</port>
			</output>
		</layer>
		<layer id="218" name="Multiply_61319" type="Multiply" version="opset1">
			<data auto_broadcast="numpy" />
			<input>
				<port id="0" precision="FP32">
					<dim>1</dim>
					<dim>1</dim>
				</port>
				<port id="1" precision="FP32">
					<dim>-1</dim>
					<dim>-1</dim>
				</port>
			</input>
			<output>
				<port id="2" precision="FP32">
					<dim>-1</dim>
					<dim>-1</dim>
				</port>
			</output>
		</layer>
		<layer id="219" name="ShapeOf_61320" type="ShapeOf" version="opset3">
			<data output_type="i64" />
			<input>
				<port id="0" precision="FP32">
					<dim>-1</dim>
					<dim>-1</dim>
				</port>
			</input>
			<output>
				<port id="1" precision="I64">
					<dim>2</dim>
				</port>
			</output>
		</layer>
		<layer id="220" name="Maximum_61321" type="Maximum" version="opset1">
			<data auto_broadcast="numpy" />
			<input>
				<port id="0" precision="I64">
					<dim>2</dim>
				</port>
				<port id="1" precision="I64">
					<dim>2</dim>
				</port>
			</input>
			<output>
				<port id="2" precision="I64">
					<dim>2</dim>
				</port>
			</output>
		</layer>
		<layer id="221" name="__module.model/aten::mul_/Multiply" type="Broadcast" version="opset3">
			<data mode="numpy" />
			<input>
				<port id="0" precision="FP32">
					<dim>-1</dim>
					<dim>-1</dim>
				</port>
				<port id="1" precision="I64">
					<dim>2</dim>
				</port>
			</input>
			<output>
				<port id="2" precision="FP32" names="298,causal_mask.1">
					<dim>-1</dim>
					<dim>-1</dim>
				</port>
			</output>
		</layer>
		<layer id="222" name="220" type="Const" version="opset1">
			<data element_type="i64" shape="" offset="4" size="8" />
			<output>
				<port id="0" precision="I64" names="220" />
			</output>
		</layer>
		<layer id="223" name="__module.model/aten::unsqueeze/Unsqueeze" type="Unsqueeze" version="opset1">
			<input>
				<port id="0" precision="FP32">
					<dim>-1</dim>
					<dim>-1</dim>
				</port>
				<port id="1" precision="I64" />
			</input>
			<output>
				<port id="2" precision="FP32" names="310">
					<dim>1</dim>
					<dim>-1</dim>
					<dim>-1</dim>
				</port>
			</output>
		</layer>
		<layer id="224" name="__module.model/aten::unsqueeze/Unsqueeze_1" type="Unsqueeze" version="opset1">
			<input>
				<port id="0" precision="FP32">
					<dim>1</dim>
					<dim>-1</dim>
					<dim>-1</dim>
				</port>
				<port id="1" precision="I64" />
			</input>
			<output>
				<port id="2" precision="FP32" names="311,312,313">
					<dim>1</dim>
					<dim>1</dim>
					<dim>-1</dim>
					<dim>-1</dim>
				</port>
			</output>
		</layer>
		<layer id="225" name="Constant_58621" type="Const" version="opset1">
			<data element_type="i64" shape="1" offset="235070960" size="8" />
			<output>
				<port id="0" precision="I64">
					<dim>1</dim>
				</port>
			</output>
		</layer>
		<layer id="226" name="Constant_58623" type="Const" version="opset1">
			<data element_type="i64" shape="1" offset="235070960" size="8" />
			<output>
				<port id="0" precision="I64">
					<dim>1</dim>
				</port>
			</output>
		</layer>
		<layer id="227" name="Constant_58625" type="Const" version="opset1">
			<data element_type="i64" shape="1" offset="235070960" size="8" />
			<output>
				<port id="0" precision="I64">
					<dim>1</dim>
				</port>
			</output>
		</layer>
		<layer id="228" name="__module.model/prim::ListConstruct_1" type="Concat" version="opset1">
			<data axis="0" />
			<input>
				<port id="0" precision="I64">
					<dim>1</dim>
				</port>
				<port id="1" precision="I64">
					<dim>1</dim>
				</port>
				<port id="2" precision="I64">
					<dim>1</dim>
				</port>
				<port id="3" precision="I64">
					<dim>1</dim>
				</port>
			</input>
			<output>
				<port id="4" precision="I64">
					<dim>4</dim>
				</port>
			</output>
		</layer>
		<layer id="229" name="__module.model/aten::expand/Broadcast" type="Broadcast" version="opset3">
			<data mode="bidirectional" />
			<input>
				<port id="0" precision="FP32">
					<dim>1</dim>
					<dim>1</dim>
					<dim>-1</dim>
					<dim>-1</dim>
				</port>
				<port id="1" precision="I64">
					<dim>4</dim>
				</port>
			</input>
			<output>
				<port id="2" precision="FP32" names="315,318,319,320,329,330,331,334_1,335_1,336_1,causal_mask.5">
					<dim>-1</dim>
					<dim>1</dim>
					<dim>-1</dim>
					<dim>-1</dim>
				</port>
			</output>
		</layer>
		<layer id="230" name="Constant_48851" type="Const" version="opset1">
			<data element_type="i64" shape="1" offset="233841828" size="8" />
			<output>
				<port id="0" precision="I64">
					<dim>1</dim>
				</port>
			</output>
		</layer>
		<layer id="231" name="SliceAssign_422/Reshape_3" type="Reshape" version="opset1">
			<data special_zero="false" />
			<input>
				<port id="0" precision="FP32">
					<dim>-1</dim>
					<dim>1</dim>
					<dim>-1</dim>
					<dim>-1</dim>
				</port>
				<port id="1" precision="I64">
					<dim>1</dim>
				</port>
			</input>
			<output>
				<port id="2" precision="FP32">
					<dim>-1</dim>
				</port>
			</output>
		</layer>
		<layer id="232" name="Constant_32042" type="Const" version="opset1">
			<data element_type="i64" shape="" offset="4" size="8" />
			<output>
				<port id="0" precision="I64" />
			</output>
		</layer>
		<layer id="233" name="SliceAssign_422/ShapeOf" type="ShapeOf" version="opset3">
			<data output_type="i64" />
			<input>
				<port id="0" precision="FP32">
					<dim>-1</dim>
					<dim>1</dim>
					<dim>-1</dim>
					<dim>-1</dim>
				</port>
			</input>
			<output>
				<port id="1" precision="I64">
					<dim>4</dim>
				</port>
			</output>
		</layer>
		<layer id="234" name="SliceAssign_422/ReduceProd" type="ReduceProd" version="opset1">
			<data keep_dims="false" />
			<input>
				<port id="0" precision="I64">
					<dim>4</dim>
				</port>
				<port id="1" precision="I64" />
			</input>
			<output>
				<port id="2" precision="I64" />
			</output>
		</layer>
		<layer id="235" name="Constant_32043" type="Const" version="opset1">
			<data element_type="i64" shape="" offset="235070960" size="8" />
			<output>
				<port id="0" precision="I64" />
			</output>
		</layer>
		<layer id="236" name="SliceAssign_422/Range" type="Range" version="opset4">
			<data output_type="i64" />
			<input>
				<port id="0" precision="I64" />
				<port id="1" precision="I64" />
				<port id="2" precision="I64" />
			</input>
			<output>
				<port id="3" precision="I64">
					<dim>-1</dim>
				</port>
			</output>
		</layer>
		<layer id="237" name="SliceAssign_422/Reshape" type="Reshape" version="opset1">
			<data special_zero="false" />
			<input>
				<port id="0" precision="I64">
					<dim>-1</dim>
				</port>
				<port id="1" precision="I64">
					<dim>4</dim>
				</port>
			</input>
			<output>
				<port id="2" precision="I64">
					<dim>-1</dim>
					<dim>1</dim>
					<dim>-1</dim>
					<dim>-1</dim>
				</port>
			</output>
		</layer>
		<layer id="238" name="Constant_412" type="Const" version="opset1">
			<data element_type="i64" shape="1" offset="4" size="8" />
			<output>
				<port id="0" precision="I64">
					<dim>1</dim>
				</port>
			</output>
		</layer>
		<layer id="239" name="Constant_76996" type="Const" version="opset1">
			<data element_type="i64" shape="1" offset="235070960" size="8" />
			<output>
				<port id="0" precision="I64">
					<dim>1</dim>
				</port>
			</output>
		</layer>
		<layer id="240" name="Reshape_76997" type="Reshape" version="opset1">
			<data special_zero="false" />
			<input>
				<port id="0" precision="I64" />
				<port id="1" precision="I64">
					<dim>1</dim>
				</port>
			</input>
			<output>
				<port id="2" precision="I64">
					<dim>1</dim>
				</port>
			</output>
		</layer>
		<layer id="241" name="Constant_415" type="Const" version="opset1">
			<data element_type="i64" shape="1" offset="235070960" size="8" />
			<output>
				<port id="0" precision="I64">
					<dim>1</dim>
				</port>
			</output>
		</layer>
		<layer id="242" name="Constant_410" type="Const" version="opset1">
			<data element_type="i64" shape="1" offset="235070996" size="8" />
			<output>
				<port id="0" precision="I64">
					<dim>1</dim>
				</port>
			</output>
		</layer>
		<layer id="243" name="SliceAssign_422/Slice_2" type="Slice" version="opset8">
			<input>
				<port id="0" precision="I64">
					<dim>-1</dim>
					<dim>1</dim>
					<dim>-1</dim>
					<dim>-1</dim>
				</port>
				<port id="1" precision="I64">
					<dim>1</dim>
				</port>
				<port id="2" precision="I64">
					<dim>1</dim>
				</port>
				<port id="3" precision="I64">
					<dim>1</dim>
				</port>
				<port id="4" precision="I64">
					<dim>1</dim>
				</port>
			</input>
			<output>
				<port id="5" precision="I64">
					<dim>-1</dim>
					<dim>1</dim>
					<dim>-1</dim>
					<dim>-1</dim>
				</port>
			</output>
		</layer>
		<layer id="244" name="Constant_32045" type="Const" version="opset1">
			<data element_type="i64" shape="2" offset="235480720" size="16" />
			<output>
				<port id="0" precision="I64">
					<dim>2</dim>
				</port>
			</output>
		</layer>
		<layer id="245" name="SliceAssign_422/Reshape_4" type="Reshape" version="opset1">
			<data special_zero="false" />
			<input>
				<port id="0" precision="I64">
					<dim>-1</dim>
					<dim>1</dim>
					<dim>-1</dim>
					<dim>-1</dim>
				</port>
				<port id="1" precision="I64">
					<dim>2</dim>
				</port>
			</input>
			<output>
				<port id="2" precision="I64">
					<dim>-1</dim>
					<dim>1</dim>
				</port>
			</output>
		</layer>
		<layer id="246" name="Constant_294" type="Const" version="opset1">
			<data element_type="i64" shape="1" offset="4" size="8" />
			<output>
				<port id="0" precision="I64">
					<dim>1</dim>
				</port>
			</output>
		</layer>
		<layer id="247" name="Constant_297" type="Const" version="opset1">
			<data element_type="i64" shape="1" offset="235070960" size="8" />
			<output>
				<port id="0" precision="I64">
					<dim>1</dim>
				</port>
			</output>
		</layer>
		<layer id="248" name="Constant_292" type="Const" version="opset1">
			<data element_type="i64" shape="1" offset="235070996" size="8" />
			<output>
				<port id="0" precision="I64">
					<dim>1</dim>
				</port>
			</output>
		</layer>
		<layer id="249" name="__module.model/aten::slice/Slice_5" type="Slice" version="opset8">
			<input>
				<port id="0" precision="FP32">
					<dim>-1</dim>
					<dim>1</dim>
					<dim>-1</dim>
					<dim>-1</dim>
				</port>
				<port id="1" precision="I64">
					<dim>1</dim>
				</port>
				<port id="2" precision="I64">
					<dim>1</dim>
				</port>
				<port id="3" precision="I64">
					<dim>1</dim>
				</port>
				<port id="4" precision="I64">
					<dim>1</dim>
				</port>
			</input>
			<output>
				<port id="5" precision="FP32" names="321,332,337_1">
					<dim>-1</dim>
					<dim>1</dim>
					<dim>-1</dim>
					<dim>-1</dim>
				</port>
			</output>
		</layer>
		<layer id="250" name="__module.model/aten::unsqueeze/Unsqueeze_2" type="Unsqueeze" version="opset1">
			<input>
				<port id="0" precision="I64">
					<dim>-1</dim>
					<dim>-1</dim>
				</port>
				<port id="1" precision="I64" />
			</input>
			<output>
				<port id="2" precision="I64" names="323">
					<dim>-1</dim>
					<dim>1</dim>
					<dim>-1</dim>
				</port>
			</output>
		</layer>
		<layer id="251" name="__module.model/aten::unsqueeze/Unsqueeze_3" type="Unsqueeze" version="opset1">
			<input>
				<port id="0" precision="I64">
					<dim>-1</dim>
					<dim>1</dim>
					<dim>-1</dim>
				</port>
				<port id="1" precision="I64" />
			</input>
			<output>
				<port id="2" precision="I64" names="324,325,326">
					<dim>-1</dim>
					<dim>1</dim>
					<dim>1</dim>
					<dim>-1</dim>
				</port>
			</output>
		</layer>
		<layer id="252" name="__module.model/aten::add/Convert" type="Convert" version="opset1">
			<data destination_type="f32" />
			<input>
				<port id="0" precision="I64">
					<dim>-1</dim>
					<dim>1</dim>
					<dim>1</dim>
					<dim>-1</dim>
				</port>
			</input>
			<output>
				<port id="1" precision="FP32">
					<dim>-1</dim>
					<dim>1</dim>
					<dim>1</dim>
					<dim>-1</dim>
				</port>
			</output>
		</layer>
		<layer id="253" name="__module.model/aten::add/Add_1" type="Add" version="opset1">
			<data auto_broadcast="numpy" />
			<input>
				<port id="0" precision="FP32">
					<dim>-1</dim>
					<dim>1</dim>
					<dim>-1</dim>
					<dim>-1</dim>
				</port>
				<port id="1" precision="FP32">
					<dim>-1</dim>
					<dim>1</dim>
					<dim>1</dim>
					<dim>-1</dim>
				</port>
			</input>
			<output>
				<port id="2" precision="FP32" names="327,padding_mask.1">
					<dim>-1</dim>
					<dim>1</dim>
					<dim>-1</dim>
					<dim>-1</dim>
				</port>
			</output>
		</layer>
		<layer id="254" name="Constant_75243" type="Const" version="opset1">
			<data element_type="f32" shape="1, 1, 1, 1" offset="0" size="4" />
			<output>
				<port id="0" precision="FP32">
					<dim>1</dim>
					<dim>1</dim>
					<dim>1</dim>
					<dim>1</dim>
				</port>
			</output>
		</layer>
		<layer id="255" name="__module.model/aten::eq/Equal" type="Equal" version="opset1">
			<data auto_broadcast="numpy" />
			<input>
				<port id="0" precision="FP32">
					<dim>-1</dim>
					<dim>1</dim>
					<dim>-1</dim>
					<dim>-1</dim>
				</port>
				<port id="1" precision="FP32">
					<dim>1</dim>
					<dim>1</dim>
					<dim>1</dim>
					<dim>1</dim>
				</port>
			</input>
			<output>
				<port id="2" precision="BOOL" names="328,padding_mask">
					<dim>-1</dim>
					<dim>1</dim>
					<dim>-1</dim>
					<dim>-1</dim>
				</port>
			</output>
		</layer>
		<layer id="256" name="__module.model/aten::full/Convert" type="Const" version="opset1">
			<data element_type="f32" shape="" offset="235480712" size="4" />
			<output>
				<port id="0" precision="FP32" />
			</output>
		</layer>
		<layer id="257" name="__module.model/aten::masked_fill/Select" type="Select" version="opset1">
			<data auto_broadcast="numpy" />
			<input>
				<port id="0" precision="BOOL">
					<dim>-1</dim>
					<dim>1</dim>
					<dim>-1</dim>
					<dim>-1</dim>
				</port>
				<port id="1" precision="FP32" />
				<port id="2" precision="FP32">
					<dim>-1</dim>
					<dim>1</dim>
					<dim>-1</dim>
					<dim>-1</dim>
				</port>
			</input>
			<output>
				<port id="3" precision="FP32" names="333">
					<dim>-1</dim>
					<dim>1</dim>
					<dim>-1</dim>
					<dim>-1</dim>
				</port>
			</output>
		</layer>
		<layer id="258" name="__module.model/aten::copy_/ShapeOf" type="ShapeOf" version="opset3">
			<data output_type="i64" />
			<input>
				<port id="0" precision="FP32">
					<dim>-1</dim>
					<dim>1</dim>
					<dim>-1</dim>
					<dim>-1</dim>
				</port>
			</input>
			<output>
				<port id="1" precision="I64">
					<dim>4</dim>
				</port>
			</output>
		</layer>
		<layer id="259" name="__module.model/aten::copy_/Broadcast" type="Broadcast" version="opset3">
			<data mode="numpy" />
			<input>
				<port id="0" precision="FP32">
					<dim>-1</dim>
					<dim>1</dim>
					<dim>-1</dim>
					<dim>-1</dim>
				</port>
				<port id="1" precision="I64">
					<dim>4</dim>
				</port>
			</input>
			<output>
				<port id="2" precision="FP32" names="337">
					<dim>-1</dim>
					<dim>1</dim>
					<dim>-1</dim>
					<dim>-1</dim>
				</port>
			</output>
		</layer>
		<layer id="260" name="Constant_48853" type="Const" version="opset1">
			<data element_type="i64" shape="1" offset="233841828" size="8" />
			<output>
				<port id="0" precision="I64">
					<dim>1</dim>
				</port>
			</output>
		</layer>
		<layer id="261" name="SliceAssign_422/Reshape_5" type="Reshape" version="opset1">
			<data special_zero="false" />
			<input>
				<port id="0" precision="FP32">
					<dim>-1</dim>
					<dim>1</dim>
					<dim>-1</dim>
					<dim>-1</dim>
				</port>
				<port id="1" precision="I64">
					<dim>1</dim>
				</port>
			</input>
			<output>
				<port id="2" precision="FP32">
					<dim>-1</dim>
				</port>
			</output>
		</layer>
		<layer id="262" name="SliceAssign_422/ScatterNDUpdate" type="ScatterNDUpdate" version="opset4">
			<input>
				<port id="0" precision="FP32">
					<dim>-1</dim>
				</port>
				<port id="1" precision="I64">
					<dim>-1</dim>
					<dim>1</dim>
				</port>
				<port id="2" precision="FP32">
					<dim>-1</dim>
				</port>
			</input>
			<output>
				<port id="3" precision="FP32">
					<dim>-1</dim>
				</port>
			</output>
		</layer>
		<layer id="263" name="SliceAssign_422/Reshape_6" type="Reshape" version="opset1">
			<data special_zero="false" />
			<input>
				<port id="0" precision="FP32">
					<dim>-1</dim>
				</port>
				<port id="1" precision="I64">
					<dim>4</dim>
				</port>
			</input>
			<output>
				<port id="2" precision="FP32" names="1126,1127,1128,1287,1288,1289,1448,1449,1450,1609,1610,1611,1770,1771,1772,1931,1932,1933,2092,2093,2094,2253,2254,2255,2414,2415,2416,2575,2576,2577,2736,2737,2738,2897,2898,2899,3058,3059,3060,316,3219,3220,3221,3380,3381,3382,3541,3542,3543,3702,3703,3704,3863,3864,3865,4024,4025,4026,4185,4186,4187,4346,4347,4348,4507,4508,4509,4668,4669,4670,482,4829,483,4830,4831,484,643,644,645,804,805,806,965,966,967">
					<dim>-1</dim>
					<dim>1</dim>
					<dim>-1</dim>
					<dim>-1</dim>
				</port>
			</output>
		</layer>
		<layer id="264" name="Constant_1527" type="Const" version="opset1">
			<data element_type="i64" shape="1" offset="4" size="8" />
			<output>
				<port id="0" precision="I64">
					<dim>1</dim>
				</port>
			</output>
		</layer>
		<layer id="265" name="Constant_1530" type="Const" version="opset1">
			<data element_type="i64" shape="1" offset="235070960" size="8" />
			<output>
				<port id="0" precision="I64">
					<dim>1</dim>
				</port>
			</output>
		</layer>
		<layer id="266" name="Constant_1525" type="Const" version="opset1">
			<data element_type="i64" shape="1" offset="235070996" size="8" />
			<output>
				<port id="0" precision="I64">
					<dim>1</dim>
				</port>
			</output>
		</layer>
		<layer id="267" name="__module.model.layers.0.self_attn/aten::slice/Slice_15" type="Slice" version="opset8">
			<input>
				<port id="0" precision="FP32">
					<dim>-1</dim>
					<dim>1</dim>
					<dim>-1</dim>
					<dim>-1</dim>
				</port>
				<port id="1" precision="I64">
					<dim>1</dim>
				</port>
				<port id="2" precision="I64">
					<dim>1</dim>
				</port>
				<port id="3" precision="I64">
					<dim>1</dim>
				</port>
				<port id="4" precision="I64">
					<dim>1</dim>
				</port>
			</input>
			<output>
				<port id="5" precision="FP32" names="1129,1290,1451,1612,1773,1934,2095,2256,2417,2578,2739,2900,3061,3222,3383,3544,3705,3866,4027,4188,4349,4510,4671,4832,485,646,807,968">
					<dim>-1</dim>
					<dim>1</dim>
					<dim>-1</dim>
					<dim>-1</dim>
				</port>
			</output>
		</layer>
		<layer id="268" name="__module.model.layers.0.self_attn/aten::scaled_dot_product_attention/ConvertLike" type="Const" version="opset1">
			<data element_type="f32" shape="" offset="235480740" size="4" />
			<output>
				<port id="0" precision="FP32" />
			</output>
		</layer>
		<layer id="269" name="__module.model.layers.0.self_attn/aten::scaled_dot_product_attention/ScaledDotProductAttention" type="ScaledDotProductAttention" version="opset13">
			<data causal="false" />
			<input>
				<port id="0" precision="FP32">
					<dim>-1</dim>
					<dim>12</dim>
					<dim>-1</dim>
					<dim>128</dim>
				</port>
				<port id="1" precision="FP32">
					<dim>-1</dim>
					<dim>12</dim>
					<dim>-1</dim>
					<dim>128</dim>
				</port>
				<port id="2" precision="FP32">
					<dim>-1</dim>
					<dim>12</dim>
					<dim>-1</dim>
					<dim>128</dim>
				</port>
				<port id="3" precision="FP32">
					<dim>-1</dim>
					<dim>1</dim>
					<dim>-1</dim>
					<dim>-1</dim>
				</port>
				<port id="4" precision="FP32" />
			</input>
			<output>
				<port id="5" precision="FP32" names="489,attn_output.1">
					<dim>-1</dim>
					<dim>12</dim>
					<dim>-1</dim>
					<dim>128</dim>
				</port>
			</output>
		</layer>
		<layer id="270" name="__module.model.layers.0.self_attn/aten::transpose/Constant_3" type="Const" version="opset1">
			<data element_type="i32" shape="4" offset="235070688" size="16" />
			<output>
				<port id="0" precision="I32">
					<dim>4</dim>
				</port>
			</output>
		</layer>
		<layer id="271" name="__module.model.layers.0.self_attn/aten::transpose/Transpose_3" type="Transpose" version="opset1">
			<input>
				<port id="0" precision="FP32">
					<dim>-1</dim>
					<dim>12</dim>
					<dim>-1</dim>
					<dim>128</dim>
				</port>
				<port id="1" precision="I32">
					<dim>4</dim>
				</port>
			</input>
			<output>
				<port id="2" precision="FP32" names="490">
					<dim>-1</dim>
					<dim>-1</dim>
					<dim>12</dim>
					<dim>128</dim>
				</port>
			</output>
		</layer>
		<layer id="272" name="Constant_60526" type="Const" version="opset1">
			<data element_type="i64" shape="2" offset="235275856" size="16" />
			<output>
				<port id="0" precision="I64">
					<dim>2</dim>
				</port>
			</output>
		</layer>
		<layer id="273" name="Constant_60527" type="Const" version="opset1">
			<data element_type="i64" shape="" offset="4" size="8" />
			<output>
				<port id="0" precision="I64" />
			</output>
		</layer>
		<layer id="274" name="Gather_60528" type="Gather" version="opset8">
			<data batch_dims="0" />
			<input>
				<port id="0" precision="I64">
					<dim>3</dim>
				</port>
				<port id="1" precision="I64">
					<dim>2</dim>
				</port>
				<port id="2" precision="I64" />
			</input>
			<output>
				<port id="3" precision="I64">
					<dim>2</dim>
				</port>
			</output>
		</layer>
		<layer id="275" name="Constant_1572" type="Const" version="opset1">
			<data element_type="i64" shape="1" offset="233841828" size="8" />
			<output>
				<port id="0" precision="I64">
					<dim>1</dim>
				</port>
			</output>
		</layer>
		<layer id="276" name="__module.model.layers.0.self_attn/prim::ListConstruct_7" type="Concat" version="opset1">
			<data axis="0" />
			<input>
				<port id="0" precision="I64">
					<dim>2</dim>
				</port>
				<port id="1" precision="I64">
					<dim>1</dim>
				</port>
			</input>
			<output>
				<port id="2" precision="I64">
					<dim>3</dim>
				</port>
			</output>
		</layer>
		<layer id="277" name="__module.model.layers.0.self_attn/aten::reshape/Reshape_2" type="Reshape" version="opset1">
			<data special_zero="false" />
			<input>
				<port id="0" precision="FP32">
					<dim>-1</dim>
					<dim>-1</dim>
					<dim>12</dim>
					<dim>128</dim>
				</port>
				<port id="1" precision="I64">
					<dim>3</dim>
				</port>
			</input>
			<output>
				<port id="2" precision="FP32" names="493">
					<dim>-1</dim>
					<dim>-1</dim>
					<dim>-1</dim>
				</port>
			</output>
		</layer>
		<layer id="278" name="self.model.layers.0.self_attn.o_proj.weight" type="Const" version="opset1">
			<data element_type="u4" shape="1536, 12, 128" offset="235480744" size="1179648" />
			<output>
				<port id="0" precision="U4">
					<dim>1536</dim>
					<dim>12</dim>
					<dim>128</dim>
				</port>
			</output>
		</layer>
		<layer id="279" name="Convert_546611" type="Convert" version="opset1">
			<data destination_type="f16" />
			<input>
				<port id="0" precision="U4">
					<dim>1536</dim>
					<dim>12</dim>
					<dim>128</dim>
				</port>
			</input>
			<output>
				<port id="1" precision="FP16">
					<dim>1536</dim>
					<dim>12</dim>
					<dim>128</dim>
				</port>
			</output>
		</layer>
		<layer id="280" name="self.model.layers.0.self_attn.o_proj.weight/zero_point" type="Const" version="opset1">
			<data element_type="u4" shape="1536, 12, 1" offset="236660392" size="9216" />
			<output>
				<port id="0" precision="U4">
					<dim>1536</dim>
					<dim>12</dim>
					<dim>1</dim>
				</port>
			</output>
		</layer>
		<layer id="281" name="Convert_546614" type="Convert" version="opset1">
			<data destination_type="f16" />
			<input>
				<port id="0" precision="U4">
					<dim>1536</dim>
					<dim>12</dim>
					<dim>1</dim>
				</port>
			</input>
			<output>
				<port id="1" precision="FP16">
					<dim>1536</dim>
					<dim>12</dim>
					<dim>1</dim>
				</port>
			</output>
		</layer>
		<layer id="282" name="self.model.layers.0.self_attn.o_proj.weight/zero_point/subtract" type="Subtract" version="opset1">
			<data auto_broadcast="numpy" />
			<input>
				<port id="0" precision="FP16">
					<dim>1536</dim>
					<dim>12</dim>
					<dim>128</dim>
				</port>
				<port id="1" precision="FP16">
					<dim>1536</dim>
					<dim>12</dim>
					<dim>1</dim>
				</port>
			</input>
			<output>
				<port id="2" precision="FP16">
					<dim>1536</dim>
					<dim>12</dim>
					<dim>128</dim>
				</port>
			</output>
		</layer>
		<layer id="283" name="self.model.layers.0.self_attn.o_proj.weight/scale" type="Const" version="opset1">
			<data element_type="f16" shape="1536, 12, 1" offset="236669608" size="36864" />
			<output>
				<port id="0" precision="FP16">
					<dim>1536</dim>
					<dim>12</dim>
					<dim>1</dim>
				</port>
			</output>
		</layer>
		<layer id="284" name="self.model.layers.0.self_attn.o_proj.weight/fq_weights_1" type="Multiply" version="opset1">
			<data auto_broadcast="numpy" />
			<input>
				<port id="0" precision="FP16">
					<dim>1536</dim>
					<dim>12</dim>
					<dim>128</dim>
				</port>
				<port id="1" precision="FP16">
					<dim>1536</dim>
					<dim>12</dim>
					<dim>1</dim>
				</port>
			</input>
			<output>
				<port id="2" precision="FP16">
					<dim>1536</dim>
					<dim>12</dim>
					<dim>128</dim>
				</port>
			</output>
		</layer>
		<layer id="285" name="Constant_546619" type="Const" version="opset1">
			<data element_type="i64" shape="2" offset="235067568" size="16" />
			<output>
				<port id="0" precision="I64">
					<dim>2</dim>
				</port>
			</output>
		</layer>
		<layer id="286" name="Reshape_546620" type="Reshape" version="opset1">
			<data special_zero="false" />
			<input>
				<port id="0" precision="FP16">
					<dim>1536</dim>
					<dim>12</dim>
					<dim>128</dim>
				</port>
				<port id="1" precision="I64">
					<dim>2</dim>
				</port>
			</input>
			<output>
				<port id="2" precision="FP16">
					<dim>1536</dim>
					<dim>1536</dim>
				</port>
			</output>
		</layer>
		<layer id="287" name="__module.model.layers.0.self_attn.o_proj/ov_ext::linear/Convert" type="Convert" version="opset1">
			<data destination_type="f32" />
			<rt_info>
				<attribute name="decompression" version="0" />
			</rt_info>
			<input>
				<port id="0" precision="FP16">
					<dim>1536</dim>
					<dim>1536</dim>
				</port>
			</input>
			<output>
				<port id="1" precision="FP32">
					<dim>1536</dim>
					<dim>1536</dim>
				</port>
			</output>
		</layer>
		<layer id="288" name="__module.model.layers.0.self_attn.o_proj/ov_ext::linear/MatMul" type="MatMul" version="opset1">
			<data transpose_a="false" transpose_b="true" />
			<input>
				<port id="0" precision="FP32">
					<dim>-1</dim>
					<dim>-1</dim>
					<dim>-1</dim>
				</port>
				<port id="1" precision="FP32">
					<dim>1536</dim>
					<dim>1536</dim>
				</port>
			</input>
			<output>
				<port id="2" precision="FP32" names="496,498,hidden_states.17">
					<dim>-1</dim>
					<dim>-1</dim>
					<dim>1536</dim>
				</port>
			</output>
		</layer>
		<layer id="289" name="__module.model.layers.0/aten::add/Add" type="Add" version="opset1">
			<data auto_broadcast="numpy" />
			<input>
				<port id="0" precision="FP32">
					<dim>-1</dim>
					<dim>-1</dim>
					<dim>1536</dim>
				</port>
				<port id="1" precision="FP32">
					<dim>-1</dim>
					<dim>-1</dim>
					<dim>1536</dim>
				</port>
			</input>
			<output>
				<port id="2" precision="FP32" names="501,503,514,hidden_states.19,hidden_states.21">
					<dim>-1</dim>
					<dim>-1</dim>
					<dim>1536</dim>
				</port>
			</output>
		</layer>
		<layer id="290" name="Constant_75247" type="Const" version="opset1">
			<data element_type="f32" shape="1, 1, 1536" offset="236706472" size="6144" />
			<output>
				<port id="0" precision="FP32">
					<dim>1</dim>
					<dim>1</dim>
					<dim>1536</dim>
				</port>
			</output>
		</layer>
		<layer id="291" name="Constant_75246" type="Const" version="opset1">
			<data element_type="f32" shape="1, 1, 1" offset="233841820" size="4" />
			<output>
				<port id="0" precision="FP32">
					<dim>1</dim>
					<dim>1</dim>
					<dim>1</dim>
				</port>
			</output>
		</layer>
		<layer id="292" name="Constant_75244" type="Const" version="opset1">
			<data element_type="f32" shape="1, 1, 1" offset="233841824" size="4" />
			<output>
				<port id="0" precision="FP32">
					<dim>1</dim>
					<dim>1</dim>
					<dim>1</dim>
				</port>
			</output>
		</layer>
		<layer id="293" name="__module.model.layers.0.post_attention_layernorm/aten::pow/Power" type="Power" version="opset1">
			<data auto_broadcast="numpy" />
			<input>
				<port id="0" precision="FP32">
					<dim>-1</dim>
					<dim>-1</dim>
					<dim>1536</dim>
				</port>
				<port id="1" precision="FP32">
					<dim>1</dim>
					<dim>1</dim>
					<dim>1</dim>
				</port>
			</input>
			<output>
				<port id="2" precision="FP32" names="504">
					<dim>-1</dim>
					<dim>-1</dim>
					<dim>1536</dim>
				</port>
			</output>
		</layer>
		<layer id="294" name="Constant_1600" type="Const" version="opset1">
			<data element_type="i64" shape="1" offset="233841828" size="8" />
			<output>
				<port id="0" precision="I64" names="505">
					<dim>1</dim>
				</port>
			</output>
		</layer>
		<layer id="295" name="__module.model.layers.0.post_attention_layernorm/aten::mean/ReduceMean" type="ReduceMean" version="opset1">
			<data keep_dims="true" />
			<input>
				<port id="0" precision="FP32">
					<dim>-1</dim>
					<dim>-1</dim>
					<dim>1536</dim>
				</port>
				<port id="1" precision="I64">
					<dim>1</dim>
				</port>
			</input>
			<output>
				<port id="2" precision="FP32" names="506,variance.3">
					<dim>-1</dim>
					<dim>-1</dim>
					<dim>1</dim>
				</port>
			</output>
		</layer>
		<layer id="296" name="Constant_75245" type="Const" version="opset1">
			<data element_type="f32" shape="1, 1, 1" offset="233841836" size="4" />
			<output>
				<port id="0" precision="FP32">
					<dim>1</dim>
					<dim>1</dim>
					<dim>1</dim>
				</port>
			</output>
		</layer>
		<layer id="297" name="__module.model.layers.0.post_attention_layernorm/aten::add/Add" type="Add" version="opset1">
			<data auto_broadcast="numpy" />
			<input>
				<port id="0" precision="FP32">
					<dim>-1</dim>
					<dim>-1</dim>
					<dim>1</dim>
				</port>
				<port id="1" precision="FP32">
					<dim>1</dim>
					<dim>1</dim>
					<dim>1</dim>
				</port>
			</input>
			<output>
				<port id="2" precision="FP32" names="507">
					<dim>-1</dim>
					<dim>-1</dim>
					<dim>1</dim>
				</port>
			</output>
		</layer>
		<layer id="298" name="__module.model.layers.0.post_attention_layernorm/aten::rsqrt/Sqrt" type="Sqrt" version="opset1">
			<input>
				<port id="0" precision="FP32">
					<dim>-1</dim>
					<dim>-1</dim>
					<dim>1</dim>
				</port>
			</input>
			<output>
				<port id="1" precision="FP32">
					<dim>-1</dim>
					<dim>-1</dim>
					<dim>1</dim>
				</port>
			</output>
		</layer>
		<layer id="299" name="__module.model.layers.0.post_attention_layernorm/aten::rsqrt/Divide" type="Divide" version="opset1">
			<data auto_broadcast="numpy" m_pythondiv="true" />
			<input>
				<port id="0" precision="FP32">
					<dim>1</dim>
					<dim>1</dim>
					<dim>1</dim>
				</port>
				<port id="1" precision="FP32">
					<dim>-1</dim>
					<dim>-1</dim>
					<dim>1</dim>
				</port>
			</input>
			<output>
				<port id="2" precision="FP32" names="508">
					<dim>-1</dim>
					<dim>-1</dim>
					<dim>1</dim>
				</port>
			</output>
		</layer>
		<layer id="300" name="__module.model.layers.0.post_attention_layernorm/aten::mul/Multiply" type="Multiply" version="opset1">
			<data auto_broadcast="numpy" />
			<input>
				<port id="0" precision="FP32">
					<dim>-1</dim>
					<dim>-1</dim>
					<dim>1536</dim>
				</port>
				<port id="1" precision="FP32">
					<dim>-1</dim>
					<dim>-1</dim>
					<dim>1</dim>
				</port>
			</input>
			<output>
				<port id="2" precision="FP32" names="509,510,hidden_states.23,hidden_states.25">
					<dim>-1</dim>
					<dim>-1</dim>
					<dim>1536</dim>
				</port>
			</output>
		</layer>
		<layer id="301" name="__module.model.layers.0.post_attention_layernorm/aten::mul/Multiply_1" type="Multiply" version="opset1">
			<data auto_broadcast="numpy" />
			<input>
				<port id="0" precision="FP32">
					<dim>1</dim>
					<dim>1</dim>
					<dim>1536</dim>
				</port>
				<port id="1" precision="FP32">
					<dim>-1</dim>
					<dim>-1</dim>
					<dim>1536</dim>
				</port>
			</input>
			<output>
				<port id="2" precision="FP32" names="511,513">
					<dim>-1</dim>
					<dim>-1</dim>
					<dim>1536</dim>
				</port>
			</output>
		</layer>
		<layer id="302" name="self.model.layers.0.mlp.gate_proj.weight" type="Const" version="opset1">
			<data element_type="u4" shape="8960, 12, 128" offset="236712616" size="6881280" />
			<output>
				<port id="0" precision="U4">
					<dim>8960</dim>
					<dim>12</dim>
					<dim>128</dim>
				</port>
			</output>
		</layer>
		<layer id="303" name="Convert_116167" type="Convert" version="opset1">
			<data destination_type="f16" />
			<input>
				<port id="0" precision="U4">
					<dim>8960</dim>
					<dim>12</dim>
					<dim>128</dim>
				</port>
			</input>
			<output>
				<port id="1" precision="FP16">
					<dim>8960</dim>
					<dim>12</dim>
					<dim>128</dim>
				</port>
			</output>
		</layer>
		<layer id="304" name="self.model.layers.0.mlp.gate_proj.weight/zero_point" type="Const" version="opset1">
			<data element_type="u4" shape="8960, 12, 1" offset="243593896" size="53760" />
			<output>
				<port id="0" precision="U4">
					<dim>8960</dim>
					<dim>12</dim>
					<dim>1</dim>
				</port>
			</output>
		</layer>
		<layer id="305" name="Convert_116170" type="Convert" version="opset1">
			<data destination_type="f16" />
			<input>
				<port id="0" precision="U4">
					<dim>8960</dim>
					<dim>12</dim>
					<dim>1</dim>
				</port>
			</input>
			<output>
				<port id="1" precision="FP16">
					<dim>8960</dim>
					<dim>12</dim>
					<dim>1</dim>
				</port>
			</output>
		</layer>
		<layer id="306" name="self.model.layers.0.mlp.gate_proj.weight/zero_point/subtract" type="Subtract" version="opset1">
			<data auto_broadcast="numpy" />
			<input>
				<port id="0" precision="FP16">
					<dim>8960</dim>
					<dim>12</dim>
					<dim>128</dim>
				</port>
				<port id="1" precision="FP16">
					<dim>8960</dim>
					<dim>12</dim>
					<dim>1</dim>
				</port>
			</input>
			<output>
				<port id="2" precision="FP16">
					<dim>8960</dim>
					<dim>12</dim>
					<dim>128</dim>
				</port>
			</output>
		</layer>
		<layer id="307" name="self.model.layers.0.mlp.gate_proj.weight/scale" type="Const" version="opset1">
			<data element_type="f16" shape="8960, 12, 1" offset="243647656" size="215040" />
			<output>
				<port id="0" precision="FP16">
					<dim>8960</dim>
					<dim>12</dim>
					<dim>1</dim>
				</port>
			</output>
		</layer>
		<layer id="308" name="self.model.layers.0.mlp.gate_proj.weight/fq_weights_1" type="Multiply" version="opset1">
			<data auto_broadcast="numpy" />
			<input>
				<port id="0" precision="FP16">
					<dim>8960</dim>
					<dim>12</dim>
					<dim>128</dim>
				</port>
				<port id="1" precision="FP16">
					<dim>8960</dim>
					<dim>12</dim>
					<dim>1</dim>
				</port>
			</input>
			<output>
				<port id="2" precision="FP16">
					<dim>8960</dim>
					<dim>12</dim>
					<dim>128</dim>
				</port>
			</output>
		</layer>
		<layer id="309" name="Constant_116175" type="Const" version="opset1">
			<data element_type="i64" shape="2" offset="243862696" size="16" />
			<output>
				<port id="0" precision="I64">
					<dim>2</dim>
				</port>
			</output>
		</layer>
		<layer id="310" name="Reshape_116176" type="Reshape" version="opset1">
			<data special_zero="false" />
			<input>
				<port id="0" precision="FP16">
					<dim>8960</dim>
					<dim>12</dim>
					<dim>128</dim>
				</port>
				<port id="1" precision="I64">
					<dim>2</dim>
				</port>
			</input>
			<output>
				<port id="2" precision="FP16">
					<dim>8960</dim>
					<dim>1536</dim>
				</port>
			</output>
		</layer>
		<layer id="311" name="__module.model.layers.0.mlp.gate_proj/ov_ext::linear/Convert" type="Convert" version="opset1">
			<data destination_type="f32" />
			<rt_info>
				<attribute name="decompression" version="0" />
			</rt_info>
			<input>
				<port id="0" precision="FP16">
					<dim>8960</dim>
					<dim>1536</dim>
				</port>
			</input>
			<output>
				<port id="1" precision="FP32">
					<dim>8960</dim>
					<dim>1536</dim>
				</port>
			</output>
		</layer>
		<layer id="312" name="__module.model.layers.0.mlp.gate_proj/ov_ext::linear/MatMul" type="MatMul" version="opset1">
			<data transpose_a="false" transpose_b="true" />
			<input>
				<port id="0" precision="FP32">
					<dim>-1</dim>
					<dim>-1</dim>
					<dim>1536</dim>
				</port>
				<port id="1" precision="FP32">
					<dim>8960</dim>
					<dim>1536</dim>
				</port>
			</input>
			<output>
				<port id="2" precision="FP32" names="519,input.1">
					<dim>-1</dim>
					<dim>-1</dim>
					<dim>8960</dim>
				</port>
			</output>
		</layer>
		<layer id="313" name="__module.model.layers.0.mlp.act_fn/aten::silu/Swish" type="Swish" version="opset4">
			<input>
				<port id="0" precision="FP32">
					<dim>-1</dim>
					<dim>-1</dim>
					<dim>8960</dim>
				</port>
			</input>
			<output>
				<port id="1" precision="FP32" names="520">
					<dim>-1</dim>
					<dim>-1</dim>
					<dim>8960</dim>
				</port>
			</output>
		</layer>
		<layer id="314" name="self.model.layers.0.mlp.up_proj.weight" type="Const" version="opset1">
			<data element_type="u4" shape="8960, 12, 128" offset="243862712" size="6881280" />
			<output>
				<port id="0" precision="U4">
					<dim>8960</dim>
					<dim>12</dim>
					<dim>128</dim>
				</port>
			</output>
		</layer>
		<layer id="315" name="Convert_111066" type="Convert" version="opset1">
			<data destination_type="f16" />
			<input>
				<port id="0" precision="U4">
					<dim>8960</dim>
					<dim>12</dim>
					<dim>128</dim>
				</port>
			</input>
			<output>
				<port id="1" precision="FP16">
					<dim>8960</dim>
					<dim>12</dim>
					<dim>128</dim>
				</port>
			</output>
		</layer>
		<layer id="316" name="self.model.layers.0.mlp.up_proj.weight/zero_point" type="Const" version="opset1">
			<data element_type="u4" shape="8960, 12, 1" offset="250743992" size="53760" />
			<output>
				<port id="0" precision="U4">
					<dim>8960</dim>
					<dim>12</dim>
					<dim>1</dim>
				</port>
			</output>
		</layer>
		<layer id="317" name="Convert_111069" type="Convert" version="opset1">
			<data destination_type="f16" />
			<input>
				<port id="0" precision="U4">
					<dim>8960</dim>
					<dim>12</dim>
					<dim>1</dim>
				</port>
			</input>
			<output>
				<port id="1" precision="FP16">
					<dim>8960</dim>
					<dim>12</dim>
					<dim>1</dim>
				</port>
			</output>
		</layer>
		<layer id="318" name="self.model.layers.0.mlp.up_proj.weight/zero_point/subtract" type="Subtract" version="opset1">
			<data auto_broadcast="numpy" />
			<input>
				<port id="0" precision="FP16">
					<dim>8960</dim>
					<dim>12</dim>
					<dim>128</dim>
				</port>
				<port id="1" precision="FP16">
					<dim>8960</dim>
					<dim>12</dim>
					<dim>1</dim>
				</port>
			</input>
			<output>
				<port id="2" precision="FP16">
					<dim>8960</dim>
					<dim>12</dim>
					<dim>128</dim>
				</port>
			</output>
		</layer>
		<layer id="319" name="self.model.layers.0.mlp.up_proj.weight/scale" type="Const" version="opset1">
			<data element_type="f16" shape="8960, 12, 1" offset="250797752" size="215040" />
			<output>
				<port id="0" precision="FP16">
					<dim>8960</dim>
					<dim>12</dim>
					<dim>1</dim>
				</port>
			</output>
		</layer>
		<layer id="320" name="self.model.layers.0.mlp.up_proj.weight/fq_weights_1" type="Multiply" version="opset1">
			<data auto_broadcast="numpy" />
			<input>
				<port id="0" precision="FP16">
					<dim>8960</dim>
					<dim>12</dim>
					<dim>128</dim>
				</port>
				<port id="1" precision="FP16">
					<dim>8960</dim>
					<dim>12</dim>
					<dim>1</dim>
				</port>
			</input>
			<output>
				<port id="2" precision="FP16">
					<dim>8960</dim>
					<dim>12</dim>
					<dim>128</dim>
				</port>
			</output>
		</layer>
		<layer id="321" name="Constant_111074" type="Const" version="opset1">
			<data element_type="i64" shape="2" offset="243862696" size="16" />
			<output>
				<port id="0" precision="I64">
					<dim>2</dim>
				</port>
			</output>
		</layer>
		<layer id="322" name="Reshape_111075" type="Reshape" version="opset1">
			<data special_zero="false" />
			<input>
				<port id="0" precision="FP16">
					<dim>8960</dim>
					<dim>12</dim>
					<dim>128</dim>
				</port>
				<port id="1" precision="I64">
					<dim>2</dim>
				</port>
			</input>
			<output>
				<port id="2" precision="FP16">
					<dim>8960</dim>
					<dim>1536</dim>
				</port>
			</output>
		</layer>
		<layer id="323" name="__module.model.layers.0.mlp.up_proj/ov_ext::linear/Convert" type="Convert" version="opset1">
			<data destination_type="f32" />
			<rt_info>
				<attribute name="decompression" version="0" />
			</rt_info>
			<input>
				<port id="0" precision="FP16">
					<dim>8960</dim>
					<dim>1536</dim>
				</port>
			</input>
			<output>
				<port id="1" precision="FP32">
					<dim>8960</dim>
					<dim>1536</dim>
				</port>
			</output>
		</layer>
		<layer id="324" name="__module.model.layers.0.mlp.up_proj/ov_ext::linear/MatMul" type="MatMul" version="opset1">
			<data transpose_a="false" transpose_b="true" />
			<input>
				<port id="0" precision="FP32">
					<dim>-1</dim>
					<dim>-1</dim>
					<dim>1536</dim>
				</port>
				<port id="1" precision="FP32">
					<dim>8960</dim>
					<dim>1536</dim>
				</port>
			</input>
			<output>
				<port id="2" precision="FP32" names="522">
					<dim>-1</dim>
					<dim>-1</dim>
					<dim>8960</dim>
				</port>
			</output>
		</layer>
		<layer id="325" name="__module.model.layers.0.mlp/aten::mul/Multiply" type="Multiply" version="opset1">
			<data auto_broadcast="numpy" />
			<input>
				<port id="0" precision="FP32">
					<dim>-1</dim>
					<dim>-1</dim>
					<dim>8960</dim>
				</port>
				<port id="1" precision="FP32">
					<dim>-1</dim>
					<dim>-1</dim>
					<dim>8960</dim>
				</port>
			</input>
			<output>
				<port id="2" precision="FP32" names="523">
					<dim>-1</dim>
					<dim>-1</dim>
					<dim>8960</dim>
				</port>
			</output>
		</layer>
		<layer id="326" name="self.model.layers.0.mlp.down_proj.weight" type="Const" version="opset1">
			<data element_type="u4" shape="1536, 70, 128" offset="251012792" size="6881280" />
			<output>
				<port id="0" precision="U4">
					<dim>1536</dim>
					<dim>70</dim>
					<dim>128</dim>
				</port>
			</output>
		</layer>
		<layer id="327" name="Convert_121338" type="Convert" version="opset1">
			<data destination_type="f16" />
			<input>
				<port id="0" precision="U4">
					<dim>1536</dim>
					<dim>70</dim>
					<dim>128</dim>
				</port>
			</input>
			<output>
				<port id="1" precision="FP16">
					<dim>1536</dim>
					<dim>70</dim>
					<dim>128</dim>
				</port>
			</output>
		</layer>
		<layer id="328" name="self.model.layers.0.mlp.down_proj.weight/zero_point" type="Const" version="opset1">
			<data element_type="u4" shape="1536, 70, 1" offset="257894072" size="53760" />
			<output>
				<port id="0" precision="U4">
					<dim>1536</dim>
					<dim>70</dim>
					<dim>1</dim>
				</port>
			</output>
		</layer>
		<layer id="329" name="Convert_121341" type="Convert" version="opset1">
			<data destination_type="f16" />
			<input>
				<port id="0" precision="U4">
					<dim>1536</dim>
					<dim>70</dim>
					<dim>1</dim>
				</port>
			</input>
			<output>
				<port id="1" precision="FP16">
					<dim>1536</dim>
					<dim>70</dim>
					<dim>1</dim>
				</port>
			</output>
		</layer>
		<layer id="330" name="self.model.layers.0.mlp.down_proj.weight/zero_point/subtract" type="Subtract" version="opset1">
			<data auto_broadcast="numpy" />
			<input>
				<port id="0" precision="FP16">
					<dim>1536</dim>
					<dim>70</dim>
					<dim>128</dim>
				</port>
				<port id="1" precision="FP16">
					<dim>1536</dim>
					<dim>70</dim>
					<dim>1</dim>
				</port>
			</input>
			<output>
				<port id="2" precision="FP16">
					<dim>1536</dim>
					<dim>70</dim>
					<dim>128</dim>
				</port>
			</output>
		</layer>
		<layer id="331" name="self.model.layers.0.mlp.down_proj.weight/scale" type="Const" version="opset1">
			<data element_type="f16" shape="1536, 70, 1" offset="257947832" size="215040" />
			<output>
				<port id="0" precision="FP16">
					<dim>1536</dim>
					<dim>70</dim>
					<dim>1</dim>
				</port>
			</output>
		</layer>
		<layer id="332" name="self.model.layers.0.mlp.down_proj.weight/fq_weights_1" type="Multiply" version="opset1">
			<data auto_broadcast="numpy" />
			<input>
				<port id="0" precision="FP16">
					<dim>1536</dim>
					<dim>70</dim>
					<dim>128</dim>
				</port>
				<port id="1" precision="FP16">
					<dim>1536</dim>
					<dim>70</dim>
					<dim>1</dim>
				</port>
			</input>
			<output>
				<port id="2" precision="FP16">
					<dim>1536</dim>
					<dim>70</dim>
					<dim>128</dim>
				</port>
			</output>
		</layer>
		<layer id="333" name="Constant_121346" type="Const" version="opset1">
			<data element_type="i64" shape="2" offset="258162872" size="16" />
			<output>
				<port id="0" precision="I64">
					<dim>2</dim>
				</port>
			</output>
		</layer>
		<layer id="334" name="Reshape_121347" type="Reshape" version="opset1">
			<data special_zero="false" />
			<input>
				<port id="0" precision="FP16">
					<dim>1536</dim>
					<dim>70</dim>
					<dim>128</dim>
				</port>
				<port id="1" precision="I64">
					<dim>2</dim>
				</port>
			</input>
			<output>
				<port id="2" precision="FP16">
					<dim>1536</dim>
					<dim>8960</dim>
				</port>
			</output>
		</layer>
		<layer id="335" name="__module.model.layers.0.mlp.down_proj/ov_ext::linear/Convert" type="Convert" version="opset1">
			<data destination_type="f32" />
			<rt_info>
				<attribute name="decompression" version="0" />
			</rt_info>
			<input>
				<port id="0" precision="FP16">
					<dim>1536</dim>
					<dim>8960</dim>
				</port>
			</input>
			<output>
				<port id="1" precision="FP32">
					<dim>1536</dim>
					<dim>8960</dim>
				</port>
			</output>
		</layer>
		<layer id="336" name="__module.model.layers.0.mlp.down_proj/ov_ext::linear/MatMul" type="MatMul" version="opset1">
			<data transpose_a="false" transpose_b="true" />
			<input>
				<port id="0" precision="FP32">
					<dim>-1</dim>
					<dim>-1</dim>
					<dim>8960</dim>
				</port>
				<port id="1" precision="FP32">
					<dim>1536</dim>
					<dim>8960</dim>
				</port>
			</input>
			<output>
				<port id="2" precision="FP32" names="525,hidden_states.27">
					<dim>-1</dim>
					<dim>-1</dim>
					<dim>1536</dim>
				</port>
			</output>
		</layer>
		<layer id="337" name="__module.model.layers.0/aten::add/Add_1" type="Add" version="opset1">
			<data auto_broadcast="numpy" />
			<input>
				<port id="0" precision="FP32">
					<dim>-1</dim>
					<dim>-1</dim>
					<dim>1536</dim>
				</port>
				<port id="1" precision="FP32">
					<dim>-1</dim>
					<dim>-1</dim>
					<dim>1536</dim>
				</port>
			</input>
			<output>
				<port id="2" precision="FP32" names="526,528,536,547,hidden_states.29,hidden_states.31">
					<dim>-1</dim>
					<dim>-1</dim>
					<dim>1536</dim>
				</port>
			</output>
		</layer>
		<layer id="338" name="Constant_75251" type="Const" version="opset1">
			<data element_type="f32" shape="1, 1, 1536" offset="258162888" size="6144" />
			<output>
				<port id="0" precision="FP32">
					<dim>1</dim>
					<dim>1</dim>
					<dim>1536</dim>
				</port>
			</output>
		</layer>
		<layer id="339" name="Constant_75250" type="Const" version="opset1">
			<data element_type="f32" shape="1, 1, 1" offset="233841820" size="4" />
			<output>
				<port id="0" precision="FP32">
					<dim>1</dim>
					<dim>1</dim>
					<dim>1</dim>
				</port>
			</output>
		</layer>
		<layer id="340" name="Constant_75248" type="Const" version="opset1">
			<data element_type="f32" shape="1, 1, 1" offset="233841824" size="4" />
			<output>
				<port id="0" precision="FP32">
					<dim>1</dim>
					<dim>1</dim>
					<dim>1</dim>
				</port>
			</output>
		</layer>
		<layer id="341" name="__module.model.layers.1.input_layernorm/aten::pow/Power" type="Power" version="opset1">
			<data auto_broadcast="numpy" />
			<input>
				<port id="0" precision="FP32">
					<dim>-1</dim>
					<dim>-1</dim>
					<dim>1536</dim>
				</port>
				<port id="1" precision="FP32">
					<dim>1</dim>
					<dim>1</dim>
					<dim>1</dim>
				</port>
			</input>
			<output>
				<port id="2" precision="FP32" names="537">
					<dim>-1</dim>
					<dim>-1</dim>
					<dim>1536</dim>
				</port>
			</output>
		</layer>
		<layer id="342" name="Constant_1674" type="Const" version="opset1">
			<data element_type="i64" shape="1" offset="233841828" size="8" />
			<output>
				<port id="0" precision="I64" names="538">
					<dim>1</dim>
				</port>
			</output>
		</layer>
		<layer id="343" name="__module.model.layers.1.input_layernorm/aten::mean/ReduceMean" type="ReduceMean" version="opset1">
			<data keep_dims="true" />
			<input>
				<port id="0" precision="FP32">
					<dim>-1</dim>
					<dim>-1</dim>
					<dim>1536</dim>
				</port>
				<port id="1" precision="I64">
					<dim>1</dim>
				</port>
			</input>
			<output>
				<port id="2" precision="FP32" names="539,variance.5">
					<dim>-1</dim>
					<dim>-1</dim>
					<dim>1</dim>
				</port>
			</output>
		</layer>
		<layer id="344" name="Constant_75249" type="Const" version="opset1">
			<data element_type="f32" shape="1, 1, 1" offset="233841836" size="4" />
			<output>
				<port id="0" precision="FP32">
					<dim>1</dim>
					<dim>1</dim>
					<dim>1</dim>
				</port>
			</output>
		</layer>
		<layer id="345" name="__module.model.layers.1.input_layernorm/aten::add/Add" type="Add" version="opset1">
			<data auto_broadcast="numpy" />
			<input>
				<port id="0" precision="FP32">
					<dim>-1</dim>
					<dim>-1</dim>
					<dim>1</dim>
				</port>
				<port id="1" precision="FP32">
					<dim>1</dim>
					<dim>1</dim>
					<dim>1</dim>
				</port>
			</input>
			<output>
				<port id="2" precision="FP32" names="540">
					<dim>-1</dim>
					<dim>-1</dim>
					<dim>1</dim>
				</port>
			</output>
		</layer>
		<layer id="346" name="__module.model.layers.1.input_layernorm/aten::rsqrt/Sqrt" type="Sqrt" version="opset1">
			<input>
				<port id="0" precision="FP32">
					<dim>-1</dim>
					<dim>-1</dim>
					<dim>1</dim>
				</port>
			</input>
			<output>
				<port id="1" precision="FP32">
					<dim>-1</dim>
					<dim>-1</dim>
					<dim>1</dim>
				</port>
			</output>
		</layer>
		<layer id="347" name="__module.model.layers.1.input_layernorm/aten::rsqrt/Divide" type="Divide" version="opset1">
			<data auto_broadcast="numpy" m_pythondiv="true" />
			<input>
				<port id="0" precision="FP32">
					<dim>1</dim>
					<dim>1</dim>
					<dim>1</dim>
				</port>
				<port id="1" precision="FP32">
					<dim>-1</dim>
					<dim>-1</dim>
					<dim>1</dim>
				</port>
			</input>
			<output>
				<port id="2" precision="FP32" names="541">
					<dim>-1</dim>
					<dim>-1</dim>
					<dim>1</dim>
				</port>
			</output>
		</layer>
		<layer id="348" name="__module.model.layers.1.input_layernorm/aten::mul/Multiply" type="Multiply" version="opset1">
			<data auto_broadcast="numpy" />
			<input>
				<port id="0" precision="FP32">
					<dim>-1</dim>
					<dim>-1</dim>
					<dim>1536</dim>
				</port>
				<port id="1" precision="FP32">
					<dim>-1</dim>
					<dim>-1</dim>
					<dim>1</dim>
				</port>
			</input>
			<output>
				<port id="2" precision="FP32" names="542,543,hidden_states.33,hidden_states.35">
					<dim>-1</dim>
					<dim>-1</dim>
					<dim>1536</dim>
				</port>
			</output>
		</layer>
		<layer id="349" name="__module.model.layers.1.input_layernorm/aten::mul/Multiply_1" type="Multiply" version="opset1">
			<data auto_broadcast="numpy" />
			<input>
				<port id="0" precision="FP32">
					<dim>1</dim>
					<dim>1</dim>
					<dim>1536</dim>
				</port>
				<port id="1" precision="FP32">
					<dim>-1</dim>
					<dim>-1</dim>
					<dim>1536</dim>
				</port>
			</input>
			<output>
				<port id="2" precision="FP32" names="544,546,hidden_states.37">
					<dim>-1</dim>
					<dim>-1</dim>
					<dim>1536</dim>
				</port>
			</output>
		</layer>
		<layer id="350" name="self.model.layers.1.self_attn.q_proj.weight" type="Const" version="opset1">
			<data element_type="u4" shape="1536, 12, 128" offset="258169032" size="1179648" />
			<output>
				<port id="0" precision="U4">
					<dim>1536</dim>
					<dim>12</dim>
					<dim>128</dim>
				</port>
			</output>
		</layer>
		<layer id="351" name="Convert_551712" type="Convert" version="opset1">
			<data destination_type="f16" />
			<input>
				<port id="0" precision="U4">
					<dim>1536</dim>
					<dim>12</dim>
					<dim>128</dim>
				</port>
			</input>
			<output>
				<port id="1" precision="FP16">
					<dim>1536</dim>
					<dim>12</dim>
					<dim>128</dim>
				</port>
			</output>
		</layer>
		<layer id="352" name="self.model.layers.1.self_attn.q_proj.weight/zero_point" type="Const" version="opset1">
			<data element_type="u4" shape="1536, 12, 1" offset="259348680" size="9216" />
			<output>
				<port id="0" precision="U4">
					<dim>1536</dim>
					<dim>12</dim>
					<dim>1</dim>
				</port>
			</output>
		</layer>
		<layer id="353" name="Convert_551715" type="Convert" version="opset1">
			<data destination_type="f16" />
			<input>
				<port id="0" precision="U4">
					<dim>1536</dim>
					<dim>12</dim>
					<dim>1</dim>
				</port>
			</input>
			<output>
				<port id="1" precision="FP16">
					<dim>1536</dim>
					<dim>12</dim>
					<dim>1</dim>
				</port>
			</output>
		</layer>
		<layer id="354" name="self.model.layers.1.self_attn.q_proj.weight/zero_point/subtract" type="Subtract" version="opset1">
			<data auto_broadcast="numpy" />
			<input>
				<port id="0" precision="FP16">
					<dim>1536</dim>
					<dim>12</dim>
					<dim>128</dim>
				</port>
				<port id="1" precision="FP16">
					<dim>1536</dim>
					<dim>12</dim>
					<dim>1</dim>
				</port>
			</input>
			<output>
				<port id="2" precision="FP16">
					<dim>1536</dim>
					<dim>12</dim>
					<dim>128</dim>
				</port>
			</output>
		</layer>
		<layer id="355" name="self.model.layers.1.self_attn.q_proj.weight/scale" type="Const" version="opset1">
			<data element_type="f16" shape="1536, 12, 1" offset="259357896" size="36864" />
			<output>
				<port id="0" precision="FP16">
					<dim>1536</dim>
					<dim>12</dim>
					<dim>1</dim>
				</port>
			</output>
		</layer>
		<layer id="356" name="self.model.layers.1.self_attn.q_proj.weight/fq_weights_1" type="Multiply" version="opset1">
			<data auto_broadcast="numpy" />
			<input>
				<port id="0" precision="FP16">
					<dim>1536</dim>
					<dim>12</dim>
					<dim>128</dim>
				</port>
				<port id="1" precision="FP16">
					<dim>1536</dim>
					<dim>12</dim>
					<dim>1</dim>
				</port>
			</input>
			<output>
				<port id="2" precision="FP16">
					<dim>1536</dim>
					<dim>12</dim>
					<dim>128</dim>
				</port>
			</output>
		</layer>
		<layer id="357" name="Constant_551720" type="Const" version="opset1">
			<data element_type="i64" shape="2" offset="235067568" size="16" />
			<output>
				<port id="0" precision="I64">
					<dim>2</dim>
				</port>
			</output>
		</layer>
		<layer id="358" name="Reshape_551721" type="Reshape" version="opset1">
			<data special_zero="false" />
			<input>
				<port id="0" precision="FP16">
					<dim>1536</dim>
					<dim>12</dim>
					<dim>128</dim>
				</port>
				<port id="1" precision="I64">
					<dim>2</dim>
				</port>
			</input>
			<output>
				<port id="2" precision="FP16">
					<dim>1536</dim>
					<dim>1536</dim>
				</port>
			</output>
		</layer>
		<layer id="359" name="__module.model.layers.1.self_attn.q_proj/ov_ext::linear/Convert" type="Convert" version="opset1">
			<data destination_type="f32" />
			<rt_info>
				<attribute name="decompression" version="0" />
			</rt_info>
			<input>
				<port id="0" precision="FP16">
					<dim>1536</dim>
					<dim>1536</dim>
				</port>
			</input>
			<output>
				<port id="1" precision="FP32">
					<dim>1536</dim>
					<dim>1536</dim>
				</port>
			</output>
		</layer>
		<layer id="360" name="__module.model.layers.1.self_attn.q_proj/ov_ext::linear/MatMul" type="MatMul" version="opset1">
			<data transpose_a="false" transpose_b="true" />
			<input>
				<port id="0" precision="FP32">
					<dim>-1</dim>
					<dim>-1</dim>
					<dim>1536</dim>
				</port>
				<port id="1" precision="FP32">
					<dim>1536</dim>
					<dim>1536</dim>
				</port>
			</input>
			<output>
				<port id="2" precision="FP32">
					<dim>-1</dim>
					<dim>-1</dim>
					<dim>1536</dim>
				</port>
			</output>
		</layer>
		<layer id="361" name="self.model.layers.1.self_attn.q_proj.bias" type="Const" version="opset1">
			<data element_type="bf16" shape="1536" offset="259394760" size="3072" />
			<output>
				<port id="0" precision="BF16" names="self.model.layers.1.self_attn.q_proj.bias">
					<dim>1536</dim>
				</port>
			</output>
		</layer>
		<layer id="362" name="__module.model.layers.1.self_attn.q_proj/ov_ext::linear/Convert_1" type="Convert" version="opset1">
			<data destination_type="f32" />
			<rt_info>
				<attribute name="decompression" version="0" />
			</rt_info>
			<input>
				<port id="0" precision="BF16">
					<dim>1536</dim>
				</port>
			</input>
			<output>
				<port id="1" precision="FP32">
					<dim>1536</dim>
				</port>
			</output>
		</layer>
		<layer id="363" name="__module.model.layers.1.self_attn.q_proj/ov_ext::linear/Add" type="Add" version="opset1">
			<data auto_broadcast="numpy" />
			<input>
				<port id="0" precision="FP32">
					<dim>-1</dim>
					<dim>-1</dim>
					<dim>1536</dim>
				</port>
				<port id="1" precision="FP32">
					<dim>1536</dim>
				</port>
			</input>
			<output>
				<port id="2" precision="FP32" names="556">
					<dim>-1</dim>
					<dim>-1</dim>
					<dim>1536</dim>
				</port>
			</output>
		</layer>
		<layer id="364" name="Constant_83525" type="Const" version="opset1">
			<data element_type="i64" shape="4" offset="235070656" size="32" />
			<output>
				<port id="0" precision="I64">
					<dim>4</dim>
				</port>
			</output>
		</layer>
		<layer id="365" name="__module.model.layers.1.self_attn/aten::view/Reshape" type="Reshape" version="opset1">
			<data special_zero="true" />
			<input>
				<port id="0" precision="FP32">
					<dim>-1</dim>
					<dim>-1</dim>
					<dim>1536</dim>
				</port>
				<port id="1" precision="I64">
					<dim>4</dim>
				</port>
			</input>
			<output>
				<port id="2" precision="FP32" names="558">
					<dim>-1</dim>
					<dim>-1</dim>
					<dim>12</dim>
					<dim>128</dim>
				</port>
			</output>
		</layer>
		<layer id="366" name="__module.model.layers.1.self_attn/aten::transpose/Constant" type="Const" version="opset1">
			<data element_type="i32" shape="4" offset="235070688" size="16" />
			<output>
				<port id="0" precision="I32">
					<dim>4</dim>
				</port>
			</output>
		</layer>
		<layer id="367" name="__module.model.layers.1.self_attn/aten::transpose/Transpose" type="Transpose" version="opset1">
			<input>
				<port id="0" precision="FP32">
					<dim>-1</dim>
					<dim>-1</dim>
					<dim>12</dim>
					<dim>128</dim>
				</port>
				<port id="1" precision="I32">
					<dim>4</dim>
				</port>
			</input>
			<output>
				<port id="2" precision="FP32" names="559,q.3">
					<dim>-1</dim>
					<dim>12</dim>
					<dim>-1</dim>
					<dim>128</dim>
				</port>
			</output>
		</layer>
		<layer id="368" name="__module.model.layers.1.self_attn/aten::mul/Multiply" type="Multiply" version="opset1">
			<data auto_broadcast="numpy" />
			<input>
				<port id="0" precision="FP32">
					<dim>-1</dim>
					<dim>12</dim>
					<dim>-1</dim>
					<dim>128</dim>
				</port>
				<port id="1" precision="FP32">
					<dim>-1</dim>
					<dim>1</dim>
					<dim>-1</dim>
					<dim>128</dim>
				</port>
			</input>
			<output>
				<port id="2" precision="FP32" names="574">
					<dim>-1</dim>
					<dim>12</dim>
					<dim>-1</dim>
					<dim>128</dim>
				</port>
			</output>
		</layer>
		<layer id="369" name="Constant_1988" type="Const" version="opset1">
			<data element_type="i64" shape="1" offset="235070980" size="8" />
			<output>
				<port id="0" precision="I64">
					<dim>1</dim>
				</port>
			</output>
		</layer>
		<layer id="370" name="Constant_1990" type="Const" version="opset1">
			<data element_type="i64" shape="1" offset="235070988" size="8" />
			<output>
				<port id="0" precision="I64">
					<dim>1</dim>
				</port>
			</output>
		</layer>
		<layer id="371" name="Constant_1992" type="Const" version="opset1">
			<data element_type="i64" shape="1" offset="235070960" size="8" />
			<output>
				<port id="0" precision="I64">
					<dim>1</dim>
				</port>
			</output>
		</layer>
		<layer id="372" name="Constant_1944" type="Const" version="opset1">
			<data element_type="i64" shape="1" offset="235070996" size="8" />
			<output>
				<port id="0" precision="I64">
					<dim>1</dim>
				</port>
			</output>
		</layer>
		<layer id="373" name="__module.model.layers.1.self_attn/aten::slice/Slice" type="Slice" version="opset8">
			<input>
				<port id="0" precision="FP32">
					<dim>-1</dim>
					<dim>12</dim>
					<dim>-1</dim>
					<dim>128</dim>
				</port>
				<port id="1" precision="I64">
					<dim>1</dim>
				</port>
				<port id="2" precision="I64">
					<dim>1</dim>
				</port>
				<port id="3" precision="I64">
					<dim>1</dim>
				</port>
				<port id="4" precision="I64">
					<dim>1</dim>
				</port>
			</input>
			<output>
				<port id="5" precision="FP32" names="584,x2.5">
					<dim>-1</dim>
					<dim>12</dim>
					<dim>-1</dim>
					<dim>64</dim>
				</port>
			</output>
		</layer>
		<layer id="374" name="__module.model.layers.1.self_attn/aten::neg/Constant" type="Const" version="opset1">
			<data element_type="i32" shape="" offset="235071004" size="4" />
			<output>
				<port id="0" precision="I32" />
			</output>
		</layer>
		<layer id="375" name="__module.model.layers.1.self_attn/aten::neg/ConvertLike" type="Convert" version="opset1">
			<data destination_type="f32" />
			<input>
				<port id="0" precision="I32" />
			</input>
			<output>
				<port id="1" precision="FP32" />
			</output>
		</layer>
		<layer id="376" name="__module.model.layers.1.self_attn/aten::neg/Multiply" type="Multiply" version="opset1">
			<data auto_broadcast="numpy" />
			<input>
				<port id="0" precision="FP32">
					<dim>-1</dim>
					<dim>12</dim>
					<dim>-1</dim>
					<dim>64</dim>
				</port>
				<port id="1" precision="FP32" />
			</input>
			<output>
				<port id="2" precision="FP32" names="585">
					<dim>-1</dim>
					<dim>12</dim>
					<dim>-1</dim>
					<dim>64</dim>
				</port>
			</output>
		</layer>
		<layer id="377" name="Constant_1885" type="Const" version="opset1">
			<data element_type="i64" shape="1" offset="4" size="8" />
			<output>
				<port id="0" precision="I64">
					<dim>1</dim>
				</port>
			</output>
		</layer>
		<layer id="378" name="Constant_1929" type="Const" version="opset1">
			<data element_type="i64" shape="1" offset="235070980" size="8" />
			<output>
				<port id="0" precision="I64">
					<dim>1</dim>
				</port>
			</output>
		</layer>
		<layer id="379" name="Constant_1931" type="Const" version="opset1">
			<data element_type="i64" shape="1" offset="235070960" size="8" />
			<output>
				<port id="0" precision="I64">
					<dim>1</dim>
				</port>
			</output>
		</layer>
		<layer id="380" name="Constant_1883" type="Const" version="opset1">
			<data element_type="i64" shape="1" offset="235070996" size="8" />
			<output>
				<port id="0" precision="I64">
					<dim>1</dim>
				</port>
			</output>
		</layer>
		<layer id="381" name="__module.model.layers.1.self_attn/aten::slice/Slice_1" type="Slice" version="opset8">
			<input>
				<port id="0" precision="FP32">
					<dim>-1</dim>
					<dim>12</dim>
					<dim>-1</dim>
					<dim>128</dim>
				</port>
				<port id="1" precision="I64">
					<dim>1</dim>
				</port>
				<port id="2" precision="I64">
					<dim>1</dim>
				</port>
				<port id="3" precision="I64">
					<dim>1</dim>
				</port>
				<port id="4" precision="I64">
					<dim>1</dim>
				</port>
			</input>
			<output>
				<port id="5" precision="FP32" names="579">
					<dim>-1</dim>
					<dim>12</dim>
					<dim>-1</dim>
					<dim>64</dim>
				</port>
			</output>
		</layer>
		<layer id="382" name="__module.model.layers.1.self_attn/aten::cat/Concat" type="Concat" version="opset1">
			<data axis="-1" />
			<input>
				<port id="0" precision="FP32">
					<dim>-1</dim>
					<dim>12</dim>
					<dim>-1</dim>
					<dim>64</dim>
				</port>
				<port id="1" precision="FP32">
					<dim>-1</dim>
					<dim>12</dim>
					<dim>-1</dim>
					<dim>64</dim>
				</port>
			</input>
			<output>
				<port id="2" precision="FP32" names="587">
					<dim>-1</dim>
					<dim>12</dim>
					<dim>-1</dim>
					<dim>128</dim>
				</port>
			</output>
		</layer>
		<layer id="383" name="__module.model.layers.1.self_attn/aten::mul/Multiply_1" type="Multiply" version="opset1">
			<data auto_broadcast="numpy" />
			<input>
				<port id="0" precision="FP32">
					<dim>-1</dim>
					<dim>12</dim>
					<dim>-1</dim>
					<dim>128</dim>
				</port>
				<port id="1" precision="FP32">
					<dim>-1</dim>
					<dim>1</dim>
					<dim>-1</dim>
					<dim>128</dim>
				</port>
			</input>
			<output>
				<port id="2" precision="FP32" names="588">
					<dim>-1</dim>
					<dim>12</dim>
					<dim>-1</dim>
					<dim>128</dim>
				</port>
			</output>
		</layer>
		<layer id="384" name="__module.model.layers.1.self_attn/aten::add/Add" type="Add" version="opset1">
			<data auto_broadcast="numpy" />
			<input>
				<port id="0" precision="FP32">
					<dim>-1</dim>
					<dim>12</dim>
					<dim>-1</dim>
					<dim>128</dim>
				</port>
				<port id="1" precision="FP32">
					<dim>-1</dim>
					<dim>12</dim>
					<dim>-1</dim>
					<dim>128</dim>
				</port>
			</input>
			<output>
				<port id="2" precision="FP32" names="589,query.5">
					<dim>-1</dim>
					<dim>12</dim>
					<dim>-1</dim>
					<dim>128</dim>
				</port>
			</output>
		</layer>
		<layer id="385" name="Constant_85812" type="Const" version="opset1">
			<data element_type="f32" shape="" offset="0" size="4" />
			<output>
				<port id="0" precision="FP32" />
			</output>
		</layer>
		<layer id="386" name="Constant_85805" type="Const" version="opset1">
			<data element_type="i64" shape="1" offset="12" size="8" />
			<output>
				<port id="0" precision="I64">
					<dim>1</dim>
				</port>
			</output>
		</layer>
		<layer id="387" name="Constant_85807" type="Const" version="opset1">
			<data element_type="i64" shape="1" offset="4" size="8" />
			<output>
				<port id="0" precision="I64">
					<dim>1</dim>
				</port>
			</output>
		</layer>
		<layer id="388" name="Constant_85809" type="Const" version="opset1">
			<data element_type="i64" shape="1" offset="20" size="8" />
			<output>
				<port id="0" precision="I64">
					<dim>1</dim>
				</port>
			</output>
		</layer>
		<layer id="389" name="Concat_85810" type="Concat" version="opset1">
			<data axis="0" />
			<input>
				<port id="0" precision="I64">
					<dim>1</dim>
				</port>
				<port id="1" precision="I64">
					<dim>1</dim>
				</port>
				<port id="2" precision="I64">
					<dim>1</dim>
				</port>
				<port id="3" precision="I64">
					<dim>1</dim>
				</port>
			</input>
			<output>
				<port id="4" precision="I64">
					<dim>4</dim>
				</port>
			</output>
		</layer>
		<layer id="390" name="Broadcast_85813" type="Broadcast" version="opset3">
			<data mode="numpy" />
			<input>
				<port id="0" precision="FP32" />
				<port id="1" precision="I64">
…
		<edge from-layer="4899" from-port="2" to-layer="4910" to-port="0" />
		<edge from-layer="4900" from-port="0" to-layer="4901" to-port="0" />
		<edge from-layer="4901" from-port="1" to-layer="4904" to-port="0" />
		<edge from-layer="4902" from-port="0" to-layer="4903" to-port="0" />
		<edge from-layer="4903" from-port="1" to-layer="4904" to-port="1" />
		<edge from-layer="4904" from-port="2" to-layer="4906" to-port="0" />
		<edge from-layer="4905" from-port="0" to-layer="4906" to-port="1" />
		<edge from-layer="4906" from-port="2" to-layer="4908" to-port="0" />
		<edge from-layer="4907" from-port="0" to-layer="4908" to-port="1" />
		<edge from-layer="4908" from-port="2" to-layer="4909" to-port="0" />
		<edge from-layer="4909" from-port="1" to-layer="4910" to-port="1" />
		<edge from-layer="4910" from-port="2" to-layer="4911" to-port="1" />
		<edge from-layer="4911" from-port="2" to-layer="4959" to-port="0" />
		<edge from-layer="4911" from-port="2" to-layer="4922" to-port="0" />
		<edge from-layer="4911" from-port="2" to-layer="4915" to-port="0" />
		<edge from-layer="4912" from-port="0" to-layer="4923" to-port="0" />
		<edge from-layer="4913" from-port="0" to-layer="4921" to-port="0" />
		<edge from-layer="4914" from-port="0" to-layer="4915" to-port="1" />
		<edge from-layer="4915" from-port="2" to-layer="4917" to-port="0" />
		<edge from-layer="4916" from-port="0" to-layer="4917" to-port="1" />
		<edge from-layer="4917" from-port="2" to-layer="4919" to-port="0" />
		<edge from-layer="4918" from-port="0" to-layer="4919" to-port="1" />
		<edge from-layer="4919" from-port="2" to-layer="4920" to-port="0" />
		<edge from-layer="4920" from-port="1" to-layer="4921" to-port="1" />
		<edge from-layer="4921" from-port="2" to-layer="4922" to-port="1" />
		<edge from-layer="4922" from-port="2" to-layer="4923" to-port="1" />
		<edge from-layer="4923" from-port="2" to-layer="4946" to-port="0" />
		<edge from-layer="4923" from-port="2" to-layer="4934" to-port="0" />
		<edge from-layer="4924" from-port="0" to-layer="4925" to-port="0" />
		<edge from-layer="4925" from-port="1" to-layer="4928" to-port="0" />
		<edge from-layer="4926" from-port="0" to-layer="4927" to-port="0" />
		<edge from-layer="4927" from-port="1" to-layer="4928" to-port="1" />
		<edge from-layer="4928" from-port="2" to-layer="4930" to-port="0" />
		<edge from-layer="4929" from-port="0" to-layer="4930" to-port="1" />
		<edge from-layer="4930" from-port="2" to-layer="4932" to-port="0" />
		<edge from-layer="4931" from-port="0" to-layer="4932" to-port="1" />
		<edge from-layer="4932" from-port="2" to-layer="4933" to-port="0" />
		<edge from-layer="4933" from-port="1" to-layer="4934" to-port="1" />
		<edge from-layer="4934" from-port="2" to-layer="4935" to-port="0" />
		<edge from-layer="4935" from-port="1" to-layer="4947" to-port="0" />
		<edge from-layer="4936" from-port="0" to-layer="4937" to-port="0" />
		<edge from-layer="4937" from-port="1" to-layer="4940" to-port="0" />
		<edge from-layer="4938" from-port="0" to-layer="4939" to-port="0" />
		<edge from-layer="4939" from-port="1" to-layer="4940" to-port="1" />
		<edge from-layer="4940" from-port="2" to-layer="4942" to-port="0" />
		<edge from-layer="4941" from-port="0" to-layer="4942" to-port="1" />
		<edge from-layer="4942" from-port="2" to-layer="4944" to-port="0" />
		<edge from-layer="4943" from-port="0" to-layer="4944" to-port="1" />
		<edge from-layer="4944" from-port="2" to-layer="4945" to-port="0" />
		<edge from-layer="4945" from-port="1" to-layer="4946" to-port="1" />
		<edge from-layer="4946" from-port="2" to-layer="4947" to-port="1" />
		<edge from-layer="4947" from-port="2" to-layer="4958" to-port="0" />
		<edge from-layer="4948" from-port="0" to-layer="4949" to-port="0" />
		<edge from-layer="4949" from-port="1" to-layer="4952" to-port="0" />
		<edge from-layer="4950" from-port="0" to-layer="4951" to-port="0" />
		<edge from-layer="4951" from-port="1" to-layer="4952" to-port="1" />
		<edge from-layer="4952" from-port="2" to-layer="4954" to-port="0" />
		<edge from-layer="4953" from-port="0" to-layer="4954" to-port="1" />
		<edge from-layer="4954" from-port="2" to-layer="4956" to-port="0" />
		<edge from-layer="4955" from-port="0" to-layer="4956" to-port="1" />
		<edge from-layer="4956" from-port="2" to-layer="4957" to-port="0" />
		<edge from-layer="4957" from-port="1" to-layer="4958" to-port="1" />
		<edge from-layer="4958" from-port="2" to-layer="4959" to-port="1" />
		<edge from-layer="4959" from-port="2" to-layer="5103" to-port="0" />
		<edge from-layer="4959" from-port="2" to-layer="4963" to-port="0" />
		<edge from-layer="4959" from-port="2" to-layer="4970" to-port="0" />
		<edge from-layer="4960" from-port="0" to-layer="4971" to-port="0" />
		<edge from-layer="4961" from-port="0" to-layer="4969" to-port="0" />
		<edge from-layer="4962" from-port="0" to-layer="4963" to-port="1" />
		<edge from-layer="4963" from-port="2" to-layer="4965" to-port="0" />
		<edge from-layer="4964" from-port="0" to-layer="4965" to-port="1" />
		<edge from-layer="4965" from-port="2" to-layer="4967" to-port="0" />
		<edge from-layer="4966" from-port="0" to-layer="4967" to-port="1" />
		<edge from-layer="4967" from-port="2" to-layer="4968" to-port="0" />
		<edge from-layer="4968" from-port="1" to-layer="4969" to-port="1" />
		<edge from-layer="4969" from-port="2" to-layer="4970" to-port="1" />
		<edge from-layer="4970" from-port="2" to-layer="4971" to-port="1" />
		<edge from-layer="4971" from-port="2" to-layer="5026" to-port="0" />
		<edge from-layer="4971" from-port="2" to-layer="4982" to-port="0" />
		<edge from-layer="4971" from-port="2" to-layer="5075" to-port="0" />
		<edge from-layer="4972" from-port="0" to-layer="4973" to-port="0" />
		<edge from-layer="4973" from-port="1" to-layer="4976" to-port="0" />
		<edge from-layer="4974" from-port="0" to-layer="4975" to-port="0" />
		<edge from-layer="4975" from-port="1" to-layer="4976" to-port="1" />
		<edge from-layer="4976" from-port="2" to-layer="4978" to-port="0" />
		<edge from-layer="4977" from-port="0" to-layer="4978" to-port="1" />
		<edge from-layer="4978" from-port="2" to-layer="4980" to-port="0" />
		<edge from-layer="4979" from-port="0" to-layer="4980" to-port="1" />
		<edge from-layer="4980" from-port="2" to-layer="4981" to-port="0" />
		<edge from-layer="4981" from-port="1" to-layer="4982" to-port="1" />
		<edge from-layer="4982" from-port="2" to-layer="4985" to-port="0" />
		<edge from-layer="4983" from-port="0" to-layer="4984" to-port="0" />
		<edge from-layer="4984" from-port="1" to-layer="4985" to-port="1" />
		<edge from-layer="4985" from-port="2" to-layer="4987" to-port="0" />
		<edge from-layer="4986" from-port="0" to-layer="4987" to-port="1" />
		<edge from-layer="4987" from-port="2" to-layer="4989" to-port="0" />
		<edge from-layer="4988" from-port="0" to-layer="4989" to-port="1" />
		<edge from-layer="4989" from-port="2" to-layer="4990" to-port="0" />
		<edge from-layer="4989" from-port="2" to-layer="4995" to-port="0" />
		<edge from-layer="4989" from-port="2" to-layer="5003" to-port="0" />
		<edge from-layer="4990" from-port="2" to-layer="5006" to-port="0" />
		<edge from-layer="4991" from-port="0" to-layer="4995" to-port="1" />
		<edge from-layer="4992" from-port="0" to-layer="4995" to-port="2" />
		<edge from-layer="4993" from-port="0" to-layer="4995" to-port="3" />
		<edge from-layer="4994" from-port="0" to-layer="4995" to-port="4" />
		<edge from-layer="4995" from-port="5" to-layer="4998" to-port="0" />
		<edge from-layer="4996" from-port="0" to-layer="4997" to-port="0" />
		<edge from-layer="4997" from-port="1" to-layer="4998" to-port="1" />
		<edge from-layer="4998" from-port="2" to-layer="5004" to-port="0" />
		<edge from-layer="4999" from-port="0" to-layer="5003" to-port="1" />
		<edge from-layer="5000" from-port="0" to-layer="5003" to-port="2" />
		<edge from-layer="5001" from-port="0" to-layer="5003" to-port="3" />
		<edge from-layer="5002" from-port="0" to-layer="5003" to-port="4" />
		<edge from-layer="5003" from-port="5" to-layer="5004" to-port="1" />
		<edge from-layer="5004" from-port="2" to-layer="5005" to-port="0" />
		<edge from-layer="5005" from-port="2" to-layer="5006" to-port="1" />
		<edge from-layer="5006" from-port="2" to-layer="5088" to-port="0" />
		<edge from-layer="5007" from-port="0" to-layer="5012" to-port="0" />
		<edge from-layer="5008" from-port="0" to-layer="5011" to-port="1" />
		<edge from-layer="5009" from-port="0" to-layer="5011" to-port="2" />
		<edge from-layer="5010" from-port="0" to-layer="5011" to-port="3" />
		<edge from-layer="5011" from-port="4" to-layer="5012" to-port="1" />
		<edge from-layer="5012" from-port="2" to-layer="5013" to-port="0" />
		<edge from-layer="5013" from-port="1" to-layer="5015" to-port="0" />
		<edge from-layer="5014" from-port="0" to-layer="5015" to-port="2" />
		<edge from-layer="5015" from-port="3" to-layer="5051" to-port="0" />
		<edge from-layer="5016" from-port="0" to-layer="5017" to-port="0" />
		<edge from-layer="5017" from-port="1" to-layer="5020" to-port="0" />
		<edge from-layer="5018" from-port="0" to-layer="5019" to-port="0" />
		<edge from-layer="5019" from-port="1" to-layer="5020" to-port="1" />
		<edge from-layer="5020" from-port="2" to-layer="5022" to-port="0" />
		<edge from-layer="5021" from-port="0" to-layer="5022" to-port="1" />
		<edge from-layer="5022" from-port="2" to-layer="5024" to-port="0" />
		<edge from-layer="5023" from-port="0" to-layer="5024" to-port="1" />
		<edge from-layer="5024" from-port="2" to-layer="5025" to-port="0" />
		<edge from-layer="5025" from-port="1" to-layer="5026" to-port="1" />
		<edge from-layer="5026" from-port="2" to-layer="5029" to-port="0" />
		<edge from-layer="5027" from-port="0" to-layer="5028" to-port="0" />
		<edge from-layer="5028" from-port="1" to-layer="5029" to-port="1" />
		<edge from-layer="5029" from-port="2" to-layer="5031" to-port="0" />
		<edge from-layer="5030" from-port="0" to-layer="5031" to-port="1" />
		<edge from-layer="5031" from-port="2" to-layer="5033" to-port="0" />
		<edge from-layer="5032" from-port="0" to-layer="5033" to-port="1" />
		<edge from-layer="5033" from-port="2" to-layer="5047" to-port="0" />
		<edge from-layer="5033" from-port="2" to-layer="5039" to-port="0" />
		<edge from-layer="5033" from-port="2" to-layer="5034" to-port="0" />
		<edge from-layer="5034" from-port="2" to-layer="5050" to-port="0" />
		<edge from-layer="5035" from-port="0" to-layer="5039" to-port="1" />
		<edge from-layer="5036" from-port="0" to-layer="5039" to-port="2" />
		<edge from-layer="5037" from-port="0" to-layer="5039" to-port="3" />
		<edge from-layer="5038" from-port="0" to-layer="5039" to-port="4" />
		<edge from-layer="5039" from-port="5" to-layer="5042" to-port="0" />
		<edge from-layer="5040" from-port="0" to-layer="5041" to-port="0" />
		<edge from-layer="5041" from-port="1" to-layer="5042" to-port="1" />
		<edge from-layer="5042" from-port="2" to-layer="5048" to-port="0" />
		<edge from-layer="5043" from-port="0" to-layer="5047" to-port="1" />
		<edge from-layer="5044" from-port="0" to-layer="5047" to-port="2" />
		<edge from-layer="5045" from-port="0" to-layer="5047" to-port="3" />
		<edge from-layer="5046" from-port="0" to-layer="5047" to-port="4" />
		<edge from-layer="5047" from-port="5" to-layer="5048" to-port="1" />
		<edge from-layer="5048" from-port="2" to-layer="5049" to-port="0" />
		<edge from-layer="5049" from-port="2" to-layer="5050" to-port="1" />
		<edge from-layer="5050" from-port="2" to-layer="5051" to-port="1" />
		<edge from-layer="5051" from-port="2" to-layer="5052" to-port="0" />
		<edge from-layer="5051" from-port="2" to-layer="5424" to-port="0" />
		<edge from-layer="5052" from-port="2" to-layer="5053" to-port="0" />
		<edge from-layer="5053" from-port="2" to-layer="5055" to-port="0" />
		<edge from-layer="5054" from-port="0" to-layer="5055" to-port="1" />
		<edge from-layer="5055" from-port="2" to-layer="5088" to-port="1" />
		<edge from-layer="5056" from-port="0" to-layer="5061" to-port="0" />
		<edge from-layer="5057" from-port="0" to-layer="5060" to-port="1" />
		<edge from-layer="5058" from-port="0" to-layer="5060" to-port="2" />
		<edge from-layer="5059" from-port="0" to-layer="5060" to-port="3" />
		<edge from-layer="5060" from-port="4" to-layer="5061" to-port="1" />
		<edge from-layer="5061" from-port="2" to-layer="5062" to-port="0" />
		<edge from-layer="5062" from-port="1" to-layer="5064" to-port="0" />
		<edge from-layer="5063" from-port="0" to-layer="5064" to-port="2" />
		<edge from-layer="5064" from-port="3" to-layer="5083" to-port="0" />
		<edge from-layer="5065" from-port="0" to-layer="5066" to-port="0" />
		<edge from-layer="5066" from-port="1" to-layer="5069" to-port="0" />
		<edge from-layer="5067" from-port="0" to-layer="5068" to-port="0" />
		<edge from-layer="5068" from-port="1" to-layer="5069" to-port="1" />
		<edge from-layer="5069" from-port="2" to-layer="5071" to-port="0" />
		<edge from-layer="5070" from-port="0" to-layer="5071" to-port="1" />
		<edge from-layer="5071" from-port="2" to-layer="5073" to-port="0" />
		<edge from-layer="5072" from-port="0" to-layer="5073" to-port="1" />
		<edge from-layer="5073" from-port="2" to-layer="5074" to-port="0" />
		<edge from-layer="5074" from-port="1" to-layer="5075" to-port="1" />
		<edge from-layer="5075" from-port="2" to-layer="5078" to-port="0" />
		<edge from-layer="5076" from-port="0" to-layer="5077" to-port="0" />
		<edge from-layer="5077" from-port="1" to-layer="5078" to-port="1" />
		<edge from-layer="5078" from-port="2" to-layer="5080" to-port="0" />
		<edge from-layer="5079" from-port="0" to-layer="5080" to-port="1" />
		<edge from-layer="5080" from-port="2" to-layer="5082" to-port="0" />
		<edge from-layer="5081" from-port="0" to-layer="5082" to-port="1" />
		<edge from-layer="5082" from-port="2" to-layer="5083" to-port="1" />
		<edge from-layer="5083" from-port="2" to-layer="5084" to-port="0" />
		<edge from-layer="5083" from-port="2" to-layer="5423" to-port="0" />
		<edge from-layer="5084" from-port="2" to-layer="5085" to-port="0" />
		<edge from-layer="5085" from-port="2" to-layer="5087" to-port="0" />
		<edge from-layer="5086" from-port="0" to-layer="5087" to-port="1" />
		<edge from-layer="5087" from-port="2" to-layer="5088" to-port="2" />
		<edge from-layer="5088" from-port="5" to-layer="5090" to-port="0" />
		<edge from-layer="5089" from-port="0" to-layer="5090" to-port="1" />
		<edge from-layer="5090" from-port="2" to-layer="5091" to-port="0" />
		<edge from-layer="5091" from-port="2" to-layer="5102" to-port="0" />
		<edge from-layer="5092" from-port="0" to-layer="5093" to-port="0" />
		<edge from-layer="5093" from-port="1" to-layer="5096" to-port="0" />
		<edge from-layer="5094" from-port="0" to-layer="5095" to-port="0" />
		<edge from-layer="5095" from-port="1" to-layer="5096" to-port="1" />
		<edge from-layer="5096" from-port="2" to-layer="5098" to-port="0" />
		<edge from-layer="5097" from-port="0" to-layer="5098" to-port="1" />
		<edge from-layer="5098" from-port="2" to-layer="5100" to-port="0" />
		<edge from-layer="5099" from-port="0" to-layer="5100" to-port="1" />
		<edge from-layer="5100" from-port="2" to-layer="5101" to-port="0" />
		<edge from-layer="5101" from-port="1" to-layer="5102" to-port="1" />
		<edge from-layer="5102" from-port="2" to-layer="5103" to-port="1" />
		<edge from-layer="5103" from-port="2" to-layer="5107" to-port="0" />
		<edge from-layer="5103" from-port="2" to-layer="5114" to-port="0" />
		<edge from-layer="5103" from-port="2" to-layer="5151" to-port="0" />
		<edge from-layer="5104" from-port="0" to-layer="5115" to-port="0" />
		<edge from-layer="5105" from-port="0" to-layer="5113" to-port="0" />
		<edge from-layer="5106" from-port="0" to-layer="5107" to-port="1" />
		<edge from-layer="5107" from-port="2" to-layer="5109" to-port="0" />
		<edge from-layer="5108" from-port="0" to-layer="5109" to-port="1" />
		<edge from-layer="5109" from-port="2" to-layer="5111" to-port="0" />
		<edge from-layer="5110" from-port="0" to-layer="5111" to-port="1" />
		<edge from-layer="5111" from-port="2" to-layer="5112" to-port="0" />
		<edge from-layer="5112" from-port="1" to-layer="5113" to-port="1" />
		<edge from-layer="5113" from-port="2" to-layer="5114" to-port="1" />
		<edge from-layer="5114" from-port="2" to-layer="5115" to-port="1" />
		<edge from-layer="5115" from-port="2" to-layer="5138" to-port="0" />
		<edge from-layer="5115" from-port="2" to-layer="5126" to-port="0" />
		<edge from-layer="5116" from-port="0" to-layer="5117" to-port="0" />
		<edge from-layer="5117" from-port="1" to-layer="5120" to-port="0" />
		<edge from-layer="5118" from-port="0" to-layer="5119" to-port="0" />
		<edge from-layer="5119" from-port="1" to-layer="5120" to-port="1" />
		<edge from-layer="5120" from-port="2" to-layer="5122" to-port="0" />
		<edge from-layer="5121" from-port="0" to-layer="5122" to-port="1" />
		<edge from-layer="5122" from-port="2" to-layer="5124" to-port="0" />
		<edge from-layer="5123" from-port="0" to-layer="5124" to-port="1" />
		<edge from-layer="5124" from-port="2" to-layer="5125" to-port="0" />
		<edge from-layer="5125" from-port="1" to-layer="5126" to-port="1" />
		<edge from-layer="5126" from-port="2" to-layer="5127" to-port="0" />
		<edge from-layer="5127" from-port="1" to-layer="5139" to-port="0" />
		<edge from-layer="5128" from-port="0" to-layer="5129" to-port="0" />
		<edge from-layer="5129" from-port="1" to-layer="5132" to-port="0" />
		<edge from-layer="5130" from-port="0" to-layer="5131" to-port="0" />
		<edge from-layer="5131" from-port="1" to-layer="5132" to-port="1" />
		<edge from-layer="5132" from-port="2" to-layer="5134" to-port="0" />
		<edge from-layer="5133" from-port="0" to-layer="5134" to-port="1" />
		<edge from-layer="5134" from-port="2" to-layer="5136" to-port="0" />
		<edge from-layer="5135" from-port="0" to-layer="5136" to-port="1" />
		<edge from-layer="5136" from-port="2" to-layer="5137" to-port="0" />
		<edge from-layer="5137" from-port="1" to-layer="5138" to-port="1" />
		<edge from-layer="5138" from-port="2" to-layer="5139" to-port="1" />
		<edge from-layer="5139" from-port="2" to-layer="5150" to-port="0" />
		<edge from-layer="5140" from-port="0" to-layer="5141" to-port="0" />
		<edge from-layer="5141" from-port="1" to-layer="5144" to-port="0" />
		<edge from-layer="5142" from-port="0" to-layer="5143" to-port="0" />
		<edge from-layer="5143" from-port="1" to-layer="5144" to-port="1" />
		<edge from-layer="5144" from-port="2" to-layer="5146" to-port="0" />
		<edge from-layer="5145" from-port="0" to-layer="5146" to-port="1" />
		<edge from-layer="5146" from-port="2" to-layer="5148" to-port="0" />
		<edge from-layer="5147" from-port="0" to-layer="5148" to-port="1" />
		<edge from-layer="5148" from-port="2" to-layer="5149" to-port="0" />
		<edge from-layer="5149" from-port="1" to-layer="5150" to-port="1" />
		<edge from-layer="5150" from-port="2" to-layer="5151" to-port="1" />
		<edge from-layer="5151" from-port="2" to-layer="5162" to-port="0" />
		<edge from-layer="5151" from-port="2" to-layer="5295" to-port="0" />
		<edge from-layer="5151" from-port="2" to-layer="5155" to-port="0" />
		<edge from-layer="5152" from-port="0" to-layer="5163" to-port="0" />
		<edge from-layer="5153" from-port="0" to-layer="5161" to-port="0" />
		<edge from-layer="5154" from-port="0" to-layer="5155" to-port="1" />
		<edge from-layer="5155" from-port="2" to-layer="5157" to-port="0" />
		<edge from-layer="5156" from-port="0" to-layer="5157" to-port="1" />
		<edge from-layer="5157" from-port="2" to-layer="5159" to-port="0" />
		<edge from-layer="5158" from-port="0" to-layer="5159" to-port="1" />
		<edge from-layer="5159" from-port="2" to-layer="5160" to-port="0" />
		<edge from-layer="5160" from-port="1" to-layer="5161" to-port="1" />
		<edge from-layer="5161" from-port="2" to-layer="5162" to-port="1" />
		<edge from-layer="5162" from-port="2" to-layer="5163" to-port="1" />
		<edge from-layer="5163" from-port="2" to-layer="5218" to-port="0" />
		<edge from-layer="5163" from-port="2" to-layer="5267" to-port="0" />
		<edge from-layer="5163" from-port="2" to-layer="5174" to-port="0" />
		<edge from-layer="5164" from-port="0" to-layer="5165" to-port="0" />
		<edge from-layer="5165" from-port="1" to-layer="5168" to-port="0" />
		<edge from-layer="5166" from-port="0" to-layer="5167" to-port="0" />
		<edge from-layer="5167" from-port="1" to-layer="5168" to-port="1" />
		<edge from-layer="5168" from-port="2" to-layer="5170" to-port="0" />
		<edge from-layer="5169" from-port="0" to-layer="5170" to-port="1" />
		<edge from-layer="5170" from-port="2" to-layer="5172" to-port="0" />
		<edge from-layer="5171" from-port="0" to-layer="5172" to-port="1" />
		<edge from-layer="5172" from-port="2" to-layer="5173" to-port="0" />
		<edge from-layer="5173" from-port="1" to-layer="5174" to-port="1" />
		<edge from-layer="5174" from-port="2" to-layer="5177" to-port="0" />
		<edge from-layer="5175" from-port="0" to-layer="5176" to-port="0" />
		<edge from-layer="5176" from-port="1" to-layer="5177" to-port="1" />
		<edge from-layer="5177" from-port="2" to-layer="5179" to-port="0" />
		<edge from-layer="5178" from-port="0" to-layer="5179" to-port="1" />
		<edge from-layer="5179" from-port="2" to-layer="5181" to-port="0" />
		<edge from-layer="5180" from-port="0" to-layer="5181" to-port="1" />
		<edge from-layer="5181" from-port="2" to-layer="5195" to-port="0" />
		<edge from-layer="5181" from-port="2" to-layer="5182" to-port="0" />
		<edge from-layer="5181" from-port="2" to-layer="5187" to-port="0" />
		<edge from-layer="5182" from-port="2" to-layer="5198" to-port="0" />
		<edge from-layer="5183" from-port="0" to-layer="5187" to-port="1" />
		<edge from-layer="5184" from-port="0" to-layer="5187" to-port="2" />
		<edge from-layer="5185" from-port="0" to-layer="5187" to-port="3" />
		<edge from-layer="5186" from-port="0" to-layer="5187" to-port="4" />
		<edge from-layer="5187" from-port="5" to-layer="5190" to-port="0" />
		<edge from-layer="5188" from-port="0" to-layer="5189" to-port="0" />
		<edge from-layer="5189" from-port="1" to-layer="5190" to-port="1" />
		<edge from-layer="5190" from-port="2" to-layer="5196" to-port="0" />
		<edge from-layer="5191" from-port="0" to-layer="5195" to-port="1" />
		<edge from-layer="5192" from-port="0" to-layer="5195" to-port="2" />
		<edge from-layer="5193" from-port="0" to-layer="5195" to-port="3" />
		<edge from-layer="5194" from-port="0" to-layer="5195" to-port="4" />
		<edge from-layer="5195" from-port="5" to-layer="5196" to-port="1" />
		<edge from-layer="5196" from-port="2" to-layer="5197" to-port="0" />
		<edge from-layer="5197" from-port="2" to-layer="5198" to-port="1" />
		<edge from-layer="5198" from-port="2" to-layer="5280" to-port="0" />
		<edge from-layer="5199" from-port="0" to-layer="5204" to-port="0" />
		<edge from-layer="5200" from-port="0" to-layer="5203" to-port="1" />
		<edge from-layer="5201" from-port="0" to-layer="5203" to-port="2" />
		<edge from-layer="5202" from-port="0" to-layer="5203" to-port="3" />
		<edge from-layer="5203" from-port="4" to-layer="5204" to-port="1" />
		<edge from-layer="5204" from-port="2" to-layer="5205" to-port="0" />
		<edge from-layer="5205" from-port="1" to-layer="5207" to-port="0" />
		<edge from-layer="5206" from-port="0" to-layer="5207" to-port="2" />
		<edge from-layer="5207" from-port="3" to-layer="5243" to-port="0" />
		<edge from-layer="5208" from-port="0" to-layer="5209" to-port="0" />
		<edge from-layer="5209" from-port="1" to-layer="5212" to-port="0" />
		<edge from-layer="5210" from-port="0" to-layer="5211" to-port="0" />
		<edge from-layer="5211" from-port="1" to-layer="5212" to-port="1" />
		<edge from-layer="5212" from-port="2" to-layer="5214" to-port="0" />
		<edge from-layer="5213" from-port="0" to-layer="5214" to-port="1" />
		<edge from-layer="5214" from-port="2" to-layer="5216" to-port="0" />
		<edge from-layer="5215" from-port="0" to-layer="5216" to-port="1" />
		<edge from-layer="5216" from-port="2" to-layer="5217" to-port="0" />
		<edge from-layer="5217" from-port="1" to-layer="5218" to-port="1" />
		<edge from-layer="5218" from-port="2" to-layer="5221" to-port="0" />
		<edge from-layer="5219" from-port="0" to-layer="5220" to-port="0" />
		<edge from-layer="5220" from-port="1" to-layer="5221" to-port="1" />
		<edge from-layer="5221" from-port="2" to-layer="5223" to-port="0" />
		<edge from-layer="5222" from-port="0" to-layer="5223" to-port="1" />
		<edge from-layer="5223" from-port="2" to-layer="5225" to-port="0" />
		<edge from-layer="5224" from-port="0" to-layer="5225" to-port="1" />
		<edge from-layer="5225" from-port="2" to-layer="5226" to-port="0" />
		<edge from-layer="5225" from-port="2" to-layer="5231" to-port="0" />
		<edge from-layer="5225" from-port="2" to-layer="5239" to-port="0" />
		<edge from-layer="5226" from-port="2" to-layer="5242" to-port="0" />
		<edge from-layer="5227" from-port="0" to-layer="5231" to-port="1" />
		<edge from-layer="5228" from-port="0" to-layer="5231" to-port="2" />
		<edge from-layer="5229" from-port="0" to-layer="5231" to-port="3" />
		<edge from-layer="5230" from-port="0" to-layer="5231" to-port="4" />
		<edge from-layer="5231" from-port="5" to-layer="5234" to-port="0" />
		<edge from-layer="5232" from-port="0" to-layer="5233" to-port="0" />
		<edge from-layer="5233" from-port="1" to-layer="5234" to-port="1" />
		<edge from-layer="5234" from-port="2" to-layer="5240" to-port="0" />
		<edge from-layer="5235" from-port="0" to-layer="5239" to-port="1" />
		<edge from-layer="5236" from-port="0" to-layer="5239" to-port="2" />
		<edge from-layer="5237" from-port="0" to-layer="5239" to-port="3" />
		<edge from-layer="5238" from-port="0" to-layer="5239" to-port="4" />
		<edge from-layer="5239" from-port="5" to-layer="5240" to-port="1" />
		<edge from-layer="5240" from-port="2" to-layer="5241" to-port="0" />
		<edge from-layer="5241" from-port="2" to-layer="5242" to-port="1" />
		<edge from-layer="5242" from-port="2" to-layer="5243" to-port="1" />
		<edge from-layer="5243" from-port="2" to-layer="5422" to-port="0" />
		<edge from-layer="5243" from-port="2" to-layer="5244" to-port="0" />
		<edge from-layer="5244" from-port="2" to-layer="5245" to-port="0" />
		<edge from-layer="5245" from-port="2" to-layer="5247" to-port="0" />
		<edge from-layer="5246" from-port="0" to-layer="5247" to-port="1" />
		<edge from-layer="5247" from-port="2" to-layer="5280" to-port="1" />
		<edge from-layer="5248" from-port="0" to-layer="5253" to-port="0" />
		<edge from-layer="5249" from-port="0" to-layer="5252" to-port="1" />
		<edge from-layer="5250" from-port="0" to-layer="5252" to-port="2" />
		<edge from-layer="5251" from-port="0" to-layer="5252" to-port="3" />
		<edge from-layer="5252" from-port="4" to-layer="5253" to-port="1" />
		<edge from-layer="5253" from-port="2" to-layer="5254" to-port="0" />
		<edge from-layer="5254" from-port="1" to-layer="5256" to-port="0" />
		<edge from-layer="5255" from-port="0" to-layer="5256" to-port="2" />
		<edge from-layer="5256" from-port="3" to-layer="5275" to-port="0" />
		<edge from-layer="5257" from-port="0" to-layer="5258" to-port="0" />
		<edge from-layer="5258" from-port="1" to-layer="5261" to-port="0" />
		<edge from-layer="5259" from-port="0" to-layer="5260" to-port="0" />
		<edge from-layer="5260" from-port="1" to-layer="5261" to-port="1" />
		<edge from-layer="5261" from-port="2" to-layer="5263" to-port="0" />
		<edge from-layer="5262" from-port="0" to-layer="5263" to-port="1" />
		<edge from-layer="5263" from-port="2" to-layer="5265" to-port="0" />
		<edge from-layer="5264" from-port="0" to-layer="5265" to-port="1" />
		<edge from-layer="5265" from-port="2" to-layer="5266" to-port="0" />
		<edge from-layer="5266" from-port="1" to-layer="5267" to-port="1" />
		<edge from-layer="5267" from-port="2" to-layer="5270" to-port="0" />
		<edge from-layer="5268" from-port="0" to-layer="5269" to-port="0" />
		<edge from-layer="5269" from-port="1" to-layer="5270" to-port="1" />
		<edge from-layer="5270" from-port="2" to-layer="5272" to-port="0" />
		<edge from-layer="5271" from-port="0" to-layer="5272" to-port="1" />
		<edge from-layer="5272" from-port="2" to-layer="5274" to-port="0" />
		<edge from-layer="5273" from-port="0" to-layer="5274" to-port="1" />
		<edge from-layer="5274" from-port="2" to-layer="5275" to-port="1" />
		<edge from-layer="5275" from-port="2" to-layer="5421" to-port="0" />
		<edge from-layer="5275" from-port="2" to-layer="5276" to-port="0" />
		<edge from-layer="5276" from-port="2" to-layer="5277" to-port="0" />
		<edge from-layer="5277" from-port="2" to-layer="5279" to-port="0" />
		<edge from-layer="5278" from-port="0" to-layer="5279" to-port="1" />
		<edge from-layer="5279" from-port="2" to-layer="5280" to-port="2" />
		<edge from-layer="5280" from-port="5" to-layer="5282" to-port="0" />
		<edge from-layer="5281" from-port="0" to-layer="5282" to-port="1" />
		<edge from-layer="5282" from-port="2" to-layer="5283" to-port="0" />
		<edge from-layer="5283" from-port="2" to-layer="5294" to-port="0" />
		<edge from-layer="5284" from-port="0" to-layer="5285" to-port="0" />
		<edge from-layer="5285" from-port="1" to-layer="5288" to-port="0" />
		<edge from-layer="5286" from-port="0" to-layer="5287" to-port="0" />
		<edge from-layer="5287" from-port="1" to-layer="5288" to-port="1" />
		<edge from-layer="5288" from-port="2" to-layer="5290" to-port="0" />
		<edge from-layer="5289" from-port="0" to-layer="5290" to-port="1" />
		<edge from-layer="5290" from-port="2" to-layer="5292" to-port="0" />
		<edge from-layer="5291" from-port="0" to-layer="5292" to-port="1" />
		<edge from-layer="5292" from-port="2" to-layer="5293" to-port="0" />
		<edge from-layer="5293" from-port="1" to-layer="5294" to-port="1" />
		<edge from-layer="5294" from-port="2" to-layer="5295" to-port="1" />
		<edge from-layer="5295" from-port="2" to-layer="5343" to-port="0" />
		<edge from-layer="5295" from-port="2" to-layer="5306" to-port="0" />
		<edge from-layer="5295" from-port="2" to-layer="5299" to-port="0" />
		<edge from-layer="5296" from-port="0" to-layer="5307" to-port="0" />
		<edge from-layer="5297" from-port="0" to-layer="5305" to-port="0" />
		<edge from-layer="5298" from-port="0" to-layer="5299" to-port="1" />
		<edge from-layer="5299" from-port="2" to-layer="5301" to-port="0" />
		<edge from-layer="5300" from-port="0" to-layer="5301" to-port="1" />
		<edge from-layer="5301" from-port="2" to-layer="5303" to-port="0" />
		<edge from-layer="5302" from-port="0" to-layer="5303" to-port="1" />
		<edge from-layer="5303" from-port="2" to-layer="5304" to-port="0" />
		<edge from-layer="5304" from-port="1" to-layer="5305" to-port="1" />
		<edge from-layer="5305" from-port="2" to-layer="5306" to-port="1" />
		<edge from-layer="5306" from-port="2" to-layer="5307" to-port="1" />
		<edge from-layer="5307" from-port="2" to-layer="5330" to-port="0" />
		<edge from-layer="5307" from-port="2" to-layer="5318" to-port="0" />
		<edge from-layer="5308" from-port="0" to-layer="5309" to-port="0" />
		<edge from-layer="5309" from-port="1" to-layer="5312" to-port="0" />
		<edge from-layer="5310" from-port="0" to-layer="5311" to-port="0" />
		<edge from-layer="5311" from-port="1" to-layer="5312" to-port="1" />
		<edge from-layer="5312" from-port="2" to-layer="5314" to-port="0" />
		<edge from-layer="5313" from-port="0" to-layer="5314" to-port="1" />
		<edge from-layer="5314" from-port="2" to-layer="5316" to-port="0" />
		<edge from-layer="5315" from-port="0" to-layer="5316" to-port="1" />
		<edge from-layer="5316" from-port="2" to-layer="5317" to-port="0" />
		<edge from-layer="5317" from-port="1" to-layer="5318" to-port="1" />
		<edge from-layer="5318" from-port="2" to-layer="5319" to-port="0" />
		<edge from-layer="5319" from-port="1" to-layer="5331" to-port="0" />
		<edge from-layer="5320" from-port="0" to-layer="5321" to-port="0" />
		<edge from-layer="5321" from-port="1" to-layer="5324" to-port="0" />
		<edge from-layer="5322" from-port="0" to-layer="5323" to-port="0" />
		<edge from-layer="5323" from-port="1" to-layer="5324" to-port="1" />
		<edge from-layer="5324" from-port="2" to-layer="5326" to-port="0" />
		<edge from-layer="5325" from-port="0" to-layer="5326" to-port="1" />
		<edge from-layer="5326" from-port="2" to-layer="5328" to-port="0" />
		<edge from-layer="5327" from-port="0" to-layer="5328" to-port="1" />
		<edge from-layer="5328" from-port="2" to-layer="5329" to-port="0" />
		<edge from-layer="5329" from-port="1" to-layer="5330" to-port="1" />
		<edge from-layer="5330" from-port="2" to-layer="5331" to-port="1" />
		<edge from-layer="5331" from-port="2" to-layer="5342" to-port="0" />
		<edge from-layer="5332" from-port="0" to-layer="5333" to-port="0" />
		<edge from-layer="5333" from-port="1" to-layer="5336" to-port="0" />
		<edge from-layer="5334" from-port="0" to-layer="5335" to-port="0" />
		<edge from-layer="5335" from-port="1" to-layer="5336" to-port="1" />
		<edge from-layer="5336" from-port="2" to-layer="5338" to-port="0" />
		<edge from-layer="5337" from-port="0" to-layer="5338" to-port="1" />
		<edge from-layer="5338" from-port="2" to-layer="5340" to-port="0" />
		<edge from-layer="5339" from-port="0" to-layer="5340" to-port="1" />
		<edge from-layer="5340" from-port="2" to-layer="5341" to-port="0" />
		<edge from-layer="5341" from-port="1" to-layer="5342" to-port="1" />
		<edge from-layer="5342" from-port="2" to-layer="5343" to-port="1" />
		<edge from-layer="5343" from-port="2" to-layer="5520" to-port="0" />
		<edge from-layer="5343" from-port="2" to-layer="5346" to-port="0" />
		<edge from-layer="5343" from-port="2" to-layer="5353" to-port="0" />
		<edge from-layer="5344" from-port="0" to-layer="5352" to-port="0" />
		<edge from-layer="5345" from-port="0" to-layer="5346" to-port="1" />
		<edge from-layer="5346" from-port="2" to-layer="5348" to-port="0" />
		<edge from-layer="5347" from-port="0" to-layer="5348" to-port="1" />
		<edge from-layer="5348" from-port="2" to-layer="5350" to-port="0" />
		<edge from-layer="5349" from-port="0" to-layer="5350" to-port="1" />
		<edge from-layer="5350" from-port="2" to-layer="5351" to-port="0" />
		<edge from-layer="5351" from-port="1" to-layer="5352" to-port="1" />
		<edge from-layer="5352" from-port="2" to-layer="5353" to-port="1" />
		<edge from-layer="5353" from-port="2" to-layer="5354" to-port="1" />
		<edge from-layer="5354" from-port="2" to-layer="5394" to-port="0" />
		<edge from-layer="5354" from-port="2" to-layer="5472" to-port="0" />
		<edge from-layer="5354" from-port="2" to-layer="5365" to-port="0" />
		<edge from-layer="5355" from-port="0" to-layer="5356" to-port="0" />
		<edge from-layer="5356" from-port="1" to-layer="5359" to-port="0" />
		<edge from-layer="5357" from-port="0" to-layer="5358" to-port="0" />
		<edge from-layer="5358" from-port="1" to-layer="5359" to-port="1" />
		<edge from-layer="5359" from-port="2" to-layer="5361" to-port="0" />
		<edge from-layer="5360" from-port="0" to-layer="5361" to-port="1" />
		<edge from-layer="5361" from-port="2" to-layer="5363" to-port="0" />
		<edge from-layer="5362" from-port="0" to-layer="5363" to-port="1" />
		<edge from-layer="5363" from-port="2" to-layer="5364" to-port="0" />
		<edge from-layer="5364" from-port="1" to-layer="5365" to-port="1" />
		<edge from-layer="5365" from-port="2" to-layer="5368" to-port="0" />
		<edge from-layer="5366" from-port="0" to-layer="5367" to-port="0" />
		<edge from-layer="5367" from-port="1" to-layer="5368" to-port="1" />
		<edge from-layer="5368" from-port="2" to-layer="5370" to-port="0" />
		<edge from-layer="5369" from-port="0" to-layer="5370" to-port="1" />
		<edge from-layer="5370" from-port="2" to-layer="5372" to-port="0" />
		<edge from-layer="5371" from-port="0" to-layer="5372" to-port="1" />
		<edge from-layer="5372" from-port="2" to-layer="5373" to-port="1" />
		<edge from-layer="5373" from-port="2" to-layer="5374" to-port="0" />
		<edge from-layer="5373" from-port="2" to-layer="5501" to-port="0" />
		<edge from-layer="5375" from-port="0" to-layer="5380" to-port="0" />
		<edge from-layer="5376" from-port="0" to-layer="5379" to-port="1" />
		<edge from-layer="5377" from-port="0" to-layer="5379" to-port="2" />
		<edge from-layer="5378" from-port="0" to-layer="5379" to-port="3" />
		<edge from-layer="5379" from-port="4" to-layer="5380" to-port="1" />
		<edge from-layer="5380" from-port="2" to-layer="5381" to-port="0" />
		<edge from-layer="5381" from-port="1" to-layer="5383" to-port="0" />
		<edge from-layer="5382" from-port="0" to-layer="5383" to-port="2" />
		<edge from-layer="5383" from-port="3" to-layer="5419" to-port="0" />
		<edge from-layer="5384" from-port="0" to-layer="5385" to-port="0" />
		<edge from-layer="5385" from-port="1" to-layer="5388" to-port="0" />
		<edge from-layer="5386" from-port="0" to-layer="5387" to-port="0" />
		<edge from-layer="5387" from-port="1" to-layer="5388" to-port="1" />
		<edge from-layer="5388" from-port="2" to-layer="5390" to-port="0" />
		<edge from-layer="5389" from-port="0" to-layer="5390" to-port="1" />
		<edge from-layer="5390" from-port="2" to-layer="5392" to-port="0" />
		<edge from-layer="5391" from-port="0" to-layer="5392" to-port="1" />
		<edge from-layer="5392" from-port="2" to-layer="5393" to-port="0" />
		<edge from-layer="5393" from-port="1" to-layer="5394" to-port="1" />
		<edge from-layer="5394" from-port="2" to-layer="5397" to-port="0" />
		<edge from-layer="5395" from-port="0" to-layer="5396" to-port="0" />
		<edge from-layer="5396" from-port="1" to-layer="5397" to-port="1" />
		<edge from-layer="5397" from-port="2" to-layer="5399" to-port="0" />
		<edge from-layer="5398" from-port="0" to-layer="5399" to-port="1" />
		<edge from-layer="5399" from-port="2" to-layer="5401" to-port="0" />
		<edge from-layer="5400" from-port="0" to-layer="5401" to-port="1" />
		<edge from-layer="5401" from-port="2" to-layer="5415" to-port="0" />
		<edge from-layer="5401" from-port="2" to-layer="5407" to-port="0" />
		<edge from-layer="5401" from-port="2" to-layer="5402" to-port="0" />
		<edge from-layer="5402" from-port="2" to-layer="5418" to-port="0" />
		<edge from-layer="5403" from-port="0" to-layer="5407" to-port="1" />
		<edge from-layer="5404" from-port="0" to-layer="5407" to-port="2" />
		<edge from-layer="5405" from-port="0" to-layer="5407" to-port="3" />
		<edge from-layer="5406" from-port="0" to-layer="5407" to-port="4" />
		<edge from-layer="5407" from-port="5" to-layer="5410" to-port="0" />
		<edge from-layer="5408" from-port="0" to-layer="5409" to-port="0" />
		<edge from-layer="5409" from-port="1" to-layer="5410" to-port="1" />
		<edge from-layer="5410" from-port="2" to-layer="5416" to-port="0" />
		<edge from-layer="5411" from-port="0" to-layer="5415" to-port="1" />
		<edge from-layer="5412" from-port="0" to-layer="5415" to-port="2" />
		<edge from-layer="5413" from-port="0" to-layer="5415" to-port="3" />
		<edge from-layer="5414" from-port="0" to-layer="5415" to-port="4" />
		<edge from-layer="5415" from-port="5" to-layer="5416" to-port="1" />
		<edge from-layer="5416" from-port="2" to-layer="5417" to-port="0" />
		<edge from-layer="5417" from-port="2" to-layer="5418" to-port="1" />
		<edge from-layer="5418" from-port="2" to-layer="5419" to-port="1" />
		<edge from-layer="5419" from-port="2" to-layer="5497" to-port="0" />
		<edge from-layer="5419" from-port="2" to-layer="5420" to-port="0" />
		<edge from-layer="5461" from-port="0" to-layer="5579" to-port="0" />
		<edge from-layer="5462" from-port="0" to-layer="5463" to-port="0" />
		<edge from-layer="5463" from-port="1" to-layer="5466" to-port="0" />
		<edge from-layer="5464" from-port="0" to-layer="5465" to-port="0" />
		<edge from-layer="5465" from-port="1" to-layer="5466" to-port="1" />
		<edge from-layer="5466" from-port="2" to-layer="5468" to-port="0" />
		<edge from-layer="5467" from-port="0" to-layer="5468" to-port="1" />
		<edge from-layer="5468" from-port="2" to-layer="5470" to-port="0" />
		<edge from-layer="5469" from-port="0" to-layer="5470" to-port="1" />
		<edge from-layer="5470" from-port="2" to-layer="5471" to-port="0" />
		<edge from-layer="5471" from-port="1" to-layer="5472" to-port="1" />
		<edge from-layer="5472" from-port="2" to-layer="5475" to-port="0" />
		<edge from-layer="5473" from-port="0" to-layer="5474" to-port="0" />
		<edge from-layer="5474" from-port="1" to-layer="5475" to-port="1" />
		<edge from-layer="5475" from-port="2" to-layer="5477" to-port="0" />
		<edge from-layer="5476" from-port="0" to-layer="5477" to-port="1" />
		<edge from-layer="5477" from-port="2" to-layer="5479" to-port="0" />
		<edge from-layer="5478" from-port="0" to-layer="5479" to-port="1" />
		<edge from-layer="5479" from-port="2" to-layer="5485" to-port="0" />
		<edge from-layer="5479" from-port="2" to-layer="5493" to-port="0" />
		<edge from-layer="5479" from-port="2" to-layer="5480" to-port="0" />
		<edge from-layer="5480" from-port="2" to-layer="5496" to-port="0" />
		<edge from-layer="5481" from-port="0" to-layer="5485" to-port="1" />
		<edge from-layer="5482" from-port="0" to-layer="5485" to-port="2" />
		<edge from-layer="5483" from-port="0" to-layer="5485" to-port="3" />
		<edge from-layer="5484" from-port="0" to-layer="5485" to-port="4" />
		<edge from-layer="5485" from-port="5" to-layer="5488" to-port="0" />
		<edge from-layer="5486" from-port="0" to-layer="5487" to-port="0" />
		<edge from-layer="5487" from-port="1" to-layer="5488" to-port="1" />
		<edge from-layer="5488" from-port="2" to-layer="5494" to-port="0" />
		<edge from-layer="5489" from-port="0" to-layer="5493" to-port="1" />
		<edge from-layer="5490" from-port="0" to-layer="5493" to-port="2" />
		<edge from-layer="5491" from-port="0" to-layer="5493" to-port="3" />
		<edge from-layer="5492" from-port="0" to-layer="5493" to-port="4" />
		<edge from-layer="5493" from-port="5" to-layer="5494" to-port="1" />
		<edge from-layer="5494" from-port="2" to-layer="5495" to-port="0" />
		<edge from-layer="5495" from-port="2" to-layer="5496" to-port="1" />
		<edge from-layer="5496" from-port="2" to-layer="5505" to-port="0" />
		<edge from-layer="5497" from-port="2" to-layer="5498" to-port="0" />
		<edge from-layer="5498" from-port="2" to-layer="5500" to-port="0" />
		<edge from-layer="5499" from-port="0" to-layer="5500" to-port="1" />
		<edge from-layer="5500" from-port="2" to-layer="5505" to-port="1" />
		<edge from-layer="5501" from-port="2" to-layer="5502" to-port="0" />
		<edge from-layer="5502" from-port="2" to-layer="5504" to-port="0" />
		<edge from-layer="5503" from-port="0" to-layer="5504" to-port="1" />
		<edge from-layer="5504" from-port="2" to-layer="5505" to-port="2" />
		<edge from-layer="5505" from-port="5" to-layer="5507" to-port="0" />
		<edge from-layer="5506" from-port="0" to-layer="5507" to-port="1" />
		<edge from-layer="5507" from-port="2" to-layer="5508" to-port="0" />
		<edge from-layer="5508" from-port="2" to-layer="5519" to-port="0" />
		<edge from-layer="5509" from-port="0" to-layer="5510" to-port="0" />
		<edge from-layer="5510" from-port="1" to-layer="5513" to-port="0" />
		<edge from-layer="5511" from-port="0" to-layer="5512" to-port="0" />
		<edge from-layer="5512" from-port="1" to-layer="5513" to-port="1" />
		<edge from-layer="5513" from-port="2" to-layer="5515" to-port="0" />
		<edge from-layer="5514" from-port="0" to-layer="5515" to-port="1" />
		<edge from-layer="5515" from-port="2" to-layer="5517" to-port="0" />
		<edge from-layer="5516" from-port="0" to-layer="5517" to-port="1" />
		<edge from-layer="5517" from-port="2" to-layer="5518" to-port="0" />
		<edge from-layer="5518" from-port="1" to-layer="5519" to-port="1" />
		<edge from-layer="5519" from-port="2" to-layer="5520" to-port="1" />
		<edge from-layer="5520" from-port="2" to-layer="5568" to-port="0" />
		<edge from-layer="5520" from-port="2" to-layer="5531" to-port="0" />
		<edge from-layer="5520" from-port="2" to-layer="5524" to-port="0" />
		<edge from-layer="5521" from-port="0" to-layer="5532" to-port="0" />
		<edge from-layer="5522" from-port="0" to-layer="5530" to-port="0" />
		<edge from-layer="5523" from-port="0" to-layer="5524" to-port="1" />
		<edge from-layer="5524" from-port="2" to-layer="5526" to-port="0" />
		<edge from-layer="5525" from-port="0" to-layer="5526" to-port="1" />
		<edge from-layer="5526" from-port="2" to-layer="5528" to-port="0" />
		<edge from-layer="5527" from-port="0" to-layer="5528" to-port="1" />
		<edge from-layer="5528" from-port="2" to-layer="5529" to-port="0" />
		<edge from-layer="5529" from-port="1" to-layer="5530" to-port="1" />
		<edge from-layer="5530" from-port="2" to-layer="5531" to-port="1" />
		<edge from-layer="5531" from-port="2" to-layer="5532" to-port="1" />
		<edge from-layer="5532" from-port="2" to-layer="5543" to-port="0" />
		<edge from-layer="5532" from-port="2" to-layer="5555" to-port="0" />
		<edge from-layer="5533" from-port="0" to-layer="5534" to-port="0" />
		<edge from-layer="5534" from-port="1" to-layer="5537" to-port="0" />
		<edge from-layer="5535" from-port="0" to-layer="5536" to-port="0" />
		<edge from-layer="5536" from-port="1" to-layer="5537" to-port="1" />
		<edge from-layer="5537" from-port="2" to-layer="5539" to-port="0" />
		<edge from-layer="5538" from-port="0" to-layer="5539" to-port="1" />
		<edge from-layer="5539" from-port="2" to-layer="5541" to-port="0" />
		<edge from-layer="5540" from-port="0" to-layer="5541" to-port="1" />
		<edge from-layer="5541" from-port="2" to-layer="5542" to-port="0" />
		<edge from-layer="5542" from-port="1" to-layer="5543" to-port="1" />
		<edge from-layer="5543" from-port="2" to-layer="5544" to-port="0" />
		<edge from-layer="5544" from-port="1" to-layer="5556" to-port="0" />
		<edge from-layer="5545" from-port="0" to-layer="5546" to-port="0" />
		<edge from-layer="5546" from-port="1" to-layer="5549" to-port="0" />
		<edge from-layer="5547" from-port="0" to-layer="5548" to-port="0" />
		<edge from-layer="5548" from-port="1" to-layer="5549" to-port="1" />
		<edge from-layer="5549" from-port="2" to-layer="5551" to-port="0" />
		<edge from-layer="5550" from-port="0" to-layer="5551" to-port="1" />
		<edge from-layer="5551" from-port="2" to-layer="5553" to-port="0" />
		<edge from-layer="5552" from-port="0" to-layer="5553" to-port="1" />
		<edge from-layer="5553" from-port="2" to-layer="5554" to-port="0" />
		<edge from-layer="5554" from-port="1" to-layer="5555" to-port="1" />
		<edge from-layer="5555" from-port="2" to-layer="5556" to-port="1" />
		<edge from-layer="5556" from-port="2" to-layer="5567" to-port="0" />
		<edge from-layer="5557" from-port="0" to-layer="5558" to-port="0" />
		<edge from-layer="5558" from-port="1" to-layer="5561" to-port="0" />
		<edge from-layer="5559" from-port="0" to-layer="5560" to-port="0" />
		<edge from-layer="5560" from-port="1" to-layer="5561" to-port="1" />
		<edge from-layer="5561" from-port="2" to-layer="5563" to-port="0" />
		<edge from-layer="5562" from-port="0" to-layer="5563" to-port="1" />
		<edge from-layer="5563" from-port="2" to-layer="5565" to-port="0" />
		<edge from-layer="5564" from-port="0" to-layer="5565" to-port="1" />
		<edge from-layer="5565" from-port="2" to-layer="5566" to-port="0" />
		<edge from-layer="5566" from-port="1" to-layer="5567" to-port="1" />
		<edge from-layer="5567" from-port="2" to-layer="5568" to-port="1" />
		<edge from-layer="5568" from-port="2" to-layer="5571" to-port="0" />
		<edge from-layer="5568" from-port="2" to-layer="5578" to-port="0" />
		<edge from-layer="5569" from-port="0" to-layer="5577" to-port="0" />
		<edge from-layer="5570" from-port="0" to-layer="5571" to-port="1" />
		<edge from-layer="5571" from-port="2" to-layer="5573" to-port="0" />
		<edge from-layer="5572" from-port="0" to-layer="5573" to-port="1" />
		<edge from-layer="5573" from-port="2" to-layer="5575" to-port="0" />
		<edge from-layer="5574" from-port="0" to-layer="5575" to-port="1" />
		<edge from-layer="5575" from-port="2" to-layer="5576" to-port="0" />
		<edge from-layer="5576" from-port="1" to-layer="5577" to-port="1" />
		<edge from-layer="5577" from-port="2" to-layer="5578" to-port="1" />
		<edge from-layer="5578" from-port="2" to-layer="5579" to-port="1" />
		<edge from-layer="5579" from-port="2" to-layer="5580" to-port="0" />
		<edge from-layer="5580" from-port="2" to-layer="5581" to-port="0" />
	</edges>
	<rt_info>
		<Runtime_version value="2025.2.0-19140-c01cd93e24d-releases/2025/2" />
		<conversion_parameters>
			<framework value="pytorch" />
			<is_python_object value="True" />
		</conversion_parameters>
		<nncf>
			<friendly_names_were_updated value="True" />
			<weight_compression>
				<advanced_parameters value="{'statistics_path': None, 'awq_params': {'subset_size': 32, 'percent_to_apply': 0.002, 'alpha_min': 0.0, 'alpha_max': 1.0, 'steps': 100}, 'scale_estimation_params': {'subset_size': 64, 'initial_steps': 5, 'scale_steps': 5, 'weight_penalty': -1.0}, 'gptq_params': {'damp_percent': 0.1, 'block_size': 128, 'subset_size': 128}, 'lora_correction_params': {'adapter_rank': 8, 'num_iterations': 3, 'apply_regularization': True, 'subset_size': 128, 'use_int8_adapters': True}}" />
				<all_layers value="False" />
				<awq value="False" />
				<backup_mode value="int8_asym" />
				<gptq value="False" />
				<group_size value="128" />
				<ignored_scope value="[]" />
				<lora_correction value="False" />
				<mode value="int4_asym" />
				<ratio value="1.0" />
				<scale_estimation value="False" />
				<sensitivity_metric value="weight_quantization_error" />
			</weight_compression>
		</nncf>
		<optimum>
			<nncf_version value="2.15.0" />
			<optimum_intel_version value="1.26.0.dev0+3c8e4ba" />
			<optimum_version value="1.27.0" />
			<pytorch_version value="2.8.0+cpu" />
			<transformers_version value="4.51.3" />
		</optimum>
		<runtime_options>
			<ACTIVATIONS_SCALE_FACTOR value="8.0" />
		</runtime_options>
	</rt_info>
</net>
