<?xml version="1.0"?>
<net name="Model0" version="11">
	<layers>
		<layer id="3" name="input_ids" type="Parameter" version="opset1">
			<data shape="?,?" element_type="i64" />
			<output>
				<port id="0" precision="I64" names="input_ids">
					<dim>-1</dim>
					<dim>-1</dim>
				</port>
			</output>
		</layer>
		<layer id="2" name="attention_mask" type="Parameter" version="opset1">
			<data shape="?,?" element_type="i64" />
			<output>
				<port id="0" precision="I64" names="attention_mask">
					<dim>-1</dim>
					<dim>-1</dim>
				</port>
			</output>
		</layer>
		<layer id="1" name="position_ids" type="Parameter" version="opset1">
			<data shape="?,?" element_type="i64" />
			<output>
				<port id="0" precision="I64" names="position_ids">
					<dim>-1</dim>
					<dim>-1</dim>
				</port>
			</output>
		</layer>
		<layer id="0" name="beam_idx" type="Parameter" version="opset1">
			<data shape="?" element_type="i32" />
			<output>
				<port id="0" precision="I32" names="beam_idx">
					<dim>-1</dim>
				</port>
			</output>
		</layer>
		<layer id="4" name="Constant_74421" type="Const" version="opset1">
			<data element_type="f32" shape="" offset="0" size="4" />
			<output>
				<port id="0" precision="FP32" />
			</output>
		</layer>
		<layer id="5" name="ShapeOf_74407" type="ShapeOf" version="opset3">
			<data output_type="i64" />
			<input>
				<port id="0" precision="I64">
					<dim>-1</dim>
					<dim>-1</dim>
				</port>
			</input>
			<output>
				<port id="1" precision="I64">
					<dim>2</dim>
				</port>
			</output>
		</layer>
		<layer id="6" name="Constant_74409" type="Const" version="opset1">
			<data element_type="i64" shape="1" offset="4" size="8" />
			<output>
				<port id="0" precision="I64">
					<dim>1</dim>
				</port>
			</output>
		</layer>
		<layer id="7" name="Constant_74411" type="Const" version="opset1">
			<data element_type="i64" shape="" offset="4" size="8" />
			<output>
				<port id="0" precision="I64" />
			</output>
		</layer>
		<layer id="8" name="Gather_74412" type="Gather" version="opset8">
			<data batch_dims="0" />
			<input>
				<port id="0" precision="I64">
					<dim>2</dim>
				</port>
				<port id="1" precision="I64">
					<dim>1</dim>
				</port>
				<port id="2" precision="I64" />
			</input>
			<output>
				<port id="3" precision="I64">
					<dim>1</dim>
				</port>
			</output>
		</layer>
		<layer id="9" name="Constant_74414" type="Const" version="opset1">
			<data element_type="i64" shape="1" offset="12" size="8" />
			<output>
				<port id="0" precision="I64">
					<dim>1</dim>
				</port>
			</output>
		</layer>
		<layer id="10" name="Constant_74416" type="Const" version="opset1">
			<data element_type="i64" shape="1" offset="4" size="8" />
			<output>
				<port id="0" precision="I64">
					<dim>1</dim>
				</port>
			</output>
		</layer>
		<layer id="11" name="Constant_74418" type="Const" version="opset1">
			<data element_type="i64" shape="1" offset="20" size="8" />
			<output>
				<port id="0" precision="I64">
					<dim>1</dim>
				</port>
			</output>
		</layer>
		<layer id="12" name="Concat_74419" type="Concat" version="opset1">
			<data axis="0" />
			<input>
				<port id="0" precision="I64">
					<dim>1</dim>
				</port>
				<port id="1" precision="I64">
					<dim>1</dim>
				</port>
				<port id="2" precision="I64">
					<dim>1</dim>
				</port>
				<port id="3" precision="I64">
					<dim>1</dim>
				</port>
			</input>
			<output>
				<port id="4" precision="I64">
					<dim>4</dim>
				</port>
			</output>
		</layer>
		<layer id="13" name="Broadcast_74422" type="Broadcast" version="opset3">
			<data mode="numpy" />
			<input>
				<port id="0" precision="FP32" />
				<port id="1" precision="I64">
					<dim>4</dim>
				</port>
			</input>
			<output>
				<port id="2" precision="FP32">
					<dim>-1</dim>
					<dim>2</dim>
					<dim>0</dim>
					<dim>64</dim>
				</port>
			</output>
		</layer>
		<layer id="14" name="ReadValue_74083" type="ReadValue" version="opset6">
			<data variable_id="past_key_values.9.valuepresent.9.value" variable_type="f32" variable_shape="?,2,?,64" />
			<input>
				<port id="0" precision="FP32">
					<dim>-1</dim>
					<dim>2</dim>
					<dim>0</dim>
					<dim>64</dim>
				</port>
			</input>
			<output>
				<port id="1" precision="FP32" names="past_key_values.9.value">
					<dim>-1</dim>
					<dim>2</dim>
					<dim>-1</dim>
					<dim>64</dim>
				</port>
			</output>
		</layer>
		<layer id="15" name="Constant_73581" type="Const" version="opset1">
			<data element_type="i64" shape="" offset="4" size="8" />
			<output>
				<port id="0" precision="I64" />
			</output>
		</layer>
		<layer id="16" name="Gather_73582" type="Gather" version="opset8">
			<data batch_dims="0" />
			<input>
				<port id="0" precision="FP32">
					<dim>-1</dim>
					<dim>2</dim>
					<dim>-1</dim>
					<dim>64</dim>
				</port>
				<port id="1" precision="I32">
					<dim>-1</dim>
				</port>
				<port id="2" precision="I64" />
			</input>
			<output>
				<port id="3" precision="FP32">
					<dim>-1</dim>
					<dim>2</dim>
					<dim>-1</dim>
					<dim>64</dim>
				</port>
			</output>
		</layer>
		<layer id="17" name="Constant_65260" type="Const" version="opset1">
			<data element_type="f32" shape="1, 1, 896" offset="28" size="3584" />
			<output>
				<port id="0" precision="FP32">
					<dim>1</dim>
					<dim>1</dim>
					<dim>896</dim>
				</port>
			</output>
		</layer>
		<layer id="18" name="self.model.embed_tokens.weight" type="Const" version="opset1">
			<data element_type="u8" shape="151936, 896" offset="3612" size="136134656" />
			<output>
				<port id="0" precision="U8">
					<dim>151936</dim>
					<dim>896</dim>
				</port>
			</output>
		</layer>
		<layer id="19" name="Convert_92712" type="Convert" version="opset1">
			<data destination_type="f16" />
			<input>
				<port id="0" precision="U8">
					<dim>151936</dim>
					<dim>896</dim>
				</port>
			</input>
			<output>
				<port id="1" precision="FP16">
					<dim>151936</dim>
					<dim>896</dim>
				</port>
			</output>
		</layer>
		<layer id="20" name="self.model.embed_tokens.weight/zero_point" type="Const" version="opset1">
			<data element_type="u8" shape="151936, 1" offset="136138268" size="151936" />
			<output>
				<port id="0" precision="U8">
					<dim>151936</dim>
					<dim>1</dim>
				</port>
			</output>
		</layer>
		<layer id="21" name="Convert_92715" type="Convert" version="opset1">
			<data destination_type="f16" />
			<input>
				<port id="0" precision="U8">
					<dim>151936</dim>
					<dim>1</dim>
				</port>
			</input>
			<output>
				<port id="1" precision="FP16">
					<dim>151936</dim>
					<dim>1</dim>
				</port>
			</output>
		</layer>
		<layer id="22" name="self.model.embed_tokens.weight/zero_point/subtract" type="Subtract" version="opset1">
			<data auto_broadcast="numpy" />
			<input>
				<port id="0" precision="FP16">
					<dim>151936</dim>
					<dim>896</dim>
				</port>
				<port id="1" precision="FP16">
					<dim>151936</dim>
					<dim>1</dim>
				</port>
			</input>
			<output>
				<port id="2" precision="FP16">
					<dim>151936</dim>
					<dim>896</dim>
				</port>
			</output>
		</layer>
		<layer id="23" name="self.model.embed_tokens.weight/scale" type="Const" version="opset1">
			<data element_type="f16" shape="151936, 1" offset="136290204" size="303872" />
			<output>
				<port id="0" precision="FP16">
					<dim>151936</dim>
					<dim>1</dim>
				</port>
			</output>
		</layer>
		<layer id="24" name="self.model.embed_tokens.weight/fq_weights_0" type="Multiply" version="opset1">
			<data auto_broadcast="numpy" />
			<input>
				<port id="0" precision="FP16">
					<dim>151936</dim>
					<dim>896</dim>
				</port>
				<port id="1" precision="FP16">
					<dim>151936</dim>
					<dim>1</dim>
				</port>
			</input>
			<output>
				<port id="2" precision="FP16">
					<dim>151936</dim>
					<dim>896</dim>
				</port>
			</output>
		</layer>
		<layer id="25" name="__module.model.embed_tokens/ov_ext::embedding/Convert" type="Convert" version="opset1">
			<data destination_type="f32" />
			<rt_info>
				<attribute name="decompression" version="0" />
			</rt_info>
			<input>
				<port id="0" precision="FP16">
					<dim>151936</dim>
					<dim>896</dim>
				</port>
			</input>
			<output>
				<port id="1" precision="FP32">
					<dim>151936</dim>
					<dim>896</dim>
				</port>
			</output>
		</layer>
		<layer id="26" name="__module.model.embed_tokens/ov_ext::embedding/Convert_1" type="Convert" version="opset1">
			<data destination_type="i32" />
			<input>
				<port id="0" precision="I64">
					<dim>-1</dim>
					<dim>-1</dim>
				</port>
			</input>
			<output>
				<port id="1" precision="I32">
					<dim>-1</dim>
					<dim>-1</dim>
				</port>
			</output>
		</layer>
		<layer id="27" name="__module.model.embed_tokens/ov_ext::embedding/Constant" type="Const" version="opset1">
			<data element_type="i32" shape="" offset="0" size="4" />
			<output>
				<port id="0" precision="I32" />
			</output>
		</layer>
		<layer id="28" name="__module.model.embed_tokens/ov_ext::embedding/Gather" type="Gather" version="opset8">
			<data batch_dims="0" />
			<input>
				<port id="0" precision="FP32">
					<dim>151936</dim>
					<dim>896</dim>
				</port>
				<port id="1" precision="I32">
					<dim>-1</dim>
					<dim>-1</dim>
				</port>
				<port id="2" precision="I32" />
			</input>
			<output>
				<port id="3" precision="FP32" names="255,341,352,hidden_states.1,inputs_embeds">
					<dim>-1</dim>
					<dim>-1</dim>
					<dim>896</dim>
				</port>
			</output>
		</layer>
		<layer id="29" name="Constant_65185" type="Const" version="opset1">
			<data element_type="f32" shape="1, 1, 896" offset="136594076" size="3584" />
			<output>
				<port id="0" precision="FP32">
					<dim>1</dim>
					<dim>1</dim>
					<dim>896</dim>
				</port>
			</output>
		</layer>
		<layer id="30" name="Constant_65184" type="Const" version="opset1">
			<data element_type="f32" shape="1, 1, 1" offset="136597660" size="4" />
			<output>
				<port id="0" precision="FP32">
					<dim>1</dim>
					<dim>1</dim>
					<dim>1</dim>
				</port>
			</output>
		</layer>
		<layer id="31" name="Constant_65182" type="Const" version="opset1">
			<data element_type="f32" shape="1, 1, 1" offset="136597664" size="4" />
			<output>
				<port id="0" precision="FP32">
					<dim>1</dim>
					<dim>1</dim>
					<dim>1</dim>
				</port>
			</output>
		</layer>
		<layer id="32" name="__module.model.layers.0.input_layernorm/aten::pow/Power" type="Power" version="opset1">
			<data auto_broadcast="numpy" />
			<input>
				<port id="0" precision="FP32">
					<dim>-1</dim>
					<dim>-1</dim>
					<dim>896</dim>
				</port>
				<port id="1" precision="FP32">
					<dim>1</dim>
					<dim>1</dim>
					<dim>1</dim>
				</port>
			</input>
			<output>
				<port id="2" precision="FP32" names="342">
					<dim>-1</dim>
					<dim>-1</dim>
					<dim>896</dim>
				</port>
			</output>
		</layer>
		<layer id="33" name="Constant_555" type="Const" version="opset1">
			<data element_type="i64" shape="1" offset="136597668" size="8" />
			<output>
				<port id="0" precision="I64" names="343">
					<dim>1</dim>
				</port>
			</output>
		</layer>
		<layer id="34" name="__module.model.layers.0.input_layernorm/aten::mean/ReduceMean" type="ReduceMean" version="opset1">
			<data keep_dims="true" />
			<input>
				<port id="0" precision="FP32">
					<dim>-1</dim>
					<dim>-1</dim>
					<dim>896</dim>
				</port>
				<port id="1" precision="I64">
					<dim>1</dim>
				</port>
			</input>
			<output>
				<port id="2" precision="FP32" names="344,variance.1">
					<dim>-1</dim>
					<dim>-1</dim>
					<dim>1</dim>
				</port>
			</output>
		</layer>
		<layer id="35" name="Constant_65183" type="Const" version="opset1">
			<data element_type="f32" shape="1, 1, 1" offset="136597676" size="4" />
			<output>
				<port id="0" precision="FP32">
					<dim>1</dim>
					<dim>1</dim>
					<dim>1</dim>
				</port>
			</output>
		</layer>
		<layer id="36" name="__module.model.layers.0.input_layernorm/aten::add/Add" type="Add" version="opset1">
			<data auto_broadcast="numpy" />
			<input>
				<port id="0" precision="FP32">
					<dim>-1</dim>
					<dim>-1</dim>
					<dim>1</dim>
				</port>
				<port id="1" precision="FP32">
					<dim>1</dim>
					<dim>1</dim>
					<dim>1</dim>
				</port>
			</input>
			<output>
				<port id="2" precision="FP32" names="345">
					<dim>-1</dim>
					<dim>-1</dim>
					<dim>1</dim>
				</port>
			</output>
		</layer>
		<layer id="37" name="__module.model.layers.0.input_layernorm/aten::rsqrt/Sqrt" type="Sqrt" version="opset1">
			<input>
				<port id="0" precision="FP32">
					<dim>-1</dim>
					<dim>-1</dim>
					<dim>1</dim>
				</port>
			</input>
			<output>
				<port id="1" precision="FP32">
					<dim>-1</dim>
					<dim>-1</dim>
					<dim>1</dim>
				</port>
			</output>
		</layer>
		<layer id="38" name="__module.model.layers.0.input_layernorm/aten::rsqrt/Divide" type="Divide" version="opset1">
			<data auto_broadcast="numpy" m_pythondiv="true" />
			<input>
				<port id="0" precision="FP32">
					<dim>1</dim>
					<dim>1</dim>
					<dim>1</dim>
				</port>
				<port id="1" precision="FP32">
					<dim>-1</dim>
					<dim>-1</dim>
					<dim>1</dim>
				</port>
			</input>
			<output>
				<port id="2" precision="FP32" names="346">
					<dim>-1</dim>
					<dim>-1</dim>
					<dim>1</dim>
				</port>
			</output>
		</layer>
		<layer id="39" name="__module.model.layers.0.input_layernorm/aten::mul/Multiply" type="Multiply" version="opset1">
			<data auto_broadcast="numpy" />
			<input>
				<port id="0" precision="FP32">
					<dim>-1</dim>
					<dim>-1</dim>
					<dim>896</dim>
				</port>
				<port id="1" precision="FP32">
					<dim>-1</dim>
					<dim>-1</dim>
					<dim>1</dim>
				</port>
			</input>
			<output>
				<port id="2" precision="FP32" names="347,348,hidden_states.3,hidden_states.5">
					<dim>-1</dim>
					<dim>-1</dim>
					<dim>896</dim>
				</port>
			</output>
		</layer>
		<layer id="40" name="__module.model.layers.0.input_layernorm/aten::mul/Multiply_1" type="Multiply" version="opset1">
			<data auto_broadcast="numpy" />
			<input>
				<port id="0" precision="FP32">
					<dim>1</dim>
					<dim>1</dim>
					<dim>896</dim>
				</port>
				<port id="1" precision="FP32">
					<dim>-1</dim>
					<dim>-1</dim>
					<dim>896</dim>
				</port>
			</input>
			<output>
				<port id="2" precision="FP32" names="349,351,hidden_states.7">
					<dim>-1</dim>
					<dim>-1</dim>
					<dim>896</dim>
				</port>
			</output>
		</layer>
		<layer id="41" name="self.model.layers.0.self_attn.q_proj.weight" type="Const" version="opset1">
			<data element_type="u4" shape="896, 7, 128" offset="136597680" size="401408" />
			<output>
				<port id="0" precision="U4">
					<dim>896</dim>
					<dim>7</dim>
					<dim>128</dim>
				</port>
			</output>
		</layer>
		<layer id="42" name="Convert_466763" type="Convert" version="opset1">
			<data destination_type="f16" />
			<input>
				<port id="0" precision="U4">
					<dim>896</dim>
					<dim>7</dim>
					<dim>128</dim>
				</port>
			</input>
			<output>
				<port id="1" precision="FP16">
					<dim>896</dim>
					<dim>7</dim>
					<dim>128</dim>
				</port>
			</output>
		</layer>
		<layer id="43" name="self.model.layers.0.self_attn.q_proj.weight/zero_point" type="Const" version="opset1">
			<data element_type="u4" shape="896, 7, 1" offset="136999088" size="3136" />
			<output>
				<port id="0" precision="U4">
					<dim>896</dim>
					<dim>7</dim>
					<dim>1</dim>
				</port>
			</output>
		</layer>
		<layer id="44" name="Convert_466766" type="Convert" version="opset1">
			<data destination_type="f16" />
			<input>
				<port id="0" precision="U4">
					<dim>896</dim>
					<dim>7</dim>
					<dim>1</dim>
				</port>
			</input>
			<output>
				<port id="1" precision="FP16">
					<dim>896</dim>
					<dim>7</dim>
					<dim>1</dim>
				</port>
			</output>
		</layer>
		<layer id="45" name="self.model.layers.0.self_attn.q_proj.weight/zero_point/subtract" type="Subtract" version="opset1">
			<data auto_broadcast="numpy" />
			<input>
				<port id="0" precision="FP16">
					<dim>896</dim>
					<dim>7</dim>
					<dim>128</dim>
				</port>
				<port id="1" precision="FP16">
					<dim>896</dim>
					<dim>7</dim>
					<dim>1</dim>
				</port>
			</input>
			<output>
				<port id="2" precision="FP16">
					<dim>896</dim>
					<dim>7</dim>
					<dim>128</dim>
				</port>
			</output>
		</layer>
		<layer id="46" name="self.model.layers.0.self_attn.q_proj.weight/scale" type="Const" version="opset1">
			<data element_type="f16" shape="896, 7, 1" offset="137002224" size="12544" />
			<output>
				<port id="0" precision="FP16">
					<dim>896</dim>
					<dim>7</dim>
					<dim>1</dim>
				</port>
			</output>
		</layer>
		<layer id="47" name="self.model.layers.0.self_attn.q_proj.weight/fq_weights_1" type="Multiply" version="opset1">
			<data auto_broadcast="numpy" />
			<input>
				<port id="0" precision="FP16">
					<dim>896</dim>
					<dim>7</dim>
					<dim>128</dim>
				</port>
				<port id="1" precision="FP16">
					<dim>896</dim>
					<dim>7</dim>
					<dim>1</dim>
				</port>
			</input>
			<output>
				<port id="2" precision="FP16">
					<dim>896</dim>
					<dim>7</dim>
					<dim>128</dim>
				</port>
			</output>
		</layer>
		<layer id="48" name="Constant_466771" type="Const" version="opset1">
			<data element_type="i64" shape="2" offset="137014768" size="16" />
			<output>
				<port id="0" precision="I64">
					<dim>2</dim>
				</port>
			</output>
		</layer>
		<layer id="49" name="Reshape_466772" type="Reshape" version="opset1">
			<data special_zero="false" />
			<input>
				<port id="0" precision="FP16">
					<dim>896</dim>
					<dim>7</dim>
					<dim>128</dim>
				</port>
				<port id="1" precision="I64">
					<dim>2</dim>
				</port>
			</input>
			<output>
				<port id="2" precision="FP16">
					<dim>896</dim>
					<dim>896</dim>
				</port>
			</output>
		</layer>
		<layer id="50" name="__module.model.layers.0.self_attn.q_proj/ov_ext::linear/Convert" type="Convert" version="opset1">
			<data destination_type="f32" />
			<rt_info>
				<attribute name="decompression" version="0" />
			</rt_info>
			<input>
				<port id="0" precision="FP16">
					<dim>896</dim>
					<dim>896</dim>
				</port>
			</input>
			<output>
				<port id="1" precision="FP32">
					<dim>896</dim>
					<dim>896</dim>
				</port>
			</output>
		</layer>
		<layer id="51" name="__module.model.layers.0.self_attn.q_proj/ov_ext::linear/MatMul" type="MatMul" version="opset1">
			<data transpose_a="false" transpose_b="true" />
			<input>
				<port id="0" precision="FP32">
					<dim>-1</dim>
					<dim>-1</dim>
					<dim>896</dim>
				</port>
				<port id="1" precision="FP32">
					<dim>896</dim>
					<dim>896</dim>
				</port>
			</input>
			<output>
				<port id="2" precision="FP32">
					<dim>-1</dim>
					<dim>-1</dim>
					<dim>896</dim>
				</port>
			</output>
		</layer>
		<layer id="52" name="self.model.layers.0.self_attn.q_proj.bias" type="Const" version="opset1">
			<data element_type="bf16" shape="896" offset="137014784" size="1792" />
			<output>
				<port id="0" precision="BF16" names="self.model.layers.0.self_attn.q_proj.bias">
					<dim>896</dim>
				</port>
			</output>
		</layer>
		<layer id="53" name="__module.model.layers.0.self_attn.q_proj/ov_ext::linear/Convert_1" type="Convert" version="opset1">
			<data destination_type="f32" />
			<rt_info>
				<attribute name="decompression" version="0" />
			</rt_info>
			<input>
				<port id="0" precision="BF16">
					<dim>896</dim>
				</port>
			</input>
			<output>
				<port id="1" precision="FP32">
					<dim>896</dim>
				</port>
			</output>
		</layer>
		<layer id="54" name="__module.model.layers.0.self_attn.q_proj/ov_ext::linear/Add" type="Add" version="opset1">
			<data auto_broadcast="numpy" />
			<input>
				<port id="0" precision="FP32">
					<dim>-1</dim>
					<dim>-1</dim>
					<dim>896</dim>
				</port>
				<port id="1" precision="FP32">
					<dim>896</dim>
				</port>
			</input>
			<output>
				<port id="2" precision="FP32" names="361">
					<dim>-1</dim>
					<dim>-1</dim>
					<dim>896</dim>
				</port>
			</output>
		</layer>
		<layer id="55" name="Constant_72317" type="Const" version="opset1">
			<data element_type="i64" shape="4" offset="137016576" size="32" />
			<output>
				<port id="0" precision="I64">
					<dim>4</dim>
				</port>
			</output>
		</layer>
		<layer id="56" name="__module.model.layers.0.self_attn/aten::view/Reshape" type="Reshape" version="opset1">
			<data special_zero="true" />
			<input>
				<port id="0" precision="FP32">
					<dim>-1</dim>
					<dim>-1</dim>
					<dim>896</dim>
				</port>
				<port id="1" precision="I64">
					<dim>4</dim>
				</port>
			</input>
			<output>
				<port id="2" precision="FP32" names="363">
					<dim>-1</dim>
					<dim>-1</dim>
					<dim>14</dim>
					<dim>64</dim>
				</port>
			</output>
		</layer>
		<layer id="57" name="__module.model.layers.0.self_attn/aten::transpose/Constant" type="Const" version="opset1">
			<data element_type="i32" shape="4" offset="137016608" size="16" />
			<output>
				<port id="0" precision="I32">
					<dim>4</dim>
				</port>
			</output>
		</layer>
		<layer id="58" name="__module.model.layers.0.self_attn/aten::transpose/Transpose" type="Transpose" version="opset1">
			<input>
				<port id="0" precision="FP32">
					<dim>-1</dim>
					<dim>-1</dim>
					<dim>14</dim>
					<dim>64</dim>
				</port>
				<port id="1" precision="I32">
					<dim>4</dim>
				</port>
			</input>
			<output>
				<port id="2" precision="FP32" names="364,q.1">
					<dim>-1</dim>
					<dim>14</dim>
					<dim>-1</dim>
					<dim>64</dim>
				</port>
			</output>
		</layer>
		<layer id="59" name="__module.model.rotary_emb/aten::to/Convert" type="Const" version="opset1">
			<data element_type="f32" shape="1, 32, 1" offset="137016624" size="128" />
			<output>
				<port id="0" precision="FP32" names="312">
					<dim>1</dim>
					<dim>32</dim>
					<dim>1</dim>
				</port>
			</output>
		</layer>
		<layer id="60" name="ShapeOf_66689" type="ShapeOf" version="opset3">
			<data output_type="i64" />
			<input>
				<port id="0" precision="FP32">
					<dim>-1</dim>
					<dim>-1</dim>
					<dim>896</dim>
				</port>
			</input>
			<output>
				<port id="1" precision="I64">
					<dim>3</dim>
				</port>
			</output>
		</layer>
		<layer id="61" name="Constant_66690" type="Const" version="opset1">
			<data element_type="i64" shape="1" offset="4" size="8" />
			<output>
				<port id="0" precision="I64">
					<dim>1</dim>
				</port>
			</output>
		</layer>
		<layer id="62" name="Constant_66691" type="Const" version="opset1">
			<data element_type="i64" shape="" offset="4" size="8" />
			<output>
				<port id="0" precision="I64" />
			</output>
		</layer>
		<layer id="63" name="Gather_66692" type="Gather" version="opset8">
			<data batch_dims="0" />
			<input>
				<port id="0" precision="I64">
					<dim>3</dim>
				</port>
				<port id="1" precision="I64">
					<dim>1</dim>
				</port>
				<port id="2" precision="I64" />
			</input>
			<output>
				<port id="3" precision="I64" names="1062,1078,1223,1239,1384,1400,1545,1561,1706,1722,1867,1883,2028,2044,2189,2205,2350,2366,2511,2527,265,2672,2688,2833,2849,2994,3010,313,3155,3171,3316,3332,3477,3493,3638,3654,3799,3815,3960,3976,4121,4137,418,434,579,595,740,756,901,917">
					<dim>1</dim>
				</port>
			</output>
		</layer>
		<layer id="64" name="Constant_50802" type="Const" version="opset1">
			<data element_type="i64" shape="1" offset="137016752" size="8" />
			<output>
				<port id="0" precision="I64">
					<dim>1</dim>
				</port>
			</output>
		</layer>
		<layer id="65" name="Constant_50804" type="Const" version="opset1">
			<data element_type="i64" shape="1" offset="137016752" size="8" />
			<output>
				<port id="0" precision="I64">
					<dim>1</dim>
				</port>
			</output>
		</layer>
		<layer id="66" name="__module.model.rotary_emb/prim::ListConstruct" type="Concat" version="opset1">
			<data axis="0" />
			<input>
				<port id="0" precision="I64">
					<dim>1</dim>
				</port>
				<port id="1" precision="I64">
					<dim>1</dim>
				</port>
				<port id="2" precision="I64">
					<dim>1</dim>
				</port>
			</input>
			<output>
				<port id="3" precision="I64">
					<dim>3</dim>
				</port>
			</output>
		</layer>
		<layer id="67" name="__module.model.rotary_emb/aten::expand/Broadcast" type="Broadcast" version="opset3">
			<data mode="bidirectional" />
			<input>
				<port id="0" precision="FP32">
					<dim>1</dim>
					<dim>32</dim>
					<dim>1</dim>
				</port>
				<port id="1" precision="I64">
					<dim>3</dim>
				</port>
			</input>
			<output>
				<port id="2" precision="FP32" names="315,316,321,inv_freq_expanded,inv_freq_expanded.1">
					<dim>-1</dim>
					<dim>32</dim>
					<dim>1</dim>
				</port>
			</output>
		</layer>
		<layer id="68" name="201" type="Const" version="opset1">
			<data element_type="i64" shape="" offset="137016752" size="8" />
			<output>
				<port id="0" precision="I64" names="201" />
			</output>
		</layer>
		<layer id="69" name="__module.model.rotary_emb/aten::unsqueeze/Unsqueeze_2" type="Unsqueeze" version="opset1">
			<input>
				<port id="0" precision="I64">
					<dim>-1</dim>
					<dim>-1</dim>
				</port>
				<port id="1" precision="I64" />
			</input>
			<output>
				<port id="2" precision="I64" names="318,319">
					<dim>-1</dim>
					<dim>1</dim>
					<dim>-1</dim>
				</port>
			</output>
		</layer>
		<layer id="70" name="__module.model.rotary_emb/aten::to/Convert_3" type="Convert" version="opset1">
			<data destination_type="f32" />
			<input>
				<port id="0" precision="I64">
					<dim>-1</dim>
					<dim>1</dim>
					<dim>-1</dim>
				</port>
			</input>
			<output>
				<port id="1" precision="FP32" names="320,322,position_ids_expanded,position_ids_expanded.1">
					<dim>-1</dim>
					<dim>1</dim>
					<dim>-1</dim>
				</port>
			</output>
		</layer>
		<layer id="71" name="__module.model.rotary_emb/aten::matmul/MatMul" type="MatMul" version="opset1">
			<data transpose_a="false" transpose_b="false" />
			<input>
				<port id="0" precision="FP32">
					<dim>-1</dim>
					<dim>32</dim>
					<dim>1</dim>
				</port>
				<port id="1" precision="FP32">
					<dim>-1</dim>
					<dim>1</dim>
					<dim>-1</dim>
				</port>
			</input>
			<output>
				<port id="2" precision="FP32" names="323">
					<dim>-1</dim>
					<dim>32</dim>
					<dim>-1</dim>
				</port>
			</output>
		</layer>
		<layer id="72" name="__module.model.rotary_emb/aten::transpose/Constant" type="Const" version="opset1">
			<data element_type="i32" shape="3" offset="137016760" size="12" />
			<output>
				<port id="0" precision="I32">
					<dim>3</dim>
				</port>
			</output>
		</layer>
		<layer id="73" name="__module.model.rotary_emb/aten::transpose/Transpose" type="Transpose" version="opset1">
			<input>
				<port id="0" precision="FP32">
					<dim>-1</dim>
					<dim>32</dim>
					<dim>-1</dim>
				</port>
				<port id="1" precision="I32">
					<dim>3</dim>
				</port>
			</input>
			<output>
				<port id="2" precision="FP32" names="324">
					<dim>-1</dim>
					<dim>-1</dim>
					<dim>32</dim>
				</port>
			</output>
		</layer>
		<layer id="74" name="__module.model.rotary_emb/aten::cat/Concat" type="Concat" version="opset1">
			<data axis="-1" />
			<input>
				<port id="0" precision="FP32">
					<dim>-1</dim>
					<dim>-1</dim>
					<dim>32</dim>
				</port>
				<port id="1" precision="FP32">
					<dim>-1</dim>
					<dim>-1</dim>
					<dim>32</dim>
				</port>
			</input>
			<output>
				<port id="2" precision="FP32" names="326,emb">
					<dim>-1</dim>
					<dim>-1</dim>
					<dim>64</dim>
				</port>
			</output>
		</layer>
		<layer id="75" name="__module.model.rotary_emb/aten::cos/Cos" type="Cos" version="opset1">
			<input>
				<port id="0" precision="FP32">
					<dim>-1</dim>
					<dim>-1</dim>
					<dim>64</dim>
				</port>
			</input>
			<output>
				<port id="1" precision="FP32" names="327,328,331,334,cos.1,cos.3">
					<dim>-1</dim>
					<dim>-1</dim>
					<dim>64</dim>
				</port>
			</output>
		</layer>
		<layer id="76" name="__module.model.layers.0.self_attn/aten::unsqueeze/Unsqueeze" type="Unsqueeze" version="opset1">
			<input>
				<port id="0" precision="FP32">
					<dim>-1</dim>
					<dim>-1</dim>
					<dim>64</dim>
				</port>
				<port id="1" precision="I64" />
			</input>
			<output>
				<port id="2" precision="FP32" names="1024,1185,1346,1507,1668,1829,1990,2151,2312,2473,2634,2795,2956,3117,3278,3439,3600,3761,377,3922,4083,541,702,863,cos,cos.11,cos.13,cos.15,cos.17,cos.19,cos.21,cos.23,cos.25,cos.27,cos.29,cos.31,cos.33,cos.35,cos.37,cos.39,cos.41,cos.43,cos.45,cos.47,cos.49,cos.5,cos.7,cos.9">
					<dim>-1</dim>
					<dim>1</dim>
					<dim>-1</dim>
					<dim>64</dim>
				</port>
			</output>
		</layer>
		<layer id="77" name="__module.model.layers.0.self_attn/aten::mul/Multiply" type="Multiply" version="opset1">
			<data auto_broadcast="numpy" />
			<input>
				<port id="0" precision="FP32">
					<dim>-1</dim>
					<dim>14</dim>
					<dim>-1</dim>
					<dim>64</dim>
				</port>
				<port id="1" precision="FP32">
					<dim>-1</dim>
					<dim>1</dim>
					<dim>-1</dim>
					<dim>64</dim>
				</port>
			</input>
			<output>
				<port id="2" precision="FP32" names="379">
					<dim>-1</dim>
					<dim>14</dim>
					<dim>-1</dim>
					<dim>64</dim>
				</port>
			</output>
		</layer>
		<layer id="78" name="Constant_869" type="Const" version="opset1">
			<data element_type="i64" shape="1" offset="137016772" size="8" />
			<output>
				<port id="0" precision="I64">
					<dim>1</dim>
				</port>
			</output>
		</layer>
		<layer id="79" name="Constant_871" type="Const" version="opset1">
			<data element_type="i64" shape="1" offset="137016780" size="8" />
			<output>
				<port id="0" precision="I64">
					<dim>1</dim>
				</port>
			</output>
		</layer>
		<layer id="80" name="Constant_873" type="Const" version="opset1">
			<data element_type="i64" shape="1" offset="137016752" size="8" />
			<output>
				<port id="0" precision="I64">
					<dim>1</dim>
				</port>
			</output>
		</layer>
		<layer id="81" name="Constant_825" type="Const" version="opset1">
			<data element_type="i64" shape="1" offset="137016788" size="8" />
			<output>
				<port id="0" precision="I64">
					<dim>1</dim>
				</port>
			</output>
		</layer>
		<layer id="82" name="__module.model.layers.0.self_attn/aten::slice/Slice" type="Slice" version="opset8">
			<input>
				<port id="0" precision="FP32">
					<dim>-1</dim>
					<dim>14</dim>
					<dim>-1</dim>
					<dim>64</dim>
				</port>
				<port id="1" precision="I64">
					<dim>1</dim>
				</port>
				<port id="2" precision="I64">
					<dim>1</dim>
				</port>
				<port id="3" precision="I64">
					<dim>1</dim>
				</port>
				<port id="4" precision="I64">
					<dim>1</dim>
				</port>
			</input>
			<output>
				<port id="5" precision="FP32" names="389,x2.1">
					<dim>-1</dim>
					<dim>14</dim>
					<dim>-1</dim>
					<dim>32</dim>
				</port>
			</output>
		</layer>
		<layer id="83" name="__module.model.layers.0.self_attn/aten::neg/Constant" type="Const" version="opset1">
			<data element_type="i32" shape="" offset="137016796" size="4" />
			<output>
				<port id="0" precision="I32" />
			</output>
		</layer>
		<layer id="84" name="__module.model.layers.0.self_attn/aten::neg/ConvertLike" type="Convert" version="opset1">
			<data destination_type="f32" />
			<input>
				<port id="0" precision="I32" />
			</input>
			<output>
				<port id="1" precision="FP32" />
			</output>
		</layer>
		<layer id="85" name="__module.model.layers.0.self_attn/aten::neg/Multiply" type="Multiply" version="opset1">
			<data auto_broadcast="numpy" />
			<input>
				<port id="0" precision="FP32">
					<dim>-1</dim>
					<dim>14</dim>
					<dim>-1</dim>
					<dim>32</dim>
				</port>
				<port id="1" precision="FP32" />
			</input>
			<output>
				<port id="2" precision="FP32" names="390">
					<dim>-1</dim>
					<dim>14</dim>
					<dim>-1</dim>
					<dim>32</dim>
				</port>
			</output>
		</layer>
		<layer id="86" name="Constant_766" type="Const" version="opset1">
			<data element_type="i64" shape="1" offset="4" size="8" />
			<output>
				<port id="0" precision="I64">
					<dim>1</dim>
				</port>
			</output>
		</layer>
		<layer id="87" name="Constant_810" type="Const" version="opset1">
			<data element_type="i64" shape="1" offset="137016772" size="8" />
			<output>
				<port id="0" precision="I64">
					<dim>1</dim>
				</port>
			</output>
		</layer>
		<layer id="88" name="Constant_812" type="Const" version="opset1">
			<data element_type="i64" shape="1" offset="137016752" size="8" />
			<output>
				<port id="0" precision="I64">
					<dim>1</dim>
				</port>
			</output>
		</layer>
		<layer id="89" name="Constant_764" type="Const" version="opset1">
			<data element_type="i64" shape="1" offset="137016788" size="8" />
			<output>
				<port id="0" precision="I64">
					<dim>1</dim>
				</port>
			</output>
		</layer>
		<layer id="90" name="__module.model.layers.0.self_attn/aten::slice/Slice_1" type="Slice" version="opset8">
			<input>
				<port id="0" precision="FP32">
					<dim>-1</dim>
					<dim>14</dim>
					<dim>-1</dim>
					<dim>64</dim>
				</port>
				<port id="1" precision="I64">
					<dim>1</dim>
				</port>
				<port id="2" precision="I64">
					<dim>1</dim>
				</port>
				<port id="3" precision="I64">
					<dim>1</dim>
				</port>
				<port id="4" precision="I64">
					<dim>1</dim>
				</port>
			</input>
			<output>
				<port id="5" precision="FP32" names="384">
					<dim>-1</dim>
					<dim>14</dim>
					<dim>-1</dim>
					<dim>32</dim>
				</port>
			</output>
		</layer>
		<layer id="91" name="__module.model.layers.0.self_attn/aten::cat/Concat" type="Concat" version="opset1">
			<data axis="-1" />
			<input>
				<port id="0" precision="FP32">
					<dim>-1</dim>
					<dim>14</dim>
					<dim>-1</dim>
					<dim>32</dim>
				</port>
				<port id="1" precision="FP32">
					<dim>-1</dim>
					<dim>14</dim>
					<dim>-1</dim>
					<dim>32</dim>
				</port>
			</input>
			<output>
				<port id="2" precision="FP32" names="392">
					<dim>-1</dim>
					<dim>14</dim>
					<dim>-1</dim>
					<dim>64</dim>
				</port>
			</output>
		</layer>
		<layer id="92" name="__module.model.rotary_emb/aten::sin/Sin" type="Sin" version="opset1">
			<input>
				<port id="0" precision="FP32">
					<dim>-1</dim>
					<dim>-1</dim>
					<dim>64</dim>
				</port>
			</input>
			<output>
				<port id="1" precision="FP32" names="329,330,332,335,sin.1,sin.3">
					<dim>-1</dim>
					<dim>-1</dim>
					<dim>64</dim>
				</port>
			</output>
		</layer>
		<layer id="93" name="__module.model.layers.0.self_attn/aten::unsqueeze/Unsqueeze_1" type="Unsqueeze" version="opset1">
			<input>
				<port id="0" precision="FP32">
					<dim>-1</dim>
					<dim>-1</dim>
					<dim>64</dim>
				</port>
				<port id="1" precision="I64" />
			</input>
			<output>
				<port id="2" precision="FP32" names="1025,1186,1347,1508,1669,1830,1991,2152,2313,2474,2635,2796,2957,3118,3279,3440,3601,3762,378,3923,4084,542,703,864,sin,sin.11,sin.13,sin.15,sin.17,sin.19,sin.21,sin.23,sin.25,sin.27,sin.29,sin.31,sin.33,sin.35,sin.37,sin.39,sin.41,sin.43,sin.45,sin.47,sin.49,sin.5,sin.7,sin.9">
					<dim>-1</dim>
					<dim>1</dim>
					<dim>-1</dim>
					<dim>64</dim>
				</port>
			</output>
		</layer>
		<layer id="94" name="__module.model.layers.0.self_attn/aten::mul/Multiply_1" type="Multiply" version="opset1">
			<data auto_broadcast="numpy" />
			<input>
				<port id="0" precision="FP32">
					<dim>-1</dim>
					<dim>14</dim>
					<dim>-1</dim>
					<dim>64</dim>
				</port>
				<port id="1" precision="FP32">
					<dim>-1</dim>
					<dim>1</dim>
					<dim>-1</dim>
					<dim>64</dim>
				</port>
			</input>
			<output>
				<port id="2" precision="FP32" names="393">
					<dim>-1</dim>
					<dim>14</dim>
					<dim>-1</dim>
					<dim>64</dim>
				</port>
			</output>
		</layer>
		<layer id="95" name="__module.model.layers.0.self_attn/aten::add/Add" type="Add" version="opset1">
			<data auto_broadcast="numpy" />
			<input>
				<port id="0" precision="FP32">
					<dim>-1</dim>
					<dim>14</dim>
					<dim>-1</dim>
					<dim>64</dim>
				</port>
				<port id="1" precision="FP32">
					<dim>-1</dim>
					<dim>14</dim>
					<dim>-1</dim>
					<dim>64</dim>
				</port>
			</input>
			<output>
				<port id="2" precision="FP32" names="394,query.1">
					<dim>-1</dim>
					<dim>14</dim>
					<dim>-1</dim>
					<dim>64</dim>
				</port>
			</output>
		</layer>
		<layer id="96" name="Constant_74433" type="Const" version="opset1">
			<data element_type="f32" shape="" offset="0" size="4" />
			<output>
				<port id="0" precision="FP32" />
			</output>
		</layer>
		<layer id="97" name="Constant_74426" type="Const" version="opset1">
			<data element_type="i64" shape="1" offset="12" size="8" />
			<output>
				<port id="0" precision="I64">
					<dim>1</dim>
				</port>
			</output>
		</layer>
		<layer id="98" name="Constant_74428" type="Const" version="opset1">
			<data element_type="i64" shape="1" offset="4" size="8" />
			<output>
				<port id="0" precision="I64">
					<dim>1</dim>
				</port>
			</output>
		</layer>
		<layer id="99" name="Constant_74430" type="Const" version="opset1">
			<data element_type="i64" shape="1" offset="20" size="8" />
			<output>
				<port id="0" precision="I64">
					<dim>1</dim>
				</port>
			</output>
		</layer>
		<layer id="100" name="Concat_74431" type="Concat" version="opset1">
			<data axis="0" />
			<input>
				<port id="0" precision="I64">
					<dim>1</dim>
				</port>
				<port id="1" precision="I64">
					<dim>1</dim>
				</port>
				<port id="2" precision="I64">
					<dim>1</dim>
				</port>
				<port id="3" precision="I64">
					<dim>1</dim>
				</port>
			</input>
			<output>
				<port id="4" precision="I64">
					<dim>4</dim>
				</port>
			</output>
		</layer>
		<layer id="101" name="Broadcast_74434" type="Broadcast" version="opset3">
			<data mode="numpy" />
			<input>
				<port id="0" precision="FP32" />
				<port id="1" precision="I64">
					<dim>4</dim>
				</port>
			</input>
			<output>
				<port id="2" precision="FP32">
					<dim>-1</dim>
					<dim>2</dim>
					<dim>0</dim>
					<dim>64</dim>
				</port>
			</output>
		</layer>
		<layer id="102" name="ReadValue_73989" type="ReadValue" version="opset6">
			<data variable_id="past_key_values.0.keypresent.0.key" variable_type="f32" variable_shape="?,2,?,64" />
			<input>
				<port id="0" precision="FP32">
					<dim>-1</dim>
					<dim>2</dim>
					<dim>0</dim>
					<dim>64</dim>
				</port>
			</input>
			<output>
				<port id="1" precision="FP32" names="past_key_values.0.key">
					<dim>-1</dim>
					<dim>2</dim>
					<dim>-1</dim>
					<dim>64</dim>
				</port>
			</output>
		</layer>
		<layer id="103" name="Constant_73524" type="Const" version="opset1">
			<data element_type="i64" shape="" offset="4" size="8" />
			<output>
				<port id="0" precision="I64" />
			</output>
		</layer>
		<layer id="104" name="Gather_73525" type="Gather" version="opset8">
			<data batch_dims="0" />
			<input>
				<port id="0" precision="FP32">
					<dim>-1</dim>
					<dim>2</dim>
					<dim>-1</dim>
					<dim>64</dim>
				</port>
				<port id="1" precision="I32">
					<dim>-1</dim>
				</port>
				<port id="2" precision="I64" />
			</input>
			<output>
				<port id="3" precision="FP32">
					<dim>-1</dim>
					<dim>2</dim>
					<dim>-1</dim>
					<dim>64</dim>
				</port>
			</output>
		</layer>
		<layer id="105" name="self.model.layers.0.self_attn.k_proj.weight" type="Const" version="opset1">
			<data element_type="u4" shape="128, 7, 128" offset="137016800" size="57344" />
			<output>
				<port id="0" precision="U4">
					<dim>128</dim>
					<dim>7</dim>
					<dim>128</dim>
				</port>
			</output>
		</layer>
		<layer id="106" name="Convert_711611" type="Convert" version="opset1">
			<data destination_type="f16" />
			<input>
				<port id="0" precision="U4">
					<dim>128</dim>
					<dim>7</dim>
					<dim>128</dim>
				</port>
			</input>
			<output>
				<port id="1" precision="FP16">
					<dim>128</dim>
					<dim>7</dim>
					<dim>128</dim>
				</port>
			</output>
		</layer>
		<layer id="107" name="self.model.layers.0.self_attn.k_proj.weight/zero_point" type="Const" version="opset1">
			<data element_type="u4" shape="128, 7, 1" offset="137074144" size="448" />
			<output>
				<port id="0" precision="U4">
					<dim>128</dim>
					<dim>7</dim>
					<dim>1</dim>
				</port>
			</output>
		</layer>
		<layer id="108" name="Convert_711614" type="Convert" version="opset1">
			<data destination_type="f16" />
			<input>
				<port id="0" precision="U4">
					<dim>128</dim>
					<dim>7</dim>
					<dim>1</dim>
				</port>
			</input>
			<output>
				<port id="1" precision="FP16">
					<dim>128</dim>
					<dim>7</dim>
					<dim>1</dim>
				</port>
			</output>
		</layer>
		<layer id="109" name="self.model.layers.0.self_attn.k_proj.weight/zero_point/subtract" type="Subtract" version="opset1">
			<data auto_broadcast="numpy" />
			<input>
				<port id="0" precision="FP16">
					<dim>128</dim>
					<dim>7</dim>
					<dim>128</dim>
				</port>
				<port id="1" precision="FP16">
					<dim>128</dim>
					<dim>7</dim>
					<dim>1</dim>
				</port>
			</input>
			<output>
				<port id="2" precision="FP16">
					<dim>128</dim>
					<dim>7</dim>
					<dim>128</dim>
				</port>
			</output>
		</layer>
		<layer id="110" name="self.model.layers.0.self_attn.k_proj.weight/scale" type="Const" version="opset1">
			<data element_type="f16" shape="128, 7, 1" offset="137074592" size="1792" />
			<output>
				<port id="0" precision="FP16">
					<dim>128</dim>
					<dim>7</dim>
					<dim>1</dim>
				</port>
			</output>
		</layer>
		<layer id="111" name="self.model.layers.0.self_attn.k_proj.weight/fq_weights_1" type="Multiply" version="opset1">
			<data auto_broadcast="numpy" />
			<input>
				<port id="0" precision="FP16">
					<dim>128</dim>
					<dim>7</dim>
					<dim>128</dim>
				</port>
				<port id="1" precision="FP16">
					<dim>128</dim>
					<dim>7</dim>
					<dim>1</dim>
				</port>
			</input>
			<output>
				<port id="2" precision="FP16">
					<dim>128</dim>
					<dim>7</dim>
					<dim>128</dim>
				</port>
			</output>
		</layer>
		<layer id="112" name="Constant_711619" type="Const" version="opset1">
			<data element_type="i64" shape="2" offset="137076384" size="16" />
			<output>
				<port id="0" precision="I64">
					<dim>2</dim>
				</port>
			</output>
		</layer>
		<layer id="113" name="Reshape_711620" type="Reshape" version="opset1">
			<data special_zero="false" />
			<input>
				<port id="0" precision="FP16">
					<dim>128</dim>
					<dim>7</dim>
					<dim>128</dim>
				</port>
				<port id="1" precision="I64">
					<dim>2</dim>
				</port>
			</input>
			<output>
				<port id="2" precision="FP16">
					<dim>128</dim>
					<dim>896</dim>
				</port>
			</output>
		</layer>
		<layer id="114" name="__module.model.layers.0.self_attn.k_proj/ov_ext::linear/Convert" type="Convert" version="opset1">
			<data destination_type="f32" />
			<rt_info>
				<attribute name="decompression" version="0" />
			</rt_info>
			<input>
				<port id="0" precision="FP16">
					<dim>128</dim>
					<dim>896</dim>
				</port>
			</input>
			<output>
				<port id="1" precision="FP32">
					<dim>128</dim>
					<dim>896</dim>
				</port>
			</output>
		</layer>
		<layer id="115" name="__module.model.layers.0.self_attn.k_proj/ov_ext::linear/MatMul" type="MatMul" version="opset1">
			<data transpose_a="false" transpose_b="true" />
			<input>
				<port id="0" precision="FP32">
					<dim>-1</dim>
					<dim>-1</dim>
					<dim>896</dim>
				</port>
				<port id="1" precision="FP32">
					<dim>128</dim>
					<dim>896</dim>
				</port>
			</input>
			<output>
				<port id="2" precision="FP32">
					<dim>-1</dim>
					<dim>-1</dim>
					<dim>128</dim>
				</port>
			</output>
		</layer>
		<layer id="116" name="self.model.layers.0.self_attn.k_proj.bias" type="Const" version="opset1">
			<data element_type="bf16" shape="128" offset="137076400" size="256" />
			<output>
				<port id="0" precision="BF16" names="self.model.layers.0.self_attn.k_proj.bias">
					<dim>128</dim>
				</port>
			</output>
		</layer>
		<layer id="117" name="__module.model.layers.0.self_attn.k_proj/ov_ext::linear/Convert_1" type="Convert" version="opset1">
			<data destination_type="f32" />
			<rt_info>
				<attribute name="decompression" version="0" />
			</rt_info>
			<input>
				<port id="0" precision="BF16">
					<dim>128</dim>
				</port>
			</input>
			<output>
				<port id="1" precision="FP32">
					<dim>128</dim>
				</port>
			</output>
		</layer>
		<layer id="118" name="__module.model.layers.0.self_attn.k_proj/ov_ext::linear/Add" type="Add" version="opset1">
			<data auto_broadcast="numpy" />
			<input>
				<port id="0" precision="FP32">
					<dim>-1</dim>
					<dim>-1</dim>
					<dim>128</dim>
				</port>
				<port id="1" precision="FP32">
					<dim>128</dim>
				</port>
			</input>
			<output>
				<port id="2" precision="FP32" names="367">
					<dim>-1</dim>
					<dim>-1</dim>
					<dim>128</dim>
				</port>
			</output>
		</layer>
		<layer id="119" name="Constant_72318" type="Const" version="opset1">
			<data element_type="i64" shape="4" offset="137076656" size="32" />
			<output>
				<port id="0" precision="I64">
					<dim>4</dim>
				</port>
			</output>
		</layer>
		<layer id="120" name="__module.model.layers.0.self_attn/aten::view/Reshape_1" type="Reshape" version="opset1">
			<data special_zero="true" />
			<input>
				<port id="0" precision="FP32">
					<dim>-1</dim>
					<dim>-1</dim>
					<dim>128</dim>
				</port>
				<port id="1" precision="I64">
					<dim>4</dim>
				</port>
			</input>
			<output>
				<port id="2" precision="FP32" names="369">
					<dim>-1</dim>
					<dim>-1</dim>
					<dim>2</dim>
					<dim>64</dim>
				</port>
			</output>
		</layer>
		<layer id="121" name="__module.model.layers.0.self_attn/aten::transpose/Constant_1" type="Const" version="opset1">
			<data element_type="i32" shape="4" offset="137016608" size="16" />
			<output>
				<port id="0" precision="I32">
					<dim>4</dim>
				</port>
			</output>
		</layer>
		<layer id="122" name="__module.model.layers.0.self_attn/aten::transpose/Transpose_1" type="Transpose" version="opset1">
			<input>
				<port id="0" precision="FP32">
					<dim>-1</dim>
					<dim>-1</dim>
					<dim>2</dim>
					<dim>64</dim>
				</port>
				<port id="1" precision="I32">
					<dim>4</dim>
				</port>
			</input>
			<output>
				<port id="2" precision="FP32" names="370,k.1">
					<dim>-1</dim>
					<dim>2</dim>
					<dim>-1</dim>
					<dim>64</dim>
				</port>
			</output>
		</layer>
		<layer id="123" name="__module.model.layers.0.self_attn/aten::mul/Multiply_2" type="Multiply" version="opset1">
			<data auto_broadcast="numpy" />
			<input>
				<port id="0" precision="FP32">
					<dim>-1</dim>
					<dim>2</dim>
					<dim>-1</dim>
					<dim>64</dim>
				</port>
				<port id="1" precision="FP32">
					<dim>-1</dim>
					<dim>1</dim>
					<dim>-1</dim>
					<dim>64</dim>
				</port>
			</input>
			<output>
				<port id="2" precision="FP32" names="395">
					<dim>-1</dim>
					<dim>2</dim>
					<dim>-1</dim>
					<dim>64</dim>
				</port>
			</output>
		</layer>
		<layer id="124" name="Constant_1012" type="Const" version="opset1">
			<data element_type="i64" shape="1" offset="137016772" size="8" />
			<output>
				<port id="0" precision="I64">
					<dim>1</dim>
				</port>
			</output>
		</layer>
		<layer id="125" name="Constant_1014" type="Const" version="opset1">
			<data element_type="i64" shape="1" offset="137016780" size="8" />
			<output>
				<port id="0" precision="I64">
					<dim>1</dim>
				</port>
			</output>
		</layer>
		<layer id="126" name="Constant_1016" type="Const" version="opset1">
			<data element_type="i64" shape="1" offset="137016752" size="8" />
			<output>
				<port id="0" precision="I64">
					<dim>1</dim>
				</port>
			</output>
		</layer>
		<layer id="127" name="Constant_968" type="Const" version="opset1">
			<data element_type="i64" shape="1" offset="137016788" size="8" />
			<output>
				<port id="0" precision="I64">
					<dim>1</dim>
				</port>
			</output>
		</layer>
		<layer id="128" name="__module.model.layers.0.self_attn/aten::slice/Slice_2" type="Slice" version="opset8">
			<input>
				<port id="0" precision="FP32">
					<dim>-1</dim>
					<dim>2</dim>
					<dim>-1</dim>
					<dim>64</dim>
				</port>
				<port id="1" precision="I64">
					<dim>1</dim>
				</port>
				<port id="2" precision="I64">
					<dim>1</dim>
				</port>
				<port id="3" precision="I64">
					<dim>1</dim>
				</port>
				<port id="4" precision="I64">
					<dim>1</dim>
				</port>
			</input>
			<output>
				<port id="5" precision="FP32" names="405,x2.3">
					<dim>-1</dim>
					<dim>2</dim>
					<dim>-1</dim>
					<dim>32</dim>
				</port>
			</output>
		</layer>
		<layer id="129" name="__module.model.layers.0.self_attn/aten::neg/Constant_1" type="Const" version="opset1">
			<data element_type="i32" shape="" offset="137016796" size="4" />
			<output>
				<port id="0" precision="I32" />
			</output>
		</layer>
		<layer id="130" name="__module.model.layers.0.self_attn/aten::neg/ConvertLike_1" type="Convert" version="opset1">
			<data destination_type="f32" />
			<input>
				<port id="0" precision="I32" />
			</input>
			<output>
				<port id="1" precision="FP32" />
			</output>
		</layer>
		<layer id="131" name="__module.model.layers.0.self_attn/aten::neg/Multiply_1" type="Multiply" version="opset1">
			<data auto_broadcast="numpy" />
			<input>
				<port id="0" precision="FP32">
					<dim>-1</dim>
					<dim>2</dim>
					<dim>-1</dim>
					<dim>32</dim>
				</port>
				<port id="1" precision="FP32" />
			</input>
			<output>
				<port id="2" precision="FP32" names="406">
					<dim>-1</dim>
					<dim>2</dim>
					<dim>-1</dim>
					<dim>32</dim>
				</port>
			</output>
		</layer>
		<layer id="132" name="Constant_909" type="Const" version="opset1">
			<data element_type="i64" shape="1" offset="4" size="8" />
			<output>
				<port id="0" precision="I64">
					<dim>1</dim>
				</port>
			</output>
		</layer>
		<layer id="133" name="Constant_953" type="Const" version="opset1">
			<data element_type="i64" shape="1" offset="137016772" size="8" />
			<output>
				<port id="0" precision="I64">
					<dim>1</dim>
				</port>
			</output>
		</layer>
		<layer id="134" name="Constant_955" type="Const" version="opset1">
			<data element_type="i64" shape="1" offset="137016752" size="8" />
			<output>
				<port id="0" precision="I64">
					<dim>1</dim>
				</port>
			</output>
		</layer>
		<layer id="135" name="Constant_907" type="Const" version="opset1">
			<data element_type="i64" shape="1" offset="137016788" size="8" />
			<output>
				<port id="0" precision="I64">
					<dim>1</dim>
				</port>
			</output>
		</layer>
		<layer id="136" name="__module.model.layers.0.self_attn/aten::slice/Slice_3" type="Slice" version="opset8">
			<input>
				<port id="0" precision="FP32">
					<dim>-1</dim>
					<dim>2</dim>
					<dim>-1</dim>
					<dim>64</dim>
				</port>
				<port id="1" precision="I64">
					<dim>1</dim>
				</port>
				<port id="2" precision="I64">
					<dim>1</dim>
				</port>
				<port id="3" precision="I64">
					<dim>1</dim>
				</port>
				<port id="4" precision="I64">
					<dim>1</dim>
				</port>
			</input>
			<output>
				<port id="5" precision="FP32" names="400">
					<dim>-1</dim>
					<dim>2</dim>
					<dim>-1</dim>
					<dim>32</dim>
				</port>
			</output>
		</layer>
		<layer id="137" name="__module.model.layers.0.self_attn/aten::cat/Concat_1" type="Concat" version="opset1">
			<data axis="-1" />
			<input>
				<port id="0" precision="FP32">
					<dim>-1</dim>
					<dim>2</dim>
					<dim>-1</dim>
					<dim>32</dim>
				</port>
				<port id="1" precision="FP32">
					<dim>-1</dim>
					<dim>2</dim>
					<dim>-1</dim>
					<dim>32</dim>
				</port>
			</input>
			<output>
				<port id="2" precision="FP32" names="408">
					<dim>-1</dim>
					<dim>2</dim>
					<dim>-1</dim>
					<dim>64</dim>
				</port>
			</output>
		</layer>
		<layer id="138" name="__module.model.layers.0.self_attn/aten::mul/Multiply_3" type="Multiply" version="opset1">
			<data auto_broadcast="numpy" />
			<input>
				<port id="0" precision="FP32">
					<dim>-1</dim>
					<dim>2</dim>
					<dim>-1</dim>
					<dim>64</dim>
				</port>
				<port id="1" precision="FP32">
					<dim>-1</dim>
					<dim>1</dim>
					<dim>-1</dim>
					<dim>64</dim>
				</port>
			</input>
			<output>
				<port id="2" precision="FP32" names="409">
					<dim>-1</dim>
					<dim>2</dim>
					<dim>-1</dim>
					<dim>64</dim>
				</port>
			</output>
		</layer>
		<layer id="139" name="__module.model.layers.0.self_attn/aten::add/Add_1" type="Add" version="opset1">
			<data auto_broadcast="numpy" />
			<input>
				<port id="0" precision="FP32">
					<dim>-1</dim>
					<dim>2</dim>
					<dim>-1</dim>
					<dim>64</dim>
				</port>
				<port id="1" precision="FP32">
					<dim>-1</dim>
					<dim>2</dim>
					<dim>-1</dim>
					<dim>64</dim>
				</port>
			</input>
			<output>
				<port id="2" precision="FP32" names="410,key_states">
					<dim>-1</dim>
					<dim>2</dim>
					<dim>-1</dim>
					<dim>64</dim>
				</port>
			</output>
		</layer>
		<layer id="140" name="__module.model.layers.0.self_attn/aten::cat/Concat_2" type="Concat" version="opset1">
			<data axis="-2" />
			<input>
				<port id="0" precision="FP32">
					<dim>-1</dim>
					<dim>2</dim>
					<dim>-1</dim>
					<dim>64</dim>
				</port>
				<port id="1" precision="FP32">
					<dim>-1</dim>
					<dim>2</dim>
					<dim>-1</dim>
					<dim>64</dim>
				</port>
			</input>
			<output>
				<port id="2" precision="FP32" names="423,424,hidden_states.9">
					<dim>-1</dim>
					<dim>2</dim>
					<dim>-1</dim>
					<dim>64</dim>
				</port>
			</output>
		</layer>
		<layer id="141" name="202" type="Const" version="opset1">
			<data element_type="i64" shape="" offset="12" size="8" />
			<output>
				<port id="0" precision="I64" names="202" />
			</output>
		</layer>
		<layer id="142" name="__module.model.layers.0.self_attn/aten::unsqueeze/Unsqueeze_2" type="Unsqueeze" version="opset1">
			<input>
				<port id="0" precision="FP32">
					<dim>-1</dim>
					<dim>2</dim>
					<dim>-1</dim>
					<dim>64</dim>
				</port>
				<port id="1" precision="I64" />
			</input>
			<output>
				<port id="2" precision="FP32" names="425,426,427">
					<dim>-1</dim>
					<dim>2</dim>
					<dim>1</dim>
					<dim>-1</dim>
					<dim>64</dim>
				</port>
			</output>
		</layer>
		<layer id="143" name="__module.model.layers.0.self_attn/aten::size/ShapeOf_2" type="ShapeOf" version="opset3">
			<data output_type="i64" />
			<input>
				<port id="0" precision="FP32">
					<dim>-1</dim>
					<dim>2</dim>
					<dim>-1</dim>
					<dim>64</dim>
				</port>
			</input>
			<output>
				<port id="1" precision="I64">
					<dim>4</dim>
				</port>
			</output>
		</layer>
		<layer id="144" name="Constant_52500" type="Const" version="opset1">
			<data element_type="i64" shape="2" offset="137076688" size="16" />
			<output>
				<port id="0" precision="I64">
					<dim>2</dim>
				</port>
			</output>
		</layer>
		<layer id="145" name="Constant_52501" type="Const" version="opset1">
			<data element_type="i64" shape="" offset="4" size="8" />
			<output>
				<port id="0" precision="I64" />
			</output>
		</layer>
		<layer id="146" name="Gather_52502" type="Gather" version="opset8">
			<data batch_dims="0" />
			<input>
				<port id="0" precision="I64">
					<dim>4</dim>
				</port>
				<port id="1" precision="I64">
					<dim>2</dim>
				</port>
				<port id="2" precision="I64" />
			</input>
			<output>
				<port id="3" precision="I64">
					<dim>2</dim>
				</port>
			</output>
		</layer>
		<layer id="147" name="Constant_50811" type="Const" version="opset1">
			<data element_type="i64" shape="1" offset="137076704" size="8" />
			<output>
				<port id="0" precision="I64">
					<dim>1</dim>
				</port>
			</output>
		</layer>
		<layer id="148" name="ShapeOf_66703" type="ShapeOf" version="opset3">
			<data output_type="i64" />
			<input>
				<port id="0" precision="FP32">
					<dim>-1</dim>
					<dim>2</dim>
					<dim>-1</dim>
					<dim>64</dim>
				</port>
			</input>
			<output>
				<port id="1" precision="I64">
					<dim>4</dim>
				</port>
			</output>
		</layer>
		<layer id="149" name="Constant_66704" type="Const" version="opset1">
			<data element_type="i64" shape="" offset="12" size="8" />
			<output>
				<port id="0" precision="I64" />
			</output>
		</layer>
		<layer id="150" name="Constant_66705" type="Const" version="opset1">
			<data element_type="i64" shape="" offset="4" size="8" />
			<output>
				<port id="0" precision="I64" />
			</output>
		</layer>
		<layer id="151" name="Gather_66706" type="Gather" version="opset8">
			<data batch_dims="0" />
			<input>
				<port id="0" precision="I64">
					<dim>4</dim>
				</port>
				<port id="1" precision="I64" />
				<port id="2" precision="I64" />
			</input>
			<output>
				<port id="3" precision="I64" names="256" />
			</output>
		</layer>
		<layer id="152" name="Constant_66733" type="Const" version="opset1">
			<data element_type="i64" shape="1" offset="137016752" size="8" />
			<output>
				<port id="0" precision="I64">
					<dim>1</dim>
				</port>
			</output>
		</layer>
		<layer id="153" name="Reshape_66734" type="Reshape" version="opset1">
			<data special_zero="false" />
			<input>
				<port id="0" precision="I64" />
				<port id="1" precision="I64">
					<dim>1</dim>
				</port>
			</input>
			<output>
				<port id="2" precision="I64">
					<dim>1</dim>
				</port>
			</output>
		</layer>
		<layer id="154" name="Constant_66712" type="Const" version="opset1">
			<data element_type="i64" shape="" offset="137016752" size="8" />
			<output>
				<port id="0" precision="I64" />
			</output>
		</layer>
		<layer id="155" name="Constant_66713" type="Const" version="opset1">
			<data element_type="i64" shape="" offset="4" size="8" />
			<output>
				<port id="0" precision="I64" />
			</output>
		</layer>
		<layer id="156" name="Gather_66714" type="Gather" version="opset8">
			<data batch_dims="0" />
			<input>
				<port id="0" precision="I64">
					<dim>3</dim>
				</port>
				<port id="1" precision="I64" />
				<port id="2" precision="I64" />
			</input>
			<output>
				<port id="3" precision="I64" names="258,263" />
			</output>
		</layer>
		<layer id="157" name="Constant_66735" type="Const" version="opset1">
			<data element_type="i64" shape="1" offset="137016752" size="8" />
			<output>
				<port id="0" precision="I64">
					<dim>1</dim>
				</port>
			</output>
		</layer>
		<layer id="158" name="Reshape_66736" type="Reshape" version="opset1">
			<data special_zero="false" />
			<input>
				<port id="0" precision="I64" />
				<port id="1" precision="I64">
					<dim>1</dim>
				</port>
			</input>
			<output>
				<port id="2" precision="I64">
					<dim>1</dim>
				</port>
			</output>
		</layer>
		<layer id="159" name="Add_66737" type="Add" version="opset1">
			<data auto_broadcast="numpy" />
			<input>
				<port id="0" precision="I64">
					<dim>1</dim>
				</port>
				<port id="1" precision="I64">
					<dim>1</dim>
				</port>
			</input>
			<output>
				<port id="2" precision="I64" names="1065,1094,1226,1255,1387,1416,1548,1577,1709,1738,1870,1899,2031,2060,2192,2221,2353,2382,2514,2543,2675,2704,2836,2865,2997,3026,3158,3187,3319,3348,3480,3509,3641,3670,3802,3831,3963,3992,4124,4153,421,450,582,611,743,772,904,933">
					<dim>1</dim>
				</port>
			</output>
		</layer>
		<layer id="160" name="Constant_50814" type="Const" version="opset1">
			<data element_type="i64" shape="1" offset="20" size="8" />
			<output>
				<port id="0" precision="I64">
					<dim>1</dim>
				</port>
			</output>
		</layer>
		<layer id="161" name="__module.model.layers.0.self_attn/prim::ListConstruct_2" type="Concat" version="opset1">
			<data axis="0" />
			<input>
				<port id="0" precision="I64">
					<dim>2</dim>
				</port>
				<port id="1" precision="I64">
					<dim>1</dim>
				</port>
				<port id="2" precision="I64">
					<dim>1</dim>
				</port>
				<port id="3" precision="I64">
					<dim>1</dim>
				</port>
			</input>
			<output>
				<port id="4" precision="I64">
					<dim>5</dim>
				</port>
			</output>
		</layer>
		<layer id="162" name="__module.model.layers.0.self_attn/aten::expand/Broadcast" type="Broadcast" version="opset3">
			<data mode="bidirectional" />
			<input>
				<port id="0" precision="FP32">
					<dim>-1</dim>
					<dim>2</dim>
					<dim>1</dim>
					<dim>-1</dim>
					<dim>64</dim>
				</port>
				<port id="1" precision="I64">
					<dim>5</dim>
				</port>
			</input>
			<output>
				<port id="2" precision="FP32" names="429,hidden_states.11">
					<dim>-1</dim>
					<dim>2</dim>
					<dim>7</dim>
					<dim>-1</dim>
					<dim>64</dim>
				</port>
			</output>
		</layer>
		<layer id="163" name="Constant_72319" type="Const" version="opset1">
			<data element_type="i64" shape="4" offset="137076712" size="32" />
			<output>
				<port id="0" precision="I64">
					<dim>4</dim>
				</port>
			</output>
		</layer>
		<layer id="164" name="__module.model.layers.0.self_attn/aten::reshape/Reshape" type="Reshape" version="opset1">
			<data special_zero="true" />
			<input>
				<port id="0" precision="FP32">
					<dim>-1</dim>
					<dim>2</dim>
					<dim>7</dim>
					<dim>-1</dim>
					<dim>64</dim>
				</port>
				<port id="1" precision="I64">
					<dim>4</dim>
				</port>
			</input>
			<output>
				<port id="2" precision="FP32" names="433,key.1">
					<dim>-1</dim>
					<dim>14</dim>
					<dim>-1</dim>
					<dim>64</dim>
				</port>
			</output>
		</layer>
		<layer id="165" name="Constant_74445" type="Const" version="opset1">
			<data element_type="f32" shape="" offset="0" size="4" />
			<output>
				<port id="0" precision="FP32" />
			</output>
		</layer>
		<layer id="166" name="Constant_74438" type="Const" version="opset1">
			<data element_type="i64" shape="1" offset="12" size="8" />
			<output>
				<port id="0" precision="I64">
					<dim>1</dim>
				</port>
			</output>
		</layer>
		<layer id="167" name="Constant_74440" type="Const" version="opset1">
			<data element_type="i64" shape="1" offset="4" size="8" />
			<output>
				<port id="0" precision="I64">
					<dim>1</dim>
				</port>
			</output>
		</layer>
		<layer id="168" name="Constant_74442" type="Const" version="opset1">
			<data element_type="i64" shape="1" offset="20" size="8" />
			<output>
				<port id="0" precision="I64">
					<dim>1</dim>
				</port>
			</output>
		</layer>
		<layer id="169" name="Concat_74443" type="Concat" version="opset1">
			<data axis="0" />
			<input>
				<port id="0" precision="I64">
					<dim>1</dim>
				</port>
				<port id="1" precision="I64">
					<dim>1</dim>
				</port>
				<port id="2" precision="I64">
					<dim>1</dim>
				</port>
				<port id="3" precision="I64">
					<dim>1</dim>
				</port>
			</input>
			<output>
				<port id="4" precision="I64">
					<dim>4</dim>
				</port>
			</output>
		</layer>
		<layer id="170" name="Broadcast_74446" type="Broadcast" version="opset3">
			<data mode="numpy" />
			<input>
				<port id="0" precision="FP32" />
				<port id="1" precision="I64">
					<dim>4</dim>
				</port>
			</input>
			<output>
				<port id="2" precision="FP32">
					<dim>-1</dim>
					<dim>2</dim>
					<dim>0</dim>
					<dim>64</dim>
				</port>
			</output>
		</layer>
		<layer id="171" name="ReadValue_73991" type="ReadValue" version="opset6">
			<data variable_id="past_key_values.0.valuepresent.0.value" variable_type="f32" variable_shape="?,2,?,64" />
			<input>
				<port id="0" precision="FP32">
					<dim>-1</dim>
					<dim>2</dim>
					<dim>0</dim>
					<dim>64</dim>
				</port>
			</input>
			<output>
				<port id="1" precision="FP32" names="past_key_values.0.value">
					<dim>-1</dim>
					<dim>2</dim>
					<dim>-1</dim>
					<dim>64</dim>
				</port>
			</output>
		</layer>
		<layer id="172" name="Constant_73527" type="Const" version="opset1">
			<data element_type="i64" shape="" offset="4" size="8" />
			<output>
				<port id="0" precision="I64" />
			</output>
		</layer>
		<layer id="173" name="Gather_73528" type="Gather" version="opset8">
			<data batch_dims="0" />
			<input>
				<port id="0" precision="FP32">
					<dim>-1</dim>
					<dim>2</dim>
					<dim>-1</dim>
					<dim>64</dim>
				</port>
				<port id="1" precision="I32">
					<dim>-1</dim>
				</port>
				<port id="2" precision="I64" />
			</input>
			<output>
				<port id="3" precision="FP32">
					<dim>-1</dim>
					<dim>2</dim>
					<dim>-1</dim>
					<dim>64</dim>
				</port>
			</output>
		</layer>
		<layer id="174" name="self.model.layers.0.self_attn.v_proj.weight" type="Const" version="opset1">
			<data element_type="u4" shape="128, 7, 128" offset="137076744" size="57344" />
			<output>
				<port id="0" precision="U4">
					<dim>128</dim>
					<dim>7</dim>
					<dim>128</dim>
				</port>
			</output>
		</layer>
		<layer id="175" name="Convert_716712" type="Convert" version="opset1">
			<data destination_type="f16" />
			<input>
				<port id="0" precision="U4">
					<dim>128</dim>
					<dim>7</dim>
					<dim>128</dim>
				</port>
			</input>
			<output>
				<port id="1" precision="FP16">
					<dim>128</dim>
					<dim>7</dim>
					<dim>128</dim>
				</port>
			</output>
		</layer>
		<layer id="176" name="self.model.layers.0.self_attn.v_proj.weight/zero_point" type="Const" version="opset1">
			<data element_type="u4" shape="128, 7, 1" offset="137134088" size="448" />
			<output>
				<port id="0" precision="U4">
					<dim>128</dim>
					<dim>7</dim>
					<dim>1</dim>
				</port>
			</output>
		</layer>
		<layer id="177" name="Convert_716715" type="Convert" version="opset1">
			<data destination_type="f16" />
			<input>
				<port id="0" precision="U4">
					<dim>128</dim>
					<dim>7</dim>
					<dim>1</dim>
				</port>
			</input>
			<output>
				<port id="1" precision="FP16">
					<dim>128</dim>
					<dim>7</dim>
					<dim>1</dim>
				</port>
			</output>
		</layer>
		<layer id="178" name="self.model.layers.0.self_attn.v_proj.weight/zero_point/subtract" type="Subtract" version="opset1">
			<data auto_broadcast="numpy" />
			<input>
				<port id="0" precision="FP16">
					<dim>128</dim>
					<dim>7</dim>
					<dim>128</dim>
				</port>
				<port id="1" precision="FP16">
					<dim>128</dim>
					<dim>7</dim>
					<dim>1</dim>
				</port>
			</input>
			<output>
				<port id="2" precision="FP16">
					<dim>128</dim>
					<dim>7</dim>
					<dim>128</dim>
				</port>
			</output>
		</layer>
		<layer id="179" name="self.model.layers.0.self_attn.v_proj.weight/scale" type="Const" version="opset1">
			<data element_type="f16" shape="128, 7, 1" offset="137134536" size="1792" />
			<output>
				<port id="0" precision="FP16">
					<dim>128</dim>
					<dim>7</dim>
					<dim>1</dim>
				</port>
			</output>
		</layer>
		<layer id="180" name="self.model.layers.0.self_attn.v_proj.weight/fq_weights_1" type="Multiply" version="opset1">
			<data auto_broadcast="numpy" />
			<input>
				<port id="0" precision="FP16">
					<dim>128</dim>
					<dim>7</dim>
					<dim>128</dim>
				</port>
				<port id="1" precision="FP16">
					<dim>128</dim>
					<dim>7</dim>
					<dim>1</dim>
				</port>
			</input>
			<output>
				<port id="2" precision="FP16">
					<dim>128</dim>
					<dim>7</dim>
					<dim>128</dim>
				</port>
			</output>
		</layer>
		<layer id="181" name="Constant_716720" type="Const" version="opset1">
			<data element_type="i64" shape="2" offset="137076384" size="16" />
			<output>
				<port id="0" precision="I64">
					<dim>2</dim>
				</port>
			</output>
		</layer>
		<layer id="182" name="Reshape_716721" type="Reshape" version="opset1">
			<data special_zero="false" />
			<input>
				<port id="0" precision="FP16">
					<dim>128</dim>
					<dim>7</dim>
					<dim>128</dim>
				</port>
				<port id="1" precision="I64">
					<dim>2</dim>
				</port>
			</input>
			<output>
				<port id="2" precision="FP16">
					<dim>128</dim>
					<dim>896</dim>
				</port>
			</output>
		</layer>
		<layer id="183" name="__module.model.layers.0.self_attn.v_proj/ov_ext::linear/Convert" type="Convert" version="opset1">
			<data destination_type="f32" />
			<rt_info>
				<attribute name="decompression" version="0" />
			</rt_info>
			<input>
				<port id="0" precision="FP16">
					<dim>128</dim>
					<dim>896</dim>
				</port>
			</input>
			<output>
				<port id="1" precision="FP32">
					<dim>128</dim>
					<dim>896</dim>
				</port>
			</output>
		</layer>
		<layer id="184" name="__module.model.layers.0.self_attn.v_proj/ov_ext::linear/MatMul" type="MatMul" version="opset1">
			<data transpose_a="false" transpose_b="true" />
			<input>
				<port id="0" precision="FP32">
					<dim>-1</dim>
					<dim>-1</dim>
					<dim>896</dim>
				</port>
				<port id="1" precision="FP32">
					<dim>128</dim>
					<dim>896</dim>
				</port>
			</input>
			<output>
				<port id="2" precision="FP32">
					<dim>-1</dim>
					<dim>-1</dim>
					<dim>128</dim>
				</port>
			</output>
		</layer>
		<layer id="185" name="self.model.layers.0.self_attn.v_proj.bias" type="Const" version="opset1">
			<data element_type="bf16" shape="128" offset="137136328" size="256" />
			<output>
				<port id="0" precision="BF16" names="self.model.layers.0.self_attn.v_proj.bias">
					<dim>128</dim>
				</port>
			</output>
		</layer>
		<layer id="186" name="__module.model.layers.0.self_attn.v_proj/ov_ext::linear/Convert_1" type="Convert" version="opset1">
			<data destination_type="f32" />
			<rt_info>
				<attribute name="decompression" version="0" />
			</rt_info>
			<input>
				<port id="0" precision="BF16">
					<dim>128</dim>
				</port>
			</input>
			<output>
				<port id="1" precision="FP32">
					<dim>128</dim>
				</port>
			</output>
		</layer>
		<layer id="187" name="__module.model.layers.0.self_attn.v_proj/ov_ext::linear/Add" type="Add" version="opset1">
			<data auto_broadcast="numpy" />
			<input>
				<port id="0" precision="FP32">
					<dim>-1</dim>
					<dim>-1</dim>
					<dim>128</dim>
				</port>
				<port id="1" precision="FP32">
					<dim>128</dim>
				</port>
			</input>
			<output>
				<port id="2" precision="FP32" names="373">
					<dim>-1</dim>
					<dim>-1</dim>
					<dim>128</dim>
				</port>
			</output>
		</layer>
		<layer id="188" name="Constant_72320" type="Const" version="opset1">
			<data element_type="i64" shape="4" offset="137076656" size="32" />
			<output>
				<port id="0" precision="I64">
					<dim>4</dim>
				</port>
			</output>
		</layer>
		<layer id="189" name="__module.model.layers.0.self_attn/aten::view/Reshape_2" type="Reshape" version="opset1">
			<data special_zero="true" />
			<input>
				<port id="0" precision="FP32">
					<dim>-1</dim>
					<dim>-1</dim>
					<dim>128</dim>
				</port>
				<port id="1" precision="I64">
					<dim>4</dim>
				</port>
			</input>
			<output>
				<port id="2" precision="FP32" names="375">
					<dim>-1</dim>
					<dim>-1</dim>
					<dim>2</dim>
					<dim>64</dim>
				</port>
			</output>
		</layer>
		<layer id="190" name="__module.model.layers.0.self_attn/aten::transpose/Constant_2" type="Const" version="opset1">
			<data element_type="i32" shape="4" offset="137016608" size="16" />
			<output>
				<port id="0" precision="I32">
					<dim>4</dim>
				</port>
			</output>
		</layer>
		<layer id="191" name="__module.model.layers.0.self_attn/aten::transpose/Transpose_2" type="Transpose" version="opset1">
			<input>
				<port id="0" precision="FP32">
					<dim>-1</dim>
					<dim>-1</dim>
					<dim>2</dim>
					<dim>64</dim>
				</port>
				<port id="1" precision="I32">
					<dim>4</dim>
				</port>
			</input>
			<output>
				<port id="2" precision="FP32" names="376">
					<dim>-1</dim>
					<dim>2</dim>
					<dim>-1</dim>
					<dim>64</dim>
				</port>
			</output>
		</layer>
		<layer id="192" name="__module.model.layers.0.self_attn/aten::cat/Concat_3" type="Concat" version="opset1">
			<data axis="-2" />
			<input>
				<port id="0" precision="FP32">
					<dim>-1</dim>
					<dim>2</dim>
					<dim>-1</dim>
					<dim>64</dim>
				</port>
				<port id="1" precision="FP32">
					<dim>-1</dim>
					<dim>2</dim>
					<dim>-1</dim>
					<dim>64</dim>
				</port>
			</input>
			<output>
				<port id="2" precision="FP32" names="439,440,hidden_states.13">
					<dim>-1</dim>
					<dim>2</dim>
					<dim>-1</dim>
					<dim>64</dim>
				</port>
			</output>
		</layer>
		<layer id="193" name="__module.model.layers.0.self_attn/aten::unsqueeze/Unsqueeze_3" type="Unsqueeze" version="opset1">
			<input>
				<port id="0" precision="FP32">
					<dim>-1</dim>
					<dim>2</dim>
					<dim>-1</dim>
					<dim>64</dim>
				</port>
				<port id="1" precision="I64" />
			</input>
			<output>
				<port id="2" precision="FP32" names="441,442,443">
					<dim>-1</dim>
					<dim>2</dim>
					<dim>1</dim>
					<dim>-1</dim>
					<dim>64</dim>
				</port>
			</output>
		</layer>
		<layer id="194" name="__module.model.layers.0.self_attn/aten::expand/Broadcast_1" type="Broadcast" version="opset3">
			<data mode="bidirectional" />
			<input>
				<port id="0" precision="FP32">
					<dim>-1</dim>
					<dim>2</dim>
					<dim>1</dim>
					<dim>-1</dim>
					<dim>64</dim>
				</port>
				<port id="1" precision="I64">
					<dim>5</dim>
				</port>
			</input>
			<output>
				<port id="2" precision="FP32" names="445,hidden_states.15">
					<dim>-1</dim>
					<dim>2</dim>
					<dim>7</dim>
					<dim>-1</dim>
					<dim>64</dim>
				</port>
			</output>
		</layer>
		<layer id="195" name="Constant_72321" type="Const" version="opset1">
			<data element_type="i64" shape="4" offset="137076712" size="32" />
			<output>
				<port id="0" precision="I64">
					<dim>4</dim>
				</port>
			</output>
		</layer>
		<layer id="196" name="__module.model.layers.0.self_attn/aten::reshape/Reshape_1" type="Reshape" version="opset1">
			<data special_zero="true" />
			<input>
				<port id="0" precision="FP32">
					<dim>-1</dim>
					<dim>2</dim>
					<dim>7</dim>
					<dim>-1</dim>
					<dim>64</dim>
				</port>
				<port id="1" precision="I64">
					<dim>4</dim>
				</port>
			</input>
			<output>
				<port id="2" precision="FP32" names="449,value.1">
					<dim>-1</dim>
					<dim>14</dim>
					<dim>-1</dim>
					<dim>64</dim>
				</port>
			</output>
		</layer>
		<layer id="197" name="Constant_65187" type="Const" version="opset1">
			<data element_type="f32" shape="1, 1" offset="137136584" size="4" />
			<output>
				<port id="0" precision="FP32">
					<dim>1</dim>
					<dim>1</dim>
				</port>
			</output>
		</layer>
		<layer id="198" name="__module.model/aten::arange/Constant" type="Const" version="opset1">
			<data element_type="i32" shape="" offset="0" size="4" />
			<output>
				<port id="0" precision="I32" />
			</output>
		</layer>
		<layer id="199" name="ShapeOf_66697" type="ShapeOf" version="opset3">
			<data output_type="i64" />
			<input>
				<port id="0" precision="I64">
					<dim>-1</dim>
					<dim>-1</dim>
				</port>
			</input>
			<output>
				<port id="1" precision="I64">
					<dim>2</dim>
				</port>
			</output>
		</layer>
		<layer id="200" name="Constant_66698" type="Const" version="opset1">
			<data element_type="i64" shape="" offset="137016752" size="8" />
			<output>
				<port id="0" precision="I64" />
			</output>
		</layer>
		<layer id="201" name="Constant_66699" type="Const" version="opset1">
			<data element_type="i64" shape="" offset="4" size="8" />
			<output>
				<port id="0" precision="I64" />
			</output>
		</layer>
		<layer id="202" name="Gather_66700" type="Gather" version="opset8">
			<data batch_dims="0" />
			<input>
				<port id="0" precision="I64">
					<dim>2</dim>
				</port>
				<port id="1" precision="I64" />
				<port id="2" precision="I64" />
			</input>
			<output>
				<port id="3" precision="I64" names="264,286" />
			</output>
		</layer>
		<layer id="203" name="__module.model/aten::arange/Constant_1" type="Const" version="opset1">
			<data element_type="i32" shape="" offset="137136588" size="4" />
			<output>
				<port id="0" precision="I32" />
			</output>
		</layer>
		<layer id="204" name="__module.model/aten::arange/Range" type="Range" version="opset4">
			<data output_type="f32" />
			<input>
				<port id="0" precision="I32" />
				<port id="1" precision="I64" />
				<port id="2" precision="I32" />
			</input>
			<output>
				<port id="3" precision="FP32">
					<dim>-1</dim>
				</port>
			</output>
		</layer>
		<layer id="205" name="__module.model/aten::arange/ConvertLike" type="Convert" version="opset1">
			<data destination_type="i64" />
			<input>
				<port id="0" precision="FP32">
					<dim>-1</dim>
				</port>
			</input>
			<output>
				<port id="1" precision="I64" names="268,272">
					<dim>-1</dim>
				</port>
			</output>
		</layer>
		<layer id="206" name="__module.model/aten::gt/Convert" type="Convert" version="opset1">
			<data destination_type="f32" />
			<input>
				<port id="0" precision="I64">
					<dim>-1</dim>
				</port>
			</input>
			<output>
				<port id="1" precision="FP32">
					<dim>-1</dim>
				</port>
			</output>
		</layer>
		<layer id="207" name="__module.model/aten::add/Add" type="Add" version="opset1">
			<data auto_broadcast="numpy" />
			<input>
				<port id="0" precision="I64" />
				<port id="1" precision="I64" />
			</input>
			<output>
				<port id="2" precision="I64" names="260" />
			</output>
		</layer>
		<layer id="208" name="__module.model/aten::arange/Constant_2" type="Const" version="opset1">
			<data element_type="i32" shape="" offset="137136588" size="4" />
			<output>
				<port id="0" precision="I32" />
			</output>
		</layer>
		<layer id="209" name="__module.model/aten::arange/Range_1" type="Range" version="opset4">
			<data output_type="f32" />
			<input>
				<port id="0" precision="I64" />
				<port id="1" precision="I64" />
				<port id="2" precision="I32" />
			</input>
			<output>
				<port id="3" precision="FP32" names="262,cache_position">
					<dim>-1</dim>
				</port>
			</output>
		</layer>
		<layer id="210" name="Constant_170" type="Const" version="opset1">
			<data element_type="i64" shape="2" offset="137136592" size="16" />
			<output>
				<port id="0" precision="I64" names="269">
					<dim>2</dim>
				</port>
			</output>
		</layer>
		<layer id="211" name="__module.model/aten::reshape/Reshape" type="Reshape" version="opset1">
			<data special_zero="false" />
			<input>
				<port id="0" precision="FP32">
					<dim>-1</dim>
				</port>
				<port id="1" precision="I64">
					<dim>2</dim>
				</port>
			</input>
			<output>
				<port id="2" precision="FP32" names="270,274">
					<dim>-1</dim>
					<dim>1</dim>
				</port>
			</output>
		</layer>
		<layer id="212" name="__module.model/aten::gt/Greater" type="Greater" version="opset1">
			<data auto_broadcast="numpy" />
			<input>
				<port id="0" precision="FP32">
					<dim>-1</dim>
				</port>
				<port id="1" precision="FP32">
					<dim>-1</dim>
					<dim>1</dim>
				</port>
			</input>
			<output>
				<port id="2" precision="BOOL" names="271_1">
					<dim>-1</dim>
					<dim>-1</dim>
				</port>
			</output>
		</layer>
		<layer id="213" name="Constant_65186" type="Const" version="opset1">
			<data element_type="f32" shape="1, 1" offset="137136608" size="4" />
			<output>
				<port id="0" precision="FP32">
					<dim>1</dim>
					<dim>1</dim>
				</port>
			</output>
		</layer>
		<layer id="214" name="__module.model/aten::sub/Subtract" type="Add" version="opset1">
			<data auto_broadcast="numpy" />
			<input>
				<port id="0" precision="FP32">
					<dim>-1</dim>
					<dim>1</dim>
				</port>
				<port id="1" precision="FP32">
					<dim>1</dim>
					<dim>1</dim>
				</port>
			</input>
			<output>
				<port id="2" precision="FP32" names="275">
					<dim>-1</dim>
					<dim>1</dim>
				</port>
			</output>
		</layer>
		<layer id="215" name="__module.model/aten::le/LessEqual" type="LessEqual" version="opset1">
			<data auto_broadcast="numpy" />
			<input>
				<port id="0" precision="FP32">
					<dim>-1</dim>
				</port>
				<port id="1" precision="FP32">
					<dim>-1</dim>
					<dim>1</dim>
				</port>
			</input>
			<output>
				<port id="2" precision="BOOL" names="276,sliding_attend_mask">
					<dim>-1</dim>
					<dim>-1</dim>
				</port>
			</output>
		</layer>
		<layer id="216" name="__module.model/aten::bitwise_or_/BitwiseOr" type="BitwiseOr" version="opset13">
			<data auto_broadcast="numpy" />
			<input>
				<port id="0" precision="BOOL">
					<dim>-1</dim>
					<dim>-1</dim>
				</port>
				<port id="1" precision="BOOL">
					<dim>-1</dim>
					<dim>-1</dim>
				</port>
			</input>
			<output>
				<port id="2" precision="BOOL" names="271,diagonal_attend_mask.1">
					<dim>-1</dim>
					<dim>-1</dim>
				</port>
			</output>
		</layer>
		<layer id="217" name="__module.model/aten::mul_/ConvertLike" type="Convert" version="opset1">
			<data destination_type="f32" />
			<input>
				<port id="0" precision="BOOL">
					<dim>-1</dim>
					<dim>-1</dim>
				</port>
			</input>
			<output>
				<port id="1" precision="FP32">
					<dim>-1</dim>
					<dim>-1</dim>
				</port>
			</output>
		</layer>
		<layer id="218" name="Multiply_53192" type="Multiply" version="opset1">
			<data auto_broadcast="numpy" />
			<input>
				<port id="0" precision="FP32">
					<dim>1</dim>
					<dim>1</dim>
				</port>
				<port id="1" precision="FP32">
					<dim>-1</dim>
					<dim>-1</dim>
				</port>
			</input>
			<output>
				<port id="2" precision="FP32">
					<dim>-1</dim>
					<dim>-1</dim>
				</port>
			</output>
		</layer>
		<layer id="219" name="ShapeOf_53193" type="ShapeOf" version="opset3">
			<data output_type="i64" />
			<input>
				<port id="0" precision="FP32">
					<dim>-1</dim>
					<dim>-1</dim>
				</port>
			</input>
			<output>
				<port id="1" precision="I64">
					<dim>2</dim>
				</port>
			</output>
		</layer>
		<layer id="220" name="Maximum_53194" type="Maximum" version="opset1">
			<data auto_broadcast="numpy" />
			<input>
				<port id="0" precision="I64">
					<dim>2</dim>
				</port>
				<port id="1" precision="I64">
					<dim>2</dim>
				</port>
			</input>
			<output>
				<port id="2" precision="I64">
					<dim>2</dim>
				</port>
			</output>
		</layer>
		<layer id="221" name="__module.model/aten::mul_/Multiply" type="Broadcast" version="opset3">
			<data mode="numpy" />
			<input>
				<port id="0" precision="FP32">
					<dim>-1</dim>
					<dim>-1</dim>
				</port>
				<port id="1" precision="I64">
					<dim>2</dim>
				</port>
			</input>
			<output>
				<port id="2" precision="FP32" names="267,causal_mask.1">
					<dim>-1</dim>
					<dim>-1</dim>
				</port>
			</output>
		</layer>
		<layer id="222" name="197" type="Const" version="opset1">
			<data element_type="i64" shape="" offset="4" size="8" />
			<output>
				<port id="0" precision="I64" names="197" />
			</output>
		</layer>
		<layer id="223" name="__module.model/aten::unsqueeze/Unsqueeze" type="Unsqueeze" version="opset1">
			<input>
				<port id="0" precision="FP32">
					<dim>-1</dim>
					<dim>-1</dim>
				</port>
				<port id="1" precision="I64" />
			</input>
			<output>
				<port id="2" precision="FP32" names="279">
					<dim>1</dim>
					<dim>-1</dim>
					<dim>-1</dim>
				</port>
			</output>
		</layer>
		<layer id="224" name="__module.model/aten::unsqueeze/Unsqueeze_1" type="Unsqueeze" version="opset1">
			<input>
				<port id="0" precision="FP32">
					<dim>1</dim>
					<dim>-1</dim>
					<dim>-1</dim>
				</port>
				<port id="1" precision="I64" />
			</input>
			<output>
				<port id="2" precision="FP32" names="280,281,282">
					<dim>1</dim>
					<dim>1</dim>
					<dim>-1</dim>
					<dim>-1</dim>
				</port>
			</output>
		</layer>
		<layer id="225" name="Constant_50842" type="Const" version="opset1">
			<data element_type="i64" shape="1" offset="137016752" size="8" />
			<output>
				<port id="0" precision="I64">
					<dim>1</dim>
				</port>
			</output>
		</layer>
		<layer id="226" name="Constant_50844" type="Const" version="opset1">
			<data element_type="i64" shape="1" offset="137016752" size="8" />
			<output>
				<port id="0" precision="I64">
					<dim>1</dim>
				</port>
			</output>
		</layer>
		<layer id="227" name="Constant_50846" type="Const" version="opset1">
			<data element_type="i64" shape="1" offset="137016752" size="8" />
			<output>
				<port id="0" precision="I64">
					<dim>1</dim>
				</port>
			</output>
		</layer>
		<layer id="228" name="__module.model/prim::ListConstruct_1" type="Concat" version="opset1">
			<data axis="0" />
			<input>
				<port id="0" precision="I64">
					<dim>1</dim>
				</port>
				<port id="1" precision="I64">
					<dim>1</dim>
				</port>
				<port id="2" precision="I64">
					<dim>1</dim>
				</port>
				<port id="3" precision="I64">
					<dim>1</dim>
				</port>
			</input>
			<output>
				<port id="4" precision="I64">
					<dim>4</dim>
				</port>
			</output>
		</layer>
		<layer id="229" name="__module.model/aten::expand/Broadcast" type="Broadcast" version="opset3">
			<data mode="bidirectional" />
			<input>
				<port id="0" precision="FP32">
					<dim>1</dim>
					<dim>1</dim>
					<dim>-1</dim>
					<dim>-1</dim>
				</port>
				<port id="1" precision="I64">
					<dim>4</dim>
				</port>
			</input>
			<output>
				<port id="2" precision="FP32" names="284,287,288,289,298,299,300,303_1,304_1,305_1,causal_mask.5">
					<dim>-1</dim>
					<dim>1</dim>
					<dim>-1</dim>
					<dim>-1</dim>
				</port>
			</output>
		</layer>
		<layer id="230" name="Constant_42152" type="Const" version="opset1">
			<data element_type="i64" shape="1" offset="136597668" size="8" />
			<output>
				<port id="0" precision="I64">
					<dim>1</dim>
				</port>
			</output>
		</layer>
		<layer id="231" name="SliceAssign_411/Reshape_3" type="Reshape" version="opset1">
			<data special_zero="false" />
			<input>
				<port id="0" precision="FP32">
					<dim>-1</dim>
					<dim>1</dim>
					<dim>-1</dim>
					<dim>-1</dim>
				</port>
				<port id="1" precision="I64">
					<dim>1</dim>
				</port>
			</input>
			<output>
				<port id="2" precision="FP32">
					<dim>-1</dim>
				</port>
			</output>
		</layer>
		<layer id="232" name="Constant_27551" type="Const" version="opset1">
			<data element_type="i64" shape="" offset="4" size="8" />
			<output>
				<port id="0" precision="I64" />
			</output>
		</layer>
		<layer id="233" name="SliceAssign_411/ShapeOf" type="ShapeOf" version="opset3">
			<data output_type="i64" />
			<input>
				<port id="0" precision="FP32">
					<dim>-1</dim>
					<dim>1</dim>
					<dim>-1</dim>
					<dim>-1</dim>
				</port>
			</input>
			<output>
				<port id="1" precision="I64">
					<dim>4</dim>
				</port>
			</output>
		</layer>
		<layer id="234" name="SliceAssign_411/ReduceProd" type="ReduceProd" version="opset1">
			<data keep_dims="false" />
			<input>
				<port id="0" precision="I64">
					<dim>4</dim>
				</port>
				<port id="1" precision="I64" />
			</input>
			<output>
				<port id="2" precision="I64" />
			</output>
		</layer>
		<layer id="235" name="Constant_27552" type="Const" version="opset1">
			<data element_type="i64" shape="" offset="137016752" size="8" />
			<output>
				<port id="0" precision="I64" />
			</output>
		</layer>
		<layer id="236" name="SliceAssign_411/Range" type="Range" version="opset4">
			<data output_type="i64" />
			<input>
				<port id="0" precision="I64" />
				<port id="1" precision="I64" />
				<port id="2" precision="I64" />
			</input>
			<output>
				<port id="3" precision="I64">
					<dim>-1</dim>
				</port>
			</output>
		</layer>
		<layer id="237" name="SliceAssign_411/Reshape" type="Reshape" version="opset1">
			<data special_zero="false" />
			<input>
				<port id="0" precision="I64">
					<dim>-1</dim>
				</port>
				<port id="1" precision="I64">
					<dim>4</dim>
				</port>
			</input>
			<output>
				<port id="2" precision="I64">
					<dim>-1</dim>
					<dim>1</dim>
					<dim>-1</dim>
					<dim>-1</dim>
				</port>
			</output>
		</layer>
		<layer id="238" name="Constant_401" type="Const" version="opset1">
			<data element_type="i64" shape="1" offset="4" size="8" />
			<output>
				<port id="0" precision="I64">
					<dim>1</dim>
				</port>
			</output>
		</layer>
		<layer id="239" name="Constant_66725" type="Const" version="opset1">
			<data element_type="i64" shape="1" offset="137016752" size="8" />
			<output>
				<port id="0" precision="I64">
					<dim>1</dim>
				</port>
			</output>
		</layer>
		<layer id="240" name="Reshape_66726" type="Reshape" version="opset1">
			<data special_zero="false" />
			<input>
				<port id="0" precision="I64" />
				<port id="1" precision="I64">
					<dim>1</dim>
				</port>
			</input>
			<output>
				<port id="2" precision="I64">
					<dim>1</dim>
				</port>
			</output>
		</layer>
		<layer id="241" name="Constant_404" type="Const" version="opset1">
			<data element_type="i64" shape="1" offset="137016752" size="8" />
			<output>
				<port id="0" precision="I64">
					<dim>1</dim>
				</port>
			</output>
		</layer>
		<layer id="242" name="Constant_399" type="Const" version="opset1">
			<data element_type="i64" shape="1" offset="137016788" size="8" />
			<output>
				<port id="0" precision="I64">
					<dim>1</dim>
				</port>
			</output>
		</layer>
		<layer id="243" name="SliceAssign_411/Slice_2" type="Slice" version="opset8">
			<input>
				<port id="0" precision="I64">
					<dim>-1</dim>
					<dim>1</dim>
					<dim>-1</dim>
					<dim>-1</dim>
				</port>
				<port id="1" precision="I64">
					<dim>1</dim>
				</port>
				<port id="2" precision="I64">
					<dim>1</dim>
				</port>
				<port id="3" precision="I64">
					<dim>1</dim>
				</port>
				<port id="4" precision="I64">
					<dim>1</dim>
				</port>
			</input>
			<output>
				<port id="5" precision="I64">
					<dim>-1</dim>
					<dim>1</dim>
					<dim>-1</dim>
					<dim>-1</dim>
				</port>
			</output>
		</layer>
		<layer id="244" name="Constant_27554" type="Const" version="opset1">
			<data element_type="i64" shape="2" offset="137136592" size="16" />
			<output>
				<port id="0" precision="I64">
					<dim>2</dim>
				</port>
			</output>
		</layer>
		<layer id="245" name="SliceAssign_411/Reshape_4" type="Reshape" version="opset1">
			<data special_zero="false" />
			<input>
				<port id="0" precision="I64">
					<dim>-1</dim>
					<dim>1</dim>
					<dim>-1</dim>
					<dim>-1</dim>
				</port>
				<port id="1" precision="I64">
					<dim>2</dim>
				</port>
			</input>
			<output>
				<port id="2" precision="I64">
					<dim>-1</dim>
					<dim>1</dim>
				</port>
			</output>
		</layer>
		<layer id="246" name="Constant_283" type="Const" version="opset1">
			<data element_type="i64" shape="1" offset="4" size="8" />
			<output>
				<port id="0" precision="I64">
					<dim>1</dim>
				</port>
			</output>
		</layer>
		<layer id="247" name="Constant_286" type="Const" version="opset1">
			<data element_type="i64" shape="1" offset="137016752" size="8" />
			<output>
				<port id="0" precision="I64">
					<dim>1</dim>
				</port>
			</output>
		</layer>
		<layer id="248" name="Constant_281" type="Const" version="opset1">
			<data element_type="i64" shape="1" offset="137016788" size="8" />
			<output>
				<port id="0" precision="I64">
					<dim>1</dim>
				</port>
			</output>
		</layer>
		<layer id="249" name="__module.model/aten::slice/Slice_5" type="Slice" version="opset8">
			<input>
				<port id="0" precision="FP32">
					<dim>-1</dim>
					<dim>1</dim>
					<dim>-1</dim>
					<dim>-1</dim>
				</port>
				<port id="1" precision="I64">
					<dim>1</dim>
				</port>
				<port id="2" precision="I64">
					<dim>1</dim>
				</port>
				<port id="3" precision="I64">
					<dim>1</dim>
				</port>
				<port id="4" precision="I64">
					<dim>1</dim>
				</port>
			</input>
			<output>
				<port id="5" precision="FP32" names="290,301,306_1">
					<dim>-1</dim>
					<dim>1</dim>
					<dim>-1</dim>
					<dim>-1</dim>
				</port>
			</output>
		</layer>
		<layer id="250" name="__module.model/aten::unsqueeze/Unsqueeze_2" type="Unsqueeze" version="opset1">
			<input>
				<port id="0" precision="I64">
					<dim>-1</dim>
					<dim>-1</dim>
				</port>
				<port id="1" precision="I64" />
			</input>
			<output>
				<port id="2" precision="I64" names="292">
					<dim>-1</dim>
					<dim>1</dim>
					<dim>-1</dim>
				</port>
			</output>
		</layer>
		<layer id="251" name="__module.model/aten::unsqueeze/Unsqueeze_3" type="Unsqueeze" version="opset1">
			<input>
				<port id="0" precision="I64">
					<dim>-1</dim>
					<dim>1</dim>
					<dim>-1</dim>
				</port>
				<port id="1" precision="I64" />
			</input>
			<output>
				<port id="2" precision="I64" names="293,294,295">
					<dim>-1</dim>
					<dim>1</dim>
					<dim>1</dim>
					<dim>-1</dim>
				</port>
			</output>
		</layer>
		<layer id="252" name="__module.model/aten::add/Convert" type="Convert" version="opset1">
			<data destination_type="f32" />
			<input>
				<port id="0" precision="I64">
					<dim>-1</dim>
					<dim>1</dim>
					<dim>1</dim>
					<dim>-1</dim>
				</port>
			</input>
			<output>
				<port id="1" precision="FP32">
					<dim>-1</dim>
					<dim>1</dim>
					<dim>1</dim>
					<dim>-1</dim>
				</port>
			</output>
		</layer>
		<layer id="253" name="__module.model/aten::add/Add_1" type="Add" version="opset1">
			<data auto_broadcast="numpy" />
			<input>
				<port id="0" precision="FP32">
					<dim>-1</dim>
					<dim>1</dim>
					<dim>-1</dim>
					<dim>-1</dim>
				</port>
				<port id="1" precision="FP32">
					<dim>-1</dim>
					<dim>1</dim>
					<dim>1</dim>
					<dim>-1</dim>
				</port>
			</input>
			<output>
				<port id="2" precision="FP32" names="296,padding_mask.1">
					<dim>-1</dim>
					<dim>1</dim>
					<dim>-1</dim>
					<dim>-1</dim>
				</port>
			</output>
		</layer>
		<layer id="254" name="Constant_65188" type="Const" version="opset1">
			<data element_type="f32" shape="1, 1, 1, 1" offset="0" size="4" />
			<output>
				<port id="0" precision="FP32">
					<dim>1</dim>
					<dim>1</dim>
					<dim>1</dim>
					<dim>1</dim>
				</port>
			</output>
		</layer>
		<layer id="255" name="__module.model/aten::eq/Equal" type="Equal" version="opset1">
			<data auto_broadcast="numpy" />
			<input>
				<port id="0" precision="FP32">
					<dim>-1</dim>
					<dim>1</dim>
					<dim>-1</dim>
					<dim>-1</dim>
				</port>
				<port id="1" precision="FP32">
					<dim>1</dim>
					<dim>1</dim>
					<dim>1</dim>
					<dim>1</dim>
				</port>
			</input>
			<output>
				<port id="2" precision="BOOL" names="297,padding_mask">
					<dim>-1</dim>
					<dim>1</dim>
					<dim>-1</dim>
					<dim>-1</dim>
				</port>
			</output>
		</layer>
		<layer id="256" name="__module.model/aten::full/Convert" type="Const" version="opset1">
			<data element_type="f32" shape="" offset="137136584" size="4" />
			<output>
				<port id="0" precision="FP32" />
			</output>
		</layer>
		<layer id="257" name="__module.model/aten::masked_fill/Select" type="Select" version="opset1">
			<data auto_broadcast="numpy" />
			<input>
				<port id="0" precision="BOOL">
					<dim>-1</dim>
					<dim>1</dim>
					<dim>-1</dim>
					<dim>-1</dim>
				</port>
				<port id="1" precision="FP32" />
				<port id="2" precision="FP32">
					<dim>-1</dim>
					<dim>1</dim>
					<dim>-1</dim>
					<dim>-1</dim>
				</port>
			</input>
			<output>
				<port id="3" precision="FP32" names="302">
					<dim>-1</dim>
					<dim>1</dim>
					<dim>-1</dim>
					<dim>-1</dim>
				</port>
			</output>
		</layer>
		<layer id="258" name="__module.model/aten::copy_/ShapeOf" type="ShapeOf" version="opset3">
			<data output_type="i64" />
			<input>
				<port id="0" precision="FP32">
					<dim>-1</dim>
					<dim>1</dim>
					<dim>-1</dim>
					<dim>-1</dim>
				</port>
			</input>
			<output>
				<port id="1" precision="I64">
					<dim>4</dim>
				</port>
			</output>
		</layer>
		<layer id="259" name="__module.model/aten::copy_/Broadcast" type="Broadcast" version="opset3">
			<data mode="numpy" />
			<input>
				<port id="0" precision="FP32">
					<dim>-1</dim>
					<dim>1</dim>
					<dim>-1</dim>
					<dim>-1</dim>
				</port>
				<port id="1" precision="I64">
					<dim>4</dim>
				</port>
			</input>
			<output>
				<port id="2" precision="FP32" names="306">
					<dim>-1</dim>
					<dim>1</dim>
					<dim>-1</dim>
					<dim>-1</dim>
				</port>
			</output>
		</layer>
		<layer id="260" name="Constant_42154" type="Const" version="opset1">
			<data element_type="i64" shape="1" offset="136597668" size="8" />
			<output>
				<port id="0" precision="I64">
					<dim>1</dim>
				</port>
			</output>
		</layer>
		<layer id="261" name="SliceAssign_411/Reshape_5" type="Reshape" version="opset1">
			<data special_zero="false" />
			<input>
				<port id="0" precision="FP32">
					<dim>-1</dim>
					<dim>1</dim>
					<dim>-1</dim>
					<dim>-1</dim>
				</port>
				<port id="1" precision="I64">
					<dim>1</dim>
				</port>
			</input>
			<output>
				<port id="2" precision="FP32">
					<dim>-1</dim>
				</port>
			</output>
		</layer>
		<layer id="262" name="SliceAssign_411/ScatterNDUpdate" type="ScatterNDUpdate" version="opset4">
			<input>
				<port id="0" precision="FP32">
					<dim>-1</dim>
				</port>
				<port id="1" precision="I64">
					<dim>-1</dim>
					<dim>1</dim>
				</port>
				<port id="2" precision="FP32">
					<dim>-1</dim>
				</port>
			</input>
			<output>
				<port id="3" precision="FP32">
					<dim>-1</dim>
				</port>
			</output>
		</layer>
		<layer id="263" name="SliceAssign_411/Reshape_6" type="Reshape" version="opset1">
			<data special_zero="false" />
			<input>
				<port id="0" precision="FP32">
					<dim>-1</dim>
				</port>
				<port id="1" precision="I64">
					<dim>4</dim>
				</port>
			</input>
			<output>
				<port id="2" precision="FP32" names="1095,1096,1097,1256,1257,1258,1417,1418,1419,1578,1579,1580,1739,1740,1741,1900,1901,1902,2061,2062,2063,2222,2223,2224,2383,2384,2385,2544,2545,2546,2705,2706,2707,285,2866,2867,2868,3027,3028,3029,3188,3189,3190,3349,3350,3351,3510,3511,3512,3671,3672,3673,3832,3833,3834,3993,3994,3995,4154,4155,4156,451,452,453,612,613,614,773,774,775,934,935,936">
					<dim>-1</dim>
					<dim>1</dim>
					<dim>-1</dim>
					<dim>-1</dim>
				</port>
			</output>
		</layer>
		<layer id="264" name="Constant_1516" type="Const" version="opset1">
			<data element_type="i64" shape="1" offset="4" size="8" />
			<output>
				<port id="0" precision="I64">
					<dim>1</dim>
				</port>
			</output>
		</layer>
		<layer id="265" name="Constant_1519" type="Const" version="opset1">
			<data element_type="i64" shape="1" offset="137016752" size="8" />
			<output>
				<port id="0" precision="I64">
					<dim>1</dim>
				</port>
			</output>
		</layer>
		<layer id="266" name="Constant_1514" type="Const" version="opset1">
			<data element_type="i64" shape="1" offset="137016788" size="8" />
			<output>
				<port id="0" precision="I64">
					<dim>1</dim>
				</port>
			</output>
		</layer>
		<layer id="267" name="__module.model.layers.0.self_attn/aten::slice/Slice_15" type="Slice" version="opset8">
			<input>
				<port id="0" precision="FP32">
					<dim>-1</dim>
					<dim>1</dim>
					<dim>-1</dim>
					<dim>-1</dim>
				</port>
				<port id="1" precision="I64">
					<dim>1</dim>
				</port>
				<port id="2" precision="I64">
					<dim>1</dim>
				</port>
				<port id="3" precision="I64">
					<dim>1</dim>
				</port>
				<port id="4" precision="I64">
					<dim>1</dim>
				</port>
			</input>
			<output>
				<port id="5" precision="FP32" names="1098,1259,1420,1581,1742,1903,2064,2225,2386,2547,2708,2869,3030,3191,3352,3513,3674,3835,3996,4157,454,615,776,937">
					<dim>-1</dim>
					<dim>1</dim>
					<dim>-1</dim>
					<dim>-1</dim>
				</port>
			</output>
		</layer>
		<layer id="268" name="__module.model.layers.0.self_attn/aten::scaled_dot_product_attention/ConvertLike" type="Const" version="opset1">
			<data element_type="f32" shape="" offset="137136612" size="4" />
			<output>
				<port id="0" precision="FP32" />
			</output>
		</layer>
		<layer id="269" name="__module.model.layers.0.self_attn/aten::scaled_dot_product_attention/ScaledDotProductAttention" type="ScaledDotProductAttention" version="opset13">
			<data causal="false" />
			<input>
				<port id="0" precision="FP32">
					<dim>-1</dim>
					<dim>14</dim>
					<dim>-1</dim>
					<dim>64</dim>
				</port>
				<port id="1" precision="FP32">
					<dim>-1</dim>
					<dim>14</dim>
					<dim>-1</dim>
					<dim>64</dim>
				</port>
				<port id="2" precision="FP32">
					<dim>-1</dim>
					<dim>14</dim>
					<dim>-1</dim>
					<dim>64</dim>
				</port>
				<port id="3" precision="FP32">
					<dim>-1</dim>
					<dim>1</dim>
					<dim>-1</dim>
					<dim>-1</dim>
				</port>
				<port id="4" precision="FP32" />
			</input>
			<output>
				<port id="5" precision="FP32" names="458,attn_output.1">
					<dim>-1</dim>
					<dim>14</dim>
					<dim>-1</dim>
					<dim>64</dim>
				</port>
			</output>
		</layer>
		<layer id="270" name="__module.model.layers.0.self_attn/aten::transpose/Constant_3" type="Const" version="opset1">
			<data element_type="i32" shape="4" offset="137016608" size="16" />
			<output>
				<port id="0" precision="I32">
					<dim>4</dim>
				</port>
			</output>
		</layer>
		<layer id="271" name="__module.model.layers.0.self_attn/aten::transpose/Transpose_3" type="Transpose" version="opset1">
			<input>
				<port id="0" precision="FP32">
					<dim>-1</dim>
					<dim>14</dim>
					<dim>-1</dim>
					<dim>64</dim>
				</port>
				<port id="1" precision="I32">
					<dim>4</dim>
				</port>
			</input>
			<output>
				<port id="2" precision="FP32" names="459">
					<dim>-1</dim>
					<dim>-1</dim>
					<dim>14</dim>
					<dim>64</dim>
				</port>
			</output>
		</layer>
		<layer id="272" name="Constant_52495" type="Const" version="opset1">
			<data element_type="i64" shape="2" offset="137076688" size="16" />
			<output>
				<port id="0" precision="I64">
					<dim>2</dim>
				</port>
			</output>
		</layer>
		<layer id="273" name="Constant_52496" type="Const" version="opset1">
			<data element_type="i64" shape="" offset="4" size="8" />
			<output>
				<port id="0" precision="I64" />
			</output>
		</layer>
		<layer id="274" name="Gather_52497" type="Gather" version="opset8">
			<data batch_dims="0" />
			<input>
				<port id="0" precision="I64">
					<dim>3</dim>
				</port>
				<port id="1" precision="I64">
					<dim>2</dim>
				</port>
				<port id="2" precision="I64" />
			</input>
			<output>
				<port id="3" precision="I64">
					<dim>2</dim>
				</port>
			</output>
		</layer>
		<layer id="275" name="Constant_1561" type="Const" version="opset1">
			<data element_type="i64" shape="1" offset="136597668" size="8" />
			<output>
				<port id="0" precision="I64">
					<dim>1</dim>
				</port>
			</output>
		</layer>
		<layer id="276" name="__module.model.layers.0.self_attn/prim::ListConstruct_7" type="Concat" version="opset1">
			<data axis="0" />
			<input>
				<port id="0" precision="I64">
					<dim>2</dim>
				</port>
				<port id="1" precision="I64">
					<dim>1</dim>
				</port>
			</input>
			<output>
				<port id="2" precision="I64">
					<dim>3</dim>
				</port>
			</output>
		</layer>
		<layer id="277" name="__module.model.layers.0.self_attn/aten::reshape/Reshape_2" type="Reshape" version="opset1">
			<data special_zero="false" />
			<input>
				<port id="0" precision="FP32">
					<dim>-1</dim>
					<dim>-1</dim>
					<dim>14</dim>
					<dim>64</dim>
				</port>
				<port id="1" precision="I64">
					<dim>3</dim>
				</port>
			</input>
			<output>
				<port id="2" precision="FP32" names="462">
					<dim>-1</dim>
					<dim>-1</dim>
					<dim>-1</dim>
				</port>
			</output>
		</layer>
		<layer id="278" name="self.model.layers.0.self_attn.o_proj.weight" type="Const" version="opset1">
			<data element_type="u4" shape="896, 7, 128" offset="137136616" size="401408" />
			<output>
				<port id="0" precision="U4">
					<dim>896</dim>
					<dim>7</dim>
					<dim>128</dim>
				</port>
			</output>
		</layer>
		<layer id="279" name="Convert_471864" type="Convert" version="opset1">
			<data destination_type="f16" />
			<input>
				<port id="0" precision="U4">
					<dim>896</dim>
					<dim>7</dim>
					<dim>128</dim>
				</port>
			</input>
			<output>
				<port id="1" precision="FP16">
					<dim>896</dim>
					<dim>7</dim>
					<dim>128</dim>
				</port>
			</output>
		</layer>
		<layer id="280" name="self.model.layers.0.self_attn.o_proj.weight/zero_point" type="Const" version="opset1">
			<data element_type="u4" shape="896, 7, 1" offset="137538024" size="3136" />
			<output>
				<port id="0" precision="U4">
					<dim>896</dim>
					<dim>7</dim>
					<dim>1</dim>
				</port>
			</output>
		</layer>
		<layer id="281" name="Convert_471867" type="Convert" version="opset1">
			<data destination_type="f16" />
			<input>
				<port id="0" precision="U4">
					<dim>896</dim>
					<dim>7</dim>
					<dim>1</dim>
				</port>
			</input>
			<output>
				<port id="1" precision="FP16">
					<dim>896</dim>
					<dim>7</dim>
					<dim>1</dim>
				</port>
			</output>
		</layer>
		<layer id="282" name="self.model.layers.0.self_attn.o_proj.weight/zero_point/subtract" type="Subtract" version="opset1">
			<data auto_broadcast="numpy" />
			<input>
				<port id="0" precision="FP16">
					<dim>896</dim>
					<dim>7</dim>
					<dim>128</dim>
				</port>
				<port id="1" precision="FP16">
					<dim>896</dim>
					<dim>7</dim>
					<dim>1</dim>
				</port>
			</input>
			<output>
				<port id="2" precision="FP16">
					<dim>896</dim>
					<dim>7</dim>
					<dim>128</dim>
				</port>
			</output>
		</layer>
		<layer id="283" name="self.model.layers.0.self_attn.o_proj.weight/scale" type="Const" version="opset1">
			<data element_type="f16" shape="896, 7, 1" offset="137541160" size="12544" />
			<output>
				<port id="0" precision="FP16">
					<dim>896</dim>
					<dim>7</dim>
					<dim>1</dim>
				</port>
			</output>
		</layer>
		<layer id="284" name="self.model.layers.0.self_attn.o_proj.weight/fq_weights_1" type="Multiply" version="opset1">
			<data auto_broadcast="numpy" />
			<input>
				<port id="0" precision="FP16">
					<dim>896</dim>
					<dim>7</dim>
					<dim>128</dim>
				</port>
				<port id="1" precision="FP16">
					<dim>896</dim>
					<dim>7</dim>
					<dim>1</dim>
				</port>
			</input>
			<output>
				<port id="2" precision="FP16">
					<dim>896</dim>
					<dim>7</dim>
					<dim>128</dim>
				</port>
			</output>
		</layer>
		<layer id="285" name="Constant_471872" type="Const" version="opset1">
			<data element_type="i64" shape="2" offset="137014768" size="16" />
			<output>
				<port id="0" precision="I64">
					<dim>2</dim>
				</port>
			</output>
		</layer>
		<layer id="286" name="Reshape_471873" type="Reshape" version="opset1">
			<data special_zero="false" />
			<input>
				<port id="0" precision="FP16">
					<dim>896</dim>
					<dim>7</dim>
					<dim>128</dim>
				</port>
				<port id="1" precision="I64">
					<dim>2</dim>
				</port>
			</input>
			<output>
				<port id="2" precision="FP16">
					<dim>896</dim>
					<dim>896</dim>
				</port>
			</output>
		</layer>
		<layer id="287" name="__module.model.layers.0.self_attn.o_proj/ov_ext::linear/Convert" type="Convert" version="opset1">
			<data destination_type="f32" />
			<rt_info>
				<attribute name="decompression" version="0" />
			</rt_info>
			<input>
				<port id="0" precision="FP16">
					<dim>896</dim>
					<dim>896</dim>
				</port>
			</input>
			<output>
				<port id="1" precision="FP32">
					<dim>896</dim>
					<dim>896</dim>
				</port>
			</output>
		</layer>
		<layer id="288" name="__module.model.layers.0.self_attn.o_proj/ov_ext::linear/MatMul" type="MatMul" version="opset1">
			<data transpose_a="false" transpose_b="true" />
			<input>
				<port id="0" precision="FP32">
					<dim>-1</dim>
					<dim>-1</dim>
					<dim>-1</dim>
				</port>
				<port id="1" precision="FP32">
					<dim>896</dim>
					<dim>896</dim>
				</port>
			</input>
			<output>
				<port id="2" precision="FP32" names="465,467,hidden_states.17">
					<dim>-1</dim>
					<dim>-1</dim>
					<dim>896</dim>
				</port>
			</output>
		</layer>
		<layer id="289" name="__module.model.layers.0/aten::add/Add" type="Add" version="opset1">
			<data auto_broadcast="numpy" />
			<input>
				<port id="0" precision="FP32">
					<dim>-1</dim>
					<dim>-1</dim>
					<dim>896</dim>
				</port>
				<port id="1" precision="FP32">
					<dim>-1</dim>
					<dim>-1</dim>
					<dim>896</dim>
				</port>
			</input>
			<output>
				<port id="2" precision="FP32" names="470,472,483,hidden_states.19,hidden_states.21">
					<dim>-1</dim>
					<dim>-1</dim>
					<dim>896</dim>
				</port>
			</output>
		</layer>
		<layer id="290" name="Constant_65192" type="Const" version="opset1">
			<data element_type="f32" shape="1, 1, 896" offset="137553704" size="3584" />
			<output>
				<port id="0" precision="FP32">
					<dim>1</dim>
					<dim>1</dim>
					<dim>896</dim>
				</port>
			</output>
		</layer>
		<layer id="291" name="Constant_65191" type="Const" version="opset1">
			<data element_type="f32" shape="1, 1, 1" offset="136597660" size="4" />
			<output>
				<port id="0" precision="FP32">
					<dim>1</dim>
					<dim>1</dim>
					<dim>1</dim>
				</port>
			</output>
		</layer>
		<layer id="292" name="Constant_65189" type="Const" version="opset1">
			<data element_type="f32" shape="1, 1, 1" offset="136597664" size="4" />
			<output>
				<port id="0" precision="FP32">
					<dim>1</dim>
					<dim>1</dim>
					<dim>1</dim>
				</port>
			</output>
		</layer>
		<layer id="293" name="__module.model.layers.0.post_attention_layernorm/aten::pow/Power" type="Power" version="opset1">
			<data auto_broadcast="numpy" />
			<input>
				<port id="0" precision="FP32">
					<dim>-1</dim>
					<dim>-1</dim>
					<dim>896</dim>
				</port>
				<port id="1" precision="FP32">
					<dim>1</dim>
					<dim>1</dim>
					<dim>1</dim>
				</port>
			</input>
			<output>
				<port id="2" precision="FP32" names="473">
					<dim>-1</dim>
					<dim>-1</dim>
					<dim>896</dim>
				</port>
			</output>
		</layer>
		<layer id="294" name="Constant_1589" type="Const" version="opset1">
			<data element_type="i64" shape="1" offset="136597668" size="8" />
			<output>
				<port id="0" precision="I64" names="474">
					<dim>1</dim>
				</port>
			</output>
		</layer>
		<layer id="295" name="__module.model.layers.0.post_attention_layernorm/aten::mean/ReduceMean" type="ReduceMean" version="opset1">
			<data keep_dims="true" />
			<input>
				<port id="0" precision="FP32">
					<dim>-1</dim>
					<dim>-1</dim>
					<dim>896</dim>
				</port>
				<port id="1" precision="I64">
					<dim>1</dim>
				</port>
			</input>
			<output>
				<port id="2" precision="FP32" names="475,variance.3">
					<dim>-1</dim>
					<dim>-1</dim>
					<dim>1</dim>
				</port>
			</output>
		</layer>
		<layer id="296" name="Constant_65190" type="Const" version="opset1">
			<data element_type="f32" shape="1, 1, 1" offset="136597676" size="4" />
			<output>
				<port id="0" precision="FP32">
					<dim>1</dim>
					<dim>1</dim>
					<dim>1</dim>
				</port>
			</output>
		</layer>
		<layer id="297" name="__module.model.layers.0.post_attention_layernorm/aten::add/Add" type="Add" version="opset1">
			<data auto_broadcast="numpy" />
			<input>
				<port id="0" precision="FP32">
					<dim>-1</dim>
					<dim>-1</dim>
					<dim>1</dim>
				</port>
				<port id="1" precision="FP32">
					<dim>1</dim>
					<dim>1</dim>
					<dim>1</dim>
				</port>
			</input>
			<output>
				<port id="2" precision="FP32" names="476">
					<dim>-1</dim>
					<dim>-1</dim>
					<dim>1</dim>
				</port>
			</output>
		</layer>
		<layer id="298" name="__module.model.layers.0.post_attention_layernorm/aten::rsqrt/Sqrt" type="Sqrt" version="opset1">
			<input>
				<port id="0" precision="FP32">
					<dim>-1</dim>
					<dim>-1</dim>
					<dim>1</dim>
				</port>
			</input>
			<output>
				<port id="1" precision="FP32">
					<dim>-1</dim>
					<dim>-1</dim>
					<dim>1</dim>
				</port>
			</output>
		</layer>
		<layer id="299" name="__module.model.layers.0.post_attention_layernorm/aten::rsqrt/Divide" type="Divide" version="opset1">
			<data auto_broadcast="numpy" m_pythondiv="true" />
			<input>
				<port id="0" precision="FP32">
					<dim>1</dim>
					<dim>1</dim>
					<dim>1</dim>
				</port>
				<port id="1" precision="FP32">
					<dim>-1</dim>
					<dim>-1</dim>
					<dim>1</dim>
				</port>
			</input>
			<output>
				<port id="2" precision="FP32" names="477">
					<dim>-1</dim>
					<dim>-1</dim>
					<dim>1</dim>
				</port>
			</output>
		</layer>
		<layer id="300" name="__module.model.layers.0.post_attention_layernorm/aten::mul/Multiply" type="Multiply" version="opset1">
			<data auto_broadcast="numpy" />
			<input>
				<port id="0" precision="FP32">
					<dim>-1</dim>
					<dim>-1</dim>
					<dim>896</dim>
				</port>
				<port id="1" precision="FP32">
					<dim>-1</dim>
					<dim>-1</dim>
					<dim>1</dim>
				</port>
			</input>
			<output>
				<port id="2" precision="FP32" names="478,479,hidden_states.23,hidden_states.25">
					<dim>-1</dim>
					<dim>-1</dim>
					<dim>896</dim>
				</port>
			</output>
		</layer>
		<layer id="301" name="__module.model.layers.0.post_attention_layernorm/aten::mul/Multiply_1" type="Multiply" version="opset1">
			<data auto_broadcast="numpy" />
			<input>
				<port id="0" precision="FP32">
					<dim>1</dim>
					<dim>1</dim>
					<dim>896</dim>
				</port>
				<port id="1" precision="FP32">
					<dim>-1</dim>
					<dim>-1</dim>
					<dim>896</dim>
				</port>
			</input>
			<output>
				<port id="2" precision="FP32" names="480,482">
					<dim>-1</dim>
					<dim>-1</dim>
					<dim>896</dim>
				</port>
			</output>
		</layer>
		<layer id="302" name="self.model.layers.0.mlp.gate_proj.weight" type="Const" version="opset1">
			<data element_type="u4" shape="4864, 7, 128" offset="137557288" size="2179072" />
			<output>
				<port id="0" precision="U4">
					<dim>4864</dim>
					<dim>7</dim>
					<dim>128</dim>
				</port>
			</output>
		</layer>
		<layer id="303" name="Convert_102912" type="Convert" version="opset1">
			<data destination_type="f16" />
			<input>
				<port id="0" precision="U4">
					<dim>4864</dim>
					<dim>7</dim>
					<dim>128</dim>
				</port>
			</input>
			<output>
				<port id="1" precision="FP16">
					<dim>4864</dim>
					<dim>7</dim>
					<dim>128</dim>
				</port>
			</output>
		</layer>
		<layer id="304" name="self.model.layers.0.mlp.gate_proj.weight/zero_point" type="Const" version="opset1">
			<data element_type="u4" shape="4864, 7, 1" offset="139736360" size="17024" />
			<output>
				<port id="0" precision="U4">
					<dim>4864</dim>
					<dim>7</dim>
					<dim>1</dim>
				</port>
			</output>
		</layer>
		<layer id="305" name="Convert_102915" type="Convert" version="opset1">
			<data destination_type="f16" />
			<input>
				<port id="0" precision="U4">
					<dim>4864</dim>
					<dim>7</dim>
					<dim>1</dim>
				</port>
			</input>
			<output>
				<port id="1" precision="FP16">
					<dim>4864</dim>
					<dim>7</dim>
					<dim>1</dim>
				</port>
			</output>
		</layer>
		<layer id="306" name="self.model.layers.0.mlp.gate_proj.weight/zero_point/subtract" type="Subtract" version="opset1">
			<data auto_broadcast="numpy" />
			<input>
				<port id="0" precision="FP16">
					<dim>4864</dim>
					<dim>7</dim>
					<dim>128</dim>
				</port>
				<port id="1" precision="FP16">
					<dim>4864</dim>
					<dim>7</dim>
					<dim>1</dim>
				</port>
			</input>
			<output>
				<port id="2" precision="FP16">
					<dim>4864</dim>
					<dim>7</dim>
					<dim>128</dim>
				</port>
			</output>
		</layer>
		<layer id="307" name="self.model.layers.0.mlp.gate_proj.weight/scale" type="Const" version="opset1">
			<data element_type="f16" shape="4864, 7, 1" offset="139753384" size="68096" />
			<output>
				<port id="0" precision="FP16">
					<dim>4864</dim>
					<dim>7</dim>
					<dim>1</dim>
				</port>
			</output>
		</layer>
		<layer id="308" name="self.model.layers.0.mlp.gate_proj.weight/fq_weights_1" type="Multiply" version="opset1">
			<data auto_broadcast="numpy" />
			<input>
				<port id="0" precision="FP16">
					<dim>4864</dim>
					<dim>7</dim>
					<dim>128</dim>
				</port>
				<port id="1" precision="FP16">
					<dim>4864</dim>
					<dim>7</dim>
					<dim>1</dim>
				</port>
			</input>
			<output>
				<port id="2" precision="FP16">
					<dim>4864</dim>
					<dim>7</dim>
					<dim>128</dim>
				</port>
			</output>
		</layer>
		<layer id="309" name="Constant_102920" type="Const" version="opset1">
			<data element_type="i64" shape="2" offset="139821480" size="16" />
			<output>
				<port id="0" precision="I64">
					<dim>2</dim>
				</port>
			</output>
		</layer>
		<layer id="310" name="Reshape_102921" type="Reshape" version="opset1">
			<data special_zero="false" />
			<input>
				<port id="0" precision="FP16">
					<dim>4864</dim>
					<dim>7</dim>
					<dim>128</dim>
				</port>
				<port id="1" precision="I64">
					<dim>2</dim>
				</port>
			</input>
			<output>
				<port id="2" precision="FP16">
					<dim>4864</dim>
					<dim>896</dim>
				</port>
			</output>
		</layer>
		<layer id="311" name="__module.model.layers.0.mlp.gate_proj/ov_ext::linear/Convert" type="Convert" version="opset1">
			<data destination_type="f32" />
			<rt_info>
				<attribute name="decompression" version="0" />
			</rt_info>
			<input>
				<port id="0" precision="FP16">
					<dim>4864</dim>
					<dim>896</dim>
				</port>
			</input>
			<output>
				<port id="1" precision="FP32">
					<dim>4864</dim>
					<dim>896</dim>
				</port>
			</output>
		</layer>
		<layer id="312" name="__module.model.layers.0.mlp.gate_proj/ov_ext::linear/MatMul" type="MatMul" version="opset1">
			<data transpose_a="false" transpose_b="true" />
			<input>
				<port id="0" precision="FP32">
					<dim>-1</dim>
					<dim>-1</dim>
					<dim>896</dim>
				</port>
				<port id="1" precision="FP32">
					<dim>4864</dim>
					<dim>896</dim>
				</port>
			</input>
			<output>
				<port id="2" precision="FP32" names="488,input.1">
					<dim>-1</dim>
					<dim>-1</dim>
					<dim>4864</dim>
				</port>
			</output>
		</layer>
		<layer id="313" name="__module.model.layers.0.mlp.act_fn/aten::silu/Swish" type="Swish" version="opset4">
			<input>
				<port id="0" precision="FP32">
					<dim>-1</dim>
					<dim>-1</dim>
					<dim>4864</dim>
				</port>
			</input>
			<output>
				<port id="1" precision="FP32" names="489">
					<dim>-1</dim>
					<dim>-1</dim>
					<dim>4864</dim>
				</port>
			</output>
		</layer>
		<layer id="314" name="self.model.layers.0.mlp.up_proj.weight" type="Const" version="opset1">
			<data element_type="u4" shape="4864, 7, 128" offset="139821496" size="2179072" />
			<output>
				<port id="0" precision="U4">
					<dim>4864</dim>
					<dim>7</dim>
					<dim>128</dim>
				</port>
			</output>
		</layer>
		<layer id="315" name="Convert_97811" type="Convert" version="opset1">
			<data destination_type="f16" />
			<input>
				<port id="0" precision="U4">
					<dim>4864</dim>
					<dim>7</dim>
					<dim>128</dim>
				</port>
			</input>
			<output>
				<port id="1" precision="FP16">
					<dim>4864</dim>
					<dim>7</dim>
					<dim>128</dim>
				</port>
			</output>
		</layer>
		<layer id="316" name="self.model.layers.0.mlp.up_proj.weight/zero_point" type="Const" version="opset1">
			<data element_type="u4" shape="4864, 7, 1" offset="142000568" size="17024" />
			<output>
				<port id="0" precision="U4">
					<dim>4864</dim>
					<dim>7</dim>
					<dim>1</dim>
				</port>
			</output>
		</layer>
		<layer id="317" name="Convert_97814" type="Convert" version="opset1">
			<data destination_type="f16" />
			<input>
				<port id="0" precision="U4">
					<dim>4864</dim>
					<dim>7</dim>
					<dim>1</dim>
				</port>
			</input>
			<output>
				<port id="1" precision="FP16">
					<dim>4864</dim>
					<dim>7</dim>
					<dim>1</dim>
				</port>
			</output>
		</layer>
		<layer id="318" name="self.model.layers.0.mlp.up_proj.weight/zero_point/subtract" type="Subtract" version="opset1">
			<data auto_broadcast="numpy" />
			<input>
				<port id="0" precision="FP16">
					<dim>4864</dim>
					<dim>7</dim>
					<dim>128</dim>
				</port>
				<port id="1" precision="FP16">
					<dim>4864</dim>
					<dim>7</dim>
					<dim>1</dim>
				</port>
			</input>
			<output>
				<port id="2" precision="FP16">
					<dim>4864</dim>
					<dim>7</dim>
					<dim>128</dim>
				</port>
			</output>
		</layer>
		<layer id="319" name="self.model.layers.0.mlp.up_proj.weight/scale" type="Const" version="opset1">
			<data element_type="f16" shape="4864, 7, 1" offset="142017592" size="68096" />
			<output>
				<port id="0" precision="FP16">
					<dim>4864</dim>
					<dim>7</dim>
					<dim>1</dim>
				</port>
			</output>
		</layer>
		<layer id="320" name="self.model.layers.0.mlp.up_proj.weight/fq_weights_1" type="Multiply" version="opset1">
			<data auto_broadcast="numpy" />
			<input>
				<port id="0" precision="FP16">
					<dim>4864</dim>
					<dim>7</dim>
					<dim>128</dim>
				</port>
				<port id="1" precision="FP16">
					<dim>4864</dim>
					<dim>7</dim>
					<dim>1</dim>
				</port>
			</input>
			<output>
				<port id="2" precision="FP16">
					<dim>4864</dim>
					<dim>7</dim>
					<dim>128</dim>
				</port>
			</output>
		</layer>
		<layer id="321" name="Constant_97819" type="Const" version="opset1">
			<data element_type="i64" shape="2" offset="139821480" size="16" />
			<output>
				<port id="0" precision="I64">
					<dim>2</dim>
				</port>
			</output>
		</layer>
		<layer id="322" name="Reshape_97820" type="Reshape" version="opset1">
			<data special_zero="false" />
			<input>
				<port id="0" precision="FP16">
					<dim>4864</dim>
					<dim>7</dim>
					<dim>128</dim>
				</port>
				<port id="1" precision="I64">
					<dim>2</dim>
				</port>
			</input>
			<output>
				<port id="2" precision="FP16">
					<dim>4864</dim>
					<dim>896</dim>
				</port>
			</output>
		</layer>
		<layer id="323" name="__module.model.layers.0.mlp.up_proj/ov_ext::linear/Convert" type="Convert" version="opset1">
			<data destination_type="f32" />
			<rt_info>
				<attribute name="decompression" version="0" />
			</rt_info>
			<input>
				<port id="0" precision="FP16">
					<dim>4864</dim>
					<dim>896</dim>
				</port>
			</input>
			<output>
				<port id="1" precision="FP32">
					<dim>4864</dim>
					<dim>896</dim>
				</port>
			</output>
		</layer>
		<layer id="324" name="__module.model.layers.0.mlp.up_proj/ov_ext::linear/MatMul" type="MatMul" version="opset1">
			<data transpose_a="false" transpose_b="true" />
			<input>
				<port id="0" precision="FP32">
					<dim>-1</dim>
					<dim>-1</dim>
					<dim>896</dim>
				</port>
				<port id="1" precision="FP32">
					<dim>4864</dim>
					<dim>896</dim>
				</port>
			</input>
			<output>
				<port id="2" precision="FP32" names="491">
					<dim>-1</dim>
					<dim>-1</dim>
					<dim>4864</dim>
				</port>
			</output>
		</layer>
		<layer id="325" name="__module.model.layers.0.mlp/aten::mul/Multiply" type="Multiply" version="opset1">
			<data auto_broadcast="numpy" />
			<input>
				<port id="0" precision="FP32">
					<dim>-1</dim>
					<dim>-1</dim>
					<dim>4864</dim>
				</port>
				<port id="1" precision="FP32">
					<dim>-1</dim>
					<dim>-1</dim>
					<dim>4864</dim>
				</port>
			</input>
			<output>
				<port id="2" precision="FP32" names="492">
					<dim>-1</dim>
					<dim>-1</dim>
					<dim>4864</dim>
				</port>
			</output>
		</layer>
		<layer id="326" name="self.model.layers.0.mlp.down_proj.weight" type="Const" version="opset1">
			<data element_type="u4" shape="896, 38, 128" offset="142085688" size="2179072" />
			<output>
				<port id="0" precision="U4">
					<dim>896</dim>
					<dim>38</dim>
					<dim>128</dim>
				</port>
			</output>
		</layer>
		<layer id="327" name="Convert_108083" type="Convert" version="opset1">
			<data destination_type="f16" />
			<input>
				<port id="0" precision="U4">
					<dim>896</dim>
					<dim>38</dim>
					<dim>128</dim>
				</port>
			</input>
			<output>
				<port id="1" precision="FP16">
					<dim>896</dim>
					<dim>38</dim>
					<dim>128</dim>
				</port>
			</output>
		</layer>
		<layer id="328" name="self.model.layers.0.mlp.down_proj.weight/zero_point" type="Const" version="opset1">
			<data element_type="u4" shape="896, 38, 1" offset="144264760" size="17024" />
			<output>
				<port id="0" precision="U4">
					<dim>896</dim>
					<dim>38</dim>
					<dim>1</dim>
				</port>
			</output>
		</layer>
		<layer id="329" name="Convert_108086" type="Convert" version="opset1">
			<data destination_type="f16" />
			<input>
				<port id="0" precision="U4">
					<dim>896</dim>
					<dim>38</dim>
					<dim>1</dim>
				</port>
			</input>
			<output>
				<port id="1" precision="FP16">
					<dim>896</dim>
					<dim>38</dim>
					<dim>1</dim>
				</port>
			</output>
		</layer>
		<layer id="330" name="self.model.layers.0.mlp.down_proj.weight/zero_point/subtract" type="Subtract" version="opset1">
			<data auto_broadcast="numpy" />
			<input>
				<port id="0" precision="FP16">
					<dim>896</dim>
					<dim>38</dim>
					<dim>128</dim>
				</port>
				<port id="1" precision="FP16">
					<dim>896</dim>
					<dim>38</dim>
					<dim>1</dim>
				</port>
			</input>
			<output>
				<port id="2" precision="FP16">
					<dim>896</dim>
					<dim>38</dim>
					<dim>128</dim>
				</port>
			</output>
		</layer>
		<layer id="331" name="self.model.layers.0.mlp.down_proj.weight/scale" type="Const" version="opset1">
			<data element_type="f16" shape="896, 38, 1" offset="144281784" size="68096" />
			<output>
				<port id="0" precision="FP16">
					<dim>896</dim>
					<dim>38</dim>
					<dim>1</dim>
				</port>
			</output>
		</layer>
		<layer id="332" name="self.model.layers.0.mlp.down_proj.weight/fq_weights_1" type="Multiply" version="opset1">
			<data auto_broadcast="numpy" />
			<input>
				<port id="0" precision="FP16">
					<dim>896</dim>
					<dim>38</dim>
					<dim>128</dim>
				</port>
				<port id="1" precision="FP16">
					<dim>896</dim>
					<dim>38</dim>
					<dim>1</dim>
				</port>
			</input>
			<output>
				<port id="2" precision="FP16">
					<dim>896</dim>
					<dim>38</dim>
					<dim>128</dim>
				</port>
			</output>
		</layer>
		<layer id="333" name="Constant_108091" type="Const" version="opset1">
			<data element_type="i64" shape="2" offset="144349880" size="16" />
			<output>
				<port id="0" precision="I64">
					<dim>2</dim>
				</port>
			</output>
		</layer>
		<layer id="334" name="Reshape_108092" type="Reshape" version="opset1">
			<data special_zero="false" />
			<input>
				<port id="0" precision="FP16">
					<dim>896</dim>
					<dim>38</dim>
					<dim>128</dim>
				</port>
				<port id="1" precision="I64">
					<dim>2</dim>
				</port>
			</input>
			<output>
				<port id="2" precision="FP16">
					<dim>896</dim>
					<dim>4864</dim>
				</port>
			</output>
		</layer>
		<layer id="335" name="__module.model.layers.0.mlp.down_proj/ov_ext::linear/Convert" type="Convert" version="opset1">
			<data destination_type="f32" />
			<rt_info>
				<attribute name="decompression" version="0" />
			</rt_info>
			<input>
				<port id="0" precision="FP16">
					<dim>896</dim>
					<dim>4864</dim>
				</port>
			</input>
			<output>
				<port id="1" precision="FP32">
					<dim>896</dim>
					<dim>4864</dim>
				</port>
			</output>
		</layer>
		<layer id="336" name="__module.model.layers.0.mlp.down_proj/ov_ext::linear/MatMul" type="MatMul" version="opset1">
			<data transpose_a="false" transpose_b="true" />
			<input>
				<port id="0" precision="FP32">
					<dim>-1</dim>
					<dim>-1</dim>
					<dim>4864</dim>
				</port>
				<port id="1" precision="FP32">
					<dim>896</dim>
					<dim>4864</dim>
				</port>
			</input>
			<output>
				<port id="2" precision="FP32" names="494,hidden_states.27">
					<dim>-1</dim>
					<dim>-1</dim>
					<dim>896</dim>
				</port>
			</output>
		</layer>
		<layer id="337" name="__module.model.layers.0/aten::add/Add_1" type="Add" version="opset1">
			<data auto_broadcast="numpy" />
			<input>
				<port id="0" precision="FP32">
					<dim>-1</dim>
					<dim>-1</dim>
					<dim>896</dim>
				</port>
				<port id="1" precision="FP32">
					<dim>-1</dim>
					<dim>-1</dim>
					<dim>896</dim>
				</port>
			</input>
			<output>
				<port id="2" precision="FP32" names="495,497,505,516,hidden_states.29,hidden_states.31">
					<dim>-1</dim>
					<dim>-1</dim>
					<dim>896</dim>
				</port>
			</output>
		</layer>
		<layer id="338" name="Constant_65196" type="Const" version="opset1">
			<data element_type="f32" shape="1, 1, 896" offset="144349896" size="3584" />
			<output>
				<port id="0" precision="FP32">
					<dim>1</dim>
					<dim>1</dim>
					<dim>896</dim>
				</port>
			</output>
		</layer>
		<layer id="339" name="Constant_65195" type="Const" version="opset1">
			<data element_type="f32" shape="1, 1, 1" offset="136597660" size="4" />
			<output>
				<port id="0" precision="FP32">
					<dim>1</dim>
					<dim>1</dim>
					<dim>1</dim>
				</port>
			</output>
		</layer>
		<layer id="340" name="Constant_65193" type="Const" version="opset1">
			<data element_type="f32" shape="1, 1, 1" offset="136597664" size="4" />
			<output>
				<port id="0" precision="FP32">
					<dim>1</dim>
					<dim>1</dim>
					<dim>1</dim>
				</port>
			</output>
		</layer>
		<layer id="341" name="__module.model.layers.1.input_layernorm/aten::pow/Power" type="Power" version="opset1">
			<data auto_broadcast="numpy" />
			<input>
				<port id="0" precision="FP32">
					<dim>-1</dim>
					<dim>-1</dim>
					<dim>896</dim>
				</port>
				<port id="1" precision="FP32">
					<dim>1</dim>
					<dim>1</dim>
					<dim>1</dim>
				</port>
			</input>
			<output>
				<port id="2" precision="FP32" names="506">
					<dim>-1</dim>
					<dim>-1</dim>
					<dim>896</dim>
				</port>
			</output>
		</layer>
		<layer id="342" name="Constant_1663" type="Const" version="opset1">
			<data element_type="i64" shape="1" offset="136597668" size="8" />
			<output>
				<port id="0" precision="I64" names="507">
					<dim>1</dim>
				</port>
			</output>
		</layer>
		<layer id="343" name="__module.model.layers.1.input_layernorm/aten::mean/ReduceMean" type="ReduceMean" version="opset1">
			<data keep_dims="true" />
			<input>
				<port id="0" precision="FP32">
					<dim>-1</dim>
					<dim>-1</dim>
					<dim>896</dim>
				</port>
				<port id="1" precision="I64">
					<dim>1</dim>
				</port>
			</input>
			<output>
				<port id="2" precision="FP32" names="508,variance.5">
					<dim>-1</dim>
					<dim>-1</dim>
					<dim>1</dim>
				</port>
			</output>
		</layer>
		<layer id="344" name="Constant_65194" type="Const" version="opset1">
			<data element_type="f32" shape="1, 1, 1" offset="136597676" size="4" />
			<output>
				<port id="0" precision="FP32">
					<dim>1</dim>
					<dim>1</dim>
					<dim>1</dim>
				</port>
			</output>
		</layer>
		<layer id="345" name="__module.model.layers.1.input_layernorm/aten::add/Add" type="Add" version="opset1">
			<data auto_broadcast="numpy" />
			<input>
				<port id="0" precision="FP32">
					<dim>-1</dim>
					<dim>-1</dim>
					<dim>1</dim>
				</port>
				<port id="1" precision="FP32">
					<dim>1</dim>
					<dim>1</dim>
					<dim>1</dim>
				</port>
			</input>
			<output>
				<port id="2" precision="FP32" names="509">
					<dim>-1</dim>
					<dim>-1</dim>
					<dim>1</dim>
				</port>
			</output>
		</layer>
		<layer id="346" name="__module.model.layers.1.input_layernorm/aten::rsqrt/Sqrt" type="Sqrt" version="opset1">
			<input>
				<port id="0" precision="FP32">
					<dim>-1</dim>
					<dim>-1</dim>
					<dim>1</dim>
				</port>
			</input>
			<output>
				<port id="1" precision="FP32">
					<dim>-1</dim>
					<dim>-1</dim>
					<dim>1</dim>
				</port>
			</output>
		</layer>
		<layer id="347" name="__module.model.layers.1.input_layernorm/aten::rsqrt/Divide" type="Divide" version="opset1">
			<data auto_broadcast="numpy" m_pythondiv="true" />
			<input>
				<port id="0" precision="FP32">
					<dim>1</dim>
					<dim>1</dim>
					<dim>1</dim>
				</port>
				<port id="1" precision="FP32">
					<dim>-1</dim>
					<dim>-1</dim>
					<dim>1</dim>
				</port>
			</input>
			<output>
				<port id="2" precision="FP32" names="510">
					<dim>-1</dim>
					<dim>-1</dim>
					<dim>1</dim>
				</port>
			</output>
		</layer>
		<layer id="348" name="__module.model.layers.1.input_layernorm/aten::mul/Multiply" type="Multiply" version="opset1">
			<data auto_broadcast="numpy" />
			<input>
				<port id="0" precision="FP32">
					<dim>-1</dim>
					<dim>-1</dim>
					<dim>896</dim>
				</port>
				<port id="1" precision="FP32">
					<dim>-1</dim>
					<dim>-1</dim>
					<dim>1</dim>
				</port>
			</input>
			<output>
				<port id="2" precision="FP32" names="511,512,hidden_states.33,hidden_states.35">
					<dim>-1</dim>
					<dim>-1</dim>
					<dim>896</dim>
				</port>
			</output>
		</layer>
		<layer id="349" name="__module.model.layers.1.input_layernorm/aten::mul/Multiply_1" type="Multiply" version="opset1">
			<data auto_broadcast="numpy" />
			<input>
				<port id="0" precision="FP32">
					<dim>1</dim>
					<dim>1</dim>
					<dim>896</dim>
				</port>
				<port id="1" precision="FP32">
					<dim>-1</dim>
					<dim>-1</dim>
					<dim>896</dim>
				</port>
			</input>
			<output>
				<port id="2" precision="FP32" names="513,515,hidden_states.37">
					<dim>-1</dim>
					<dim>-1</dim>
					<dim>896</dim>
				</port>
			</output>
		</layer>
		<layer id="350" name="self.model.layers.1.self_attn.q_proj.weight" type="Const" version="opset1">
			<data element_type="u4" shape="896, 7, 128" offset="144353480" size="401408" />
			<output>
				<port id="0" precision="U4">
					<dim>896</dim>
					<dim>7</dim>
					<dim>128</dim>
				</port>
			</output>
		</layer>
		<layer id="351" name="Convert_476965" type="Convert" version="opset1">
			<data destination_type="f16" />
			<input>
				<port id="0" precision="U4">
					<dim>896</dim>
					<dim>7</dim>
					<dim>128</dim>
				</port>
			</input>
			<output>
				<port id="1" precision="FP16">
					<dim>896</dim>
					<dim>7</dim>
					<dim>128</dim>
				</port>
			</output>
		</layer>
		<layer id="352" name="self.model.layers.1.self_attn.q_proj.weight/zero_point" type="Const" version="opset1">
			<data element_type="u4" shape="896, 7, 1" offset="144754888" size="3136" />
			<output>
				<port id="0" precision="U4">
					<dim>896</dim>
					<dim>7</dim>
					<dim>1</dim>
				</port>
			</output>
		</layer>
		<layer id="353" name="Convert_476968" type="Convert" version="opset1">
			<data destination_type="f16" />
			<input>
				<port id="0" precision="U4">
					<dim>896</dim>
					<dim>7</dim>
					<dim>1</dim>
				</port>
			</input>
			<output>
				<port id="1" precision="FP16">
					<dim>896</dim>
					<dim>7</dim>
					<dim>1</dim>
				</port>
			</output>
		</layer>
		<layer id="354" name="self.model.layers.1.self_attn.q_proj.weight/zero_point/subtract" type="Subtract" version="opset1">
			<data auto_broadcast="numpy" />
			<input>
				<port id="0" precision="FP16">
					<dim>896</dim>
					<dim>7</dim>
					<dim>128</dim>
				</port>
				<port id="1" precision="FP16">
					<dim>896</dim>
					<dim>7</dim>
					<dim>1</dim>
				</port>
			</input>
			<output>
				<port id="2" precision="FP16">
					<dim>896</dim>
					<dim>7</dim>
					<dim>128</dim>
				</port>
			</output>
		</layer>
		<layer id="355" name="self.model.layers.1.self_attn.q_proj.weight/scale" type="Const" version="opset1">
			<data element_type="f16" shape="896, 7, 1" offset="144758024" size="12544" />
			<output>
				<port id="0" precision="FP16">
					<dim>896</dim>
					<dim>7</dim>
					<dim>1</dim>
				</port>
			</output>
		</layer>
		<layer id="356" name="self.model.layers.1.self_attn.q_proj.weight/fq_weights_1" type="Multiply" version="opset1">
			<data auto_broadcast="numpy" />
			<input>
				<port id="0" precision="FP16">
					<dim>896</dim>
					<dim>7</dim>
					<dim>128</dim>
				</port>
				<port id="1" precision="FP16">
					<dim>896</dim>
					<dim>7</dim>
					<dim>1</dim>
				</port>
			</input>
			<output>
				<port id="2" precision="FP16">
					<dim>896</dim>
					<dim>7</dim>
					<dim>128</dim>
				</port>
			</output>
		</layer>
		<layer id="357" name="Constant_476973" type="Const" version="opset1">
			<data element_type="i64" shape="2" offset="137014768" size="16" />
			<output>
				<port id="0" precision="I64">
					<dim>2</dim>
				</port>
			</output>
		</layer>
		<layer id="358" name="Reshape_476974" type="Reshape" version="opset1">
			<data special_zero="false" />
			<input>
				<port id="0" precision="FP16">
					<dim>896</dim>
					<dim>7</dim>
					<dim>128</dim>
				</port>
				<port id="1" precision="I64">
					<dim>2</dim>
				</port>
			</input>
			<output>
				<port id="2" precision="FP16">
					<dim>896</dim>
					<dim>896</dim>
				</port>
			</output>
		</layer>
		<layer id="359" name="__module.model.layers.1.self_attn.q_proj/ov_ext::linear/Convert" type="Convert" version="opset1">
			<data destination_type="f32" />
			<rt_info>
				<attribute name="decompression" version="0" />
			</rt_info>
			<input>
				<port id="0" precision="FP16">
					<dim>896</dim>
					<dim>896</dim>
				</port>
			</input>
			<output>
				<port id="1" precision="FP32">
					<dim>896</dim>
					<dim>896</dim>
				</port>
			</output>
		</layer>
		<layer id="360" name="__module.model.layers.1.self_attn.q_proj/ov_ext::linear/MatMul" type="MatMul" version="opset1">
			<data transpose_a="false" transpose_b="true" />
			<input>
				<port id="0" precision="FP32">
					<dim>-1</dim>
					<dim>-1</dim>
					<dim>896</dim>
				</port>
				<port id="1" precision="FP32">
					<dim>896</dim>
					<dim>896</dim>
				</port>
			</input>
			<output>
				<port id="2" precision="FP32">
					<dim>-1</dim>
					<dim>-1</dim>
					<dim>896</dim>
				</port>
			</output>
		</layer>
		<layer id="361" name="self.model.layers.1.self_attn.q_proj.bias" type="Const" version="opset1">
			<data element_type="bf16" shape="896" offset="144770568" size="1792" />
			<output>
				<port id="0" precision="BF16" names="self.model.layers.1.self_attn.q_proj.bias">
					<dim>896</dim>
				</port>
			</output>
		</layer>
		<layer id="362" name="__module.model.layers.1.self_attn.q_proj/ov_ext::linear/Convert_1" type="Convert" version="opset1">
			<data destination_type="f32" />
			<rt_info>
				<attribute name="decompression" version="0" />
			</rt_info>
			<input>
				<port id="0" precision="BF16">
					<dim>896</dim>
				</port>
			</input>
			<output>
				<port id="1" precision="FP32">
					<dim>896</dim>
				</port>
			</output>
		</layer>
		<layer id="363" name="__module.model.layers.1.self_attn.q_proj/ov_ext::linear/Add" type="Add" version="opset1">
			<data auto_broadcast="numpy" />
			<input>
				<port id="0" precision="FP32">
					<dim>-1</dim>
					<dim>-1</dim>
					<dim>896</dim>
				</port>
				<port id="1" precision="FP32">
					<dim>896</dim>
				</port>
			</input>
			<output>
				<port id="2" precision="FP32" names="525">
					<dim>-1</dim>
					<dim>-1</dim>
					<dim>896</dim>
				</port>
			</output>
		</layer>
		<layer id="364" name="Constant_72322" type="Const" version="opset1">
			<data element_type="i64" shape="4" offset="137016576" size="32" />
			<output>
				<port id="0" precision="I64">
					<dim>4</dim>
				</port>
			</output>
		</layer>
		<layer id="365" name="__module.model.layers.1.self_attn/aten::view/Reshape" type="Reshape" version="opset1">
			<data special_zero="true" />
			<input>
				<port id="0" precision="FP32">
					<dim>-1</dim>
					<dim>-1</dim>
					<dim>896</dim>
				</port>
				<port id="1" precision="I64">
					<dim>4</dim>
				</port>
			</input>
			<output>
				<port id="2" precision="FP32" names="527">
					<dim>-1</dim>
					<dim>-1</dim>
					<dim>14</dim>
					<dim>64</dim>
				</port>
			</output>
		</layer>
		<layer id="366" name="__module.model.layers.1.self_attn/aten::transpose/Constant" type="Const" version="opset1">
			<data element_type="i32" shape="4" offset="137016608" size="16" />
			<output>
				<port id="0" precision="I32">
					<dim>4</dim>
				</port>
			</output>
		</layer>
		<layer id="367" name="__module.model.layers.1.self_attn/aten::transpose/Transpose" type="Transpose" version="opset1">
			<input>
				<port id="0" precision="FP32">
					<dim>-1</dim>
					<dim>-1</dim>
					<dim>14</dim>
					<dim>64</dim>
				</port>
				<port id="1" precision="I32">
					<dim>4</dim>
				</port>
			</input>
			<output>
				<port id="2" precision="FP32" names="528,q.3">
					<dim>-1</dim>
					<dim>14</dim>
					<dim>-1</dim>
					<dim>64</dim>
				</port>
			</output>
		</layer>
		<layer id="368" name="__module.model.layers.1.self_attn/aten::mul/Multiply" type="Multiply" version="opset1">
			<data auto_broadcast="numpy" />
			<input>
				<port id="0" precision="FP32">
					<dim>-1</dim>
					<dim>14</dim>
					<dim>-1</dim>
					<dim>64</dim>
				</port>
				<port id="1" precision="FP32">
					<dim>-1</dim>
					<dim>1</dim>
					<dim>-1</dim>
					<dim>64</dim>
				</port>
			</input>
			<output>
				<port id="2" precision="FP32" names="543">
					<dim>-1</dim>
					<dim>14</dim>
					<dim>-1</dim>
					<dim>64</dim>
				</port>
			</output>
		</layer>
		<layer id="369" name="Constant_1977" type="Const" version="opset1">
			<data element_type="i64" shape="1" offset="137016772" size="8" />
			<output>
				<port id="0" precision="I64">
					<dim>1</dim>
				</port>
			</output>
		</layer>
		<layer id="370" name="Constant_1979" type="Const" version="opset1">
			<data element_type="i64" shape="1" offset="137016780" size="8" />
			<output>
				<port id="0" precision="I64">
					<dim>1</dim>
				</port>
			</output>
		</layer>
		<layer id="371" name="Constant_1981" type="Const" version="opset1">
			<data element_type="i64" shape="1" offset="137016752" size="8" />
			<output>
				<port id="0" precision="I64">
					<dim>1</dim>
				</port>
			</output>
		</layer>
		<layer id="372" name="Constant_1933" type="Const" version="opset1">
			<data element_type="i64" shape="1" offset="137016788" size="8" />
			<output>
				<port id="0" precision="I64">
					<dim>1</dim>
				</port>
			</output>
		</layer>
		<layer id="373" name="__module.model.layers.1.self_attn/aten::slice/Slice" type="Slice" version="opset8">
			<input>
				<port id="0" precision="FP32">
					<dim>-1</dim>
					<dim>14</dim>
					<dim>-1</dim>
					<dim>64</dim>
				</port>
				<port id="1" precision="I64">
					<dim>1</dim>
				</port>
				<port id="2" precision="I64">
					<dim>1</dim>
				</port>
				<port id="3" precision="I64">
					<dim>1</dim>
				</port>
				<port id="4" precision="I64">
					<dim>1</dim>
				</port>
			</input>
			<output>
				<port id="5" precision="FP32" names="553,x2.5">
					<dim>-1</dim>
					<dim>14</dim>
					<dim>-1</dim>
					<dim>32</dim>
				</port>
			</output>
		</layer>
		<layer id="374" name="__module.model.layers.1.self_attn/aten::neg/Constant" type="Const" version="opset1">
			<data element_type="i32" shape="" offset="137016796" size="4" />
			<output>
				<port id="0" precision="I32" />
			</output>
		</layer>
		<layer id="375" name="__module.model.layers.1.self_attn/aten::neg/ConvertLike" type="Convert" version="opset1">
			<data destination_type="f32" />
			<input>
				<port id="0" precision="I32" />
			</input>
			<output>
				<port id="1" precision="FP32" />
			</output>
		</layer>
		<layer id="376" name="__module.model.layers.1.self_attn/aten::neg/Multiply" type="Multiply" version="opset1">
			<data auto_broadcast="numpy" />
			<input>
				<port id="0" precision="FP32">
					<dim>-1</dim>
					<dim>14</dim>
					<dim>-1</dim>
					<dim>32</dim>
				</port>
				<port id="1" precision="FP32" />
			</input>
			<output>
				<port id="2" precision="FP32" names="554">
					<dim>-1</dim>
					<dim>14</dim>
					<dim>-1</dim>
					<dim>32</dim>
				</port>
			</output>
		</layer>
		<layer id="377" name="Constant_1874" type="Const" version="opset1">
			<data element_type="i64" shape="1" offset="4" size="8" />
			<output>
				<port id="0" precision="I64">
					<dim>1</dim>
				</port>
			</output>
		</layer>
		<layer id="378" name="Constant_1918" type="Const" version="opset1">
			<data element_type="i64" shape="1" offset="137016772" size="8" />
			<output>
				<port id="0" precision="I64">
					<dim>1</dim>
				</port>
			</output>
		</layer>
		<layer id="379" name="Constant_1920" type="Const" version="opset1">
			<data element_type="i64" shape="1" offset="137016752" size="8" />
			<output>
				<port id="0" precision="I64">
					<dim>1</dim>
				</port>
			</output>
		</layer>
		<layer id="380" name="Constant_1872" type="Const" version="opset1">
			<data element_type="i64" shape="1" offset="137016788" size="8" />
			<output>
				<port id="0" precision="I64">
					<dim>1</dim>
				</port>
			</output>
		</layer>
		<layer id="381" name="__module.model.layers.1.self_attn/aten::slice/Slice_1" type="Slice" version="opset8">
			<input>
				<port id="0" precision="FP32">
					<dim>-1</dim>
					<dim>14</dim>
					<dim>-1</dim>
					<dim>64</dim>
				</port>
				<port id="1" precision="I64">
					<dim>1</dim>
				</port>
				<port id="2" precision="I64">
					<dim>1</dim>
				</port>
				<port id="3" precision="I64">
					<dim>1</dim>
				</port>
				<port id="4" precision="I64">
					<dim>1</dim>
				</port>
			</input>
			<output>
				<port id="5" precision="FP32" names="548">
					<dim>-1</dim>
					<dim>14</dim>
					<dim>-1</dim>
					<dim>32</dim>
				</port>
			</output>
		</layer>
		<layer id="382" name="__module.model.layers.1.self_attn/aten::cat/Concat" type="Concat" version="opset1">
			<data axis="-1" />
			<input>
				<port id="0" precision="FP32">
					<dim>-1</dim>
					<dim>14</dim>
					<dim>-1</dim>
					<dim>32</dim>
				</port>
				<port id="1" precision="FP32">
					<dim>-1</dim>
					<dim>14</dim>
					<dim>-1</dim>
					<dim>32</dim>
				</port>
			</input>
			<output>
				<port id="2" precision="FP32" names="556">
					<dim>-1</dim>
					<dim>14</dim>
					<dim>-1</dim>
					<dim>64</dim>
				</port>
			</output>
		</layer>
		<layer id="383" name="__module.model.layers.1.self_attn/aten::mul/Multiply_1" type="Multiply" version="opset1">
			<data auto_broadcast="numpy" />
			<input>
				<port id="0" precision="FP32">
					<dim>-1</dim>
					<dim>14</dim>
					<dim>-1</dim>
					<dim>64</dim>
				</port>
				<port id="1" precision="FP32">
					<dim>-1</dim>
					<dim>1</dim>
					<dim>-1</dim>
					<dim>64</dim>
				</port>
			</input>
			<output>
				<port id="2" precision="FP32" names="557">
					<dim>-1</dim>
					<dim>14</dim>
					<dim>-1</dim>
					<dim>64</dim>
				</port>
			</output>
		</layer>
		<layer id="384" name="__module.model.layers.1.self_attn/aten::add/Add" type="Add" version="opset1">
			<data auto_broadcast="numpy" />
			<input>
				<port id="0" precision="FP32">
					<dim>-1</dim>
					<dim>14</dim>
					<dim>-1</dim>
					<dim>64</dim>
				</port>
				<port id="1" precision="FP32">
					<dim>-1</dim>
					<dim>14</dim>
					<dim>-1</dim>
					<dim>64</dim>
				</port>
			</input>
			<output>
				<port id="2" precision="FP32" names="558,query.5">
					<dim>-1</dim>
					<dim>14</dim>
					<dim>-1</dim>
					<dim>64</dim>
				</port>
			</output>
		</layer>
		<layer id="385" name="Constant_74469" type="Const" version="opset1">
			<data element_type="f32" shape="" offset="0" size="4" />
			<output>
				<port id="0" precision="FP32" />
			</output>
		</layer>
		<layer id="386" name="Constant_74462" type="Const" version="opset1">
			<data element_type="i64" shape="1" offset="12" size="8" />
			<output>
				<port id="0" precision="I64">
					<dim>1</dim>
				</port>
			</output>
		</layer>
		<layer id="387" name="Constant_74464" type="Const" version="opset1">
			<data element_type="i64" shape="1" offset="4" size="8" />
			<output>
				<port id="0" precision="I64">
					<dim>1</dim>
				</port>
			</output>
		</layer>
		<layer id="388" name="Constant_74466" type="Const" version="opset1">
			<data element_type="i64" shape="1" offset="20" size="8" />
			<output>
				<port id="0" precision="I64">
					<dim>1</dim>
				</port>
			</output>
		</layer>
		<layer id="389" name="Concat_74467" type="Concat" version="opset1">
			<data axis="0" />
			<input>
				<port id="0" precision="I64">
					<dim>1</dim>
				</port>
				<port id="1" precision="I64">
					<dim>1</dim>
				</port>
				<port id="2" precision="I64">
					<dim>1</dim>
				</port>
				<port id="3" precision="I64">
					<dim>1</dim>
				</port>
			</input>
			<output>
				<port id="4" precision="I64">
					<dim>4</dim>
				</port>
			</output>
		</layer>
		<layer id="390" name="Broadcast_74470" type="Broadcast" version="opset3">
			<data mode="numpy" />
			<input>
				<port id="0" precision="FP32" />
				<port id="1" precision="I64">
					<dim>4</dim>
				</port>
			</input>
			<output>
				<port id="2" precision="FP32">
					<dim>-1</dim>
					<dim>2</dim>
					<dim>0</dim>
					<dim>64</dim>
				</port>
			</output>
		</layer>
		<layer id="391" name="ReadValue_73993" type="ReadValue" version="opset6">
			<data variable_id="past_key_values.1.keypresent.1.key" variable_type="f32" variable_shape="?,2,?,64" />
			<input>
				<port id="0" precision="FP32">
					<dim>-1</dim>
					<dim>2</dim>
					<dim>0</dim>
					<dim>64</dim>
				</port>
			</input>
			<output>
				<port id="1" precision="FP32" names="past_key_values.1.key">
					<dim>-1</dim>
					<dim>2</dim>
					<dim>-1</dim>
					<dim>64</dim>
				</port>
…
		<edge from-layer="4131" from-port="2" to-layer="4142" to-port="0" />
		<edge from-layer="4132" from-port="0" to-layer="4133" to-port="0" />
		<edge from-layer="4133" from-port="1" to-layer="4136" to-port="0" />
		<edge from-layer="4134" from-port="0" to-layer="4135" to-port="0" />
		<edge from-layer="4135" from-port="1" to-layer="4136" to-port="1" />
		<edge from-layer="4136" from-port="2" to-layer="4138" to-port="0" />
		<edge from-layer="4137" from-port="0" to-layer="4138" to-port="1" />
		<edge from-layer="4138" from-port="2" to-layer="4140" to-port="0" />
		<edge from-layer="4139" from-port="0" to-layer="4140" to-port="1" />
		<edge from-layer="4140" from-port="2" to-layer="4141" to-port="0" />
		<edge from-layer="4141" from-port="1" to-layer="4142" to-port="1" />
		<edge from-layer="4142" from-port="2" to-layer="4143" to-port="1" />
		<edge from-layer="4143" from-port="2" to-layer="4154" to-port="0" />
		<edge from-layer="4143" from-port="2" to-layer="4147" to-port="0" />
		<edge from-layer="4143" from-port="2" to-layer="4191" to-port="0" />
		<edge from-layer="4144" from-port="0" to-layer="4155" to-port="0" />
		<edge from-layer="4145" from-port="0" to-layer="4153" to-port="0" />
		<edge from-layer="4146" from-port="0" to-layer="4147" to-port="1" />
		<edge from-layer="4147" from-port="2" to-layer="4149" to-port="0" />
		<edge from-layer="4148" from-port="0" to-layer="4149" to-port="1" />
		<edge from-layer="4149" from-port="2" to-layer="4151" to-port="0" />
		<edge from-layer="4150" from-port="0" to-layer="4151" to-port="1" />
		<edge from-layer="4151" from-port="2" to-layer="4152" to-port="0" />
		<edge from-layer="4152" from-port="1" to-layer="4153" to-port="1" />
		<edge from-layer="4153" from-port="2" to-layer="4154" to-port="1" />
		<edge from-layer="4154" from-port="2" to-layer="4155" to-port="1" />
		<edge from-layer="4155" from-port="2" to-layer="4178" to-port="0" />
		<edge from-layer="4155" from-port="2" to-layer="4166" to-port="0" />
		<edge from-layer="4156" from-port="0" to-layer="4157" to-port="0" />
		<edge from-layer="4157" from-port="1" to-layer="4160" to-port="0" />
		<edge from-layer="4158" from-port="0" to-layer="4159" to-port="0" />
		<edge from-layer="4159" from-port="1" to-layer="4160" to-port="1" />
		<edge from-layer="4160" from-port="2" to-layer="4162" to-port="0" />
		<edge from-layer="4161" from-port="0" to-layer="4162" to-port="1" />
		<edge from-layer="4162" from-port="2" to-layer="4164" to-port="0" />
		<edge from-layer="4163" from-port="0" to-layer="4164" to-port="1" />
		<edge from-layer="4164" from-port="2" to-layer="4165" to-port="0" />
		<edge from-layer="4165" from-port="1" to-layer="4166" to-port="1" />
		<edge from-layer="4166" from-port="2" to-layer="4167" to-port="0" />
		<edge from-layer="4167" from-port="1" to-layer="4179" to-port="0" />
		<edge from-layer="4168" from-port="0" to-layer="4169" to-port="0" />
		<edge from-layer="4169" from-port="1" to-layer="4172" to-port="0" />
		<edge from-layer="4170" from-port="0" to-layer="4171" to-port="0" />
		<edge from-layer="4171" from-port="1" to-layer="4172" to-port="1" />
		<edge from-layer="4172" from-port="2" to-layer="4174" to-port="0" />
		<edge from-layer="4173" from-port="0" to-layer="4174" to-port="1" />
		<edge from-layer="4174" from-port="2" to-layer="4176" to-port="0" />
		<edge from-layer="4175" from-port="0" to-layer="4176" to-port="1" />
		<edge from-layer="4176" from-port="2" to-layer="4177" to-port="0" />
		<edge from-layer="4177" from-port="1" to-layer="4178" to-port="1" />
		<edge from-layer="4178" from-port="2" to-layer="4179" to-port="1" />
		<edge from-layer="4179" from-port="2" to-layer="4190" to-port="0" />
		<edge from-layer="4180" from-port="0" to-layer="4181" to-port="0" />
		<edge from-layer="4181" from-port="1" to-layer="4184" to-port="0" />
		<edge from-layer="4182" from-port="0" to-layer="4183" to-port="0" />
		<edge from-layer="4183" from-port="1" to-layer="4184" to-port="1" />
		<edge from-layer="4184" from-port="2" to-layer="4186" to-port="0" />
		<edge from-layer="4185" from-port="0" to-layer="4186" to-port="1" />
		<edge from-layer="4186" from-port="2" to-layer="4188" to-port="0" />
		<edge from-layer="4187" from-port="0" to-layer="4188" to-port="1" />
		<edge from-layer="4188" from-port="2" to-layer="4189" to-port="0" />
		<edge from-layer="4189" from-port="1" to-layer="4190" to-port="1" />
		<edge from-layer="4190" from-port="2" to-layer="4191" to-port="1" />
		<edge from-layer="4191" from-port="2" to-layer="4202" to-port="0" />
		<edge from-layer="4191" from-port="2" to-layer="4195" to-port="0" />
		<edge from-layer="4191" from-port="2" to-layer="4335" to-port="0" />
		<edge from-layer="4192" from-port="0" to-layer="4203" to-port="0" />
		<edge from-layer="4193" from-port="0" to-layer="4201" to-port="0" />
		<edge from-layer="4194" from-port="0" to-layer="4195" to-port="1" />
		<edge from-layer="4195" from-port="2" to-layer="4197" to-port="0" />
		<edge from-layer="4196" from-port="0" to-layer="4197" to-port="1" />
		<edge from-layer="4197" from-port="2" to-layer="4199" to-port="0" />
		<edge from-layer="4198" from-port="0" to-layer="4199" to-port="1" />
		<edge from-layer="4199" from-port="2" to-layer="4200" to-port="0" />
		<edge from-layer="4200" from-port="1" to-layer="4201" to-port="1" />
		<edge from-layer="4201" from-port="2" to-layer="4202" to-port="1" />
		<edge from-layer="4202" from-port="2" to-layer="4203" to-port="1" />
		<edge from-layer="4203" from-port="2" to-layer="4307" to-port="0" />
		<edge from-layer="4203" from-port="2" to-layer="4214" to-port="0" />
		<edge from-layer="4203" from-port="2" to-layer="4258" to-port="0" />
		<edge from-layer="4204" from-port="0" to-layer="4205" to-port="0" />
		<edge from-layer="4205" from-port="1" to-layer="4208" to-port="0" />
		<edge from-layer="4206" from-port="0" to-layer="4207" to-port="0" />
		<edge from-layer="4207" from-port="1" to-layer="4208" to-port="1" />
		<edge from-layer="4208" from-port="2" to-layer="4210" to-port="0" />
		<edge from-layer="4209" from-port="0" to-layer="4210" to-port="1" />
		<edge from-layer="4210" from-port="2" to-layer="4212" to-port="0" />
		<edge from-layer="4211" from-port="0" to-layer="4212" to-port="1" />
		<edge from-layer="4212" from-port="2" to-layer="4213" to-port="0" />
		<edge from-layer="4213" from-port="1" to-layer="4214" to-port="1" />
		<edge from-layer="4214" from-port="2" to-layer="4217" to-port="0" />
		<edge from-layer="4215" from-port="0" to-layer="4216" to-port="0" />
		<edge from-layer="4216" from-port="1" to-layer="4217" to-port="1" />
		<edge from-layer="4217" from-port="2" to-layer="4219" to-port="0" />
		<edge from-layer="4218" from-port="0" to-layer="4219" to-port="1" />
		<edge from-layer="4219" from-port="2" to-layer="4221" to-port="0" />
		<edge from-layer="4220" from-port="0" to-layer="4221" to-port="1" />
		<edge from-layer="4221" from-port="2" to-layer="4235" to-port="0" />
		<edge from-layer="4221" from-port="2" to-layer="4222" to-port="0" />
		<edge from-layer="4221" from-port="2" to-layer="4227" to-port="0" />
		<edge from-layer="4222" from-port="2" to-layer="4238" to-port="0" />
		<edge from-layer="4223" from-port="0" to-layer="4227" to-port="1" />
		<edge from-layer="4224" from-port="0" to-layer="4227" to-port="2" />
		<edge from-layer="4225" from-port="0" to-layer="4227" to-port="3" />
		<edge from-layer="4226" from-port="0" to-layer="4227" to-port="4" />
		<edge from-layer="4227" from-port="5" to-layer="4230" to-port="0" />
		<edge from-layer="4228" from-port="0" to-layer="4229" to-port="0" />
		<edge from-layer="4229" from-port="1" to-layer="4230" to-port="1" />
		<edge from-layer="4230" from-port="2" to-layer="4236" to-port="0" />
		<edge from-layer="4231" from-port="0" to-layer="4235" to-port="1" />
		<edge from-layer="4232" from-port="0" to-layer="4235" to-port="2" />
		<edge from-layer="4233" from-port="0" to-layer="4235" to-port="3" />
		<edge from-layer="4234" from-port="0" to-layer="4235" to-port="4" />
		<edge from-layer="4235" from-port="5" to-layer="4236" to-port="1" />
		<edge from-layer="4236" from-port="2" to-layer="4237" to-port="0" />
		<edge from-layer="4237" from-port="2" to-layer="4238" to-port="1" />
		<edge from-layer="4238" from-port="2" to-layer="4320" to-port="0" />
		<edge from-layer="4239" from-port="0" to-layer="4244" to-port="0" />
		<edge from-layer="4240" from-port="0" to-layer="4243" to-port="1" />
		<edge from-layer="4241" from-port="0" to-layer="4243" to-port="2" />
		<edge from-layer="4242" from-port="0" to-layer="4243" to-port="3" />
		<edge from-layer="4243" from-port="4" to-layer="4244" to-port="1" />
		<edge from-layer="4244" from-port="2" to-layer="4245" to-port="0" />
		<edge from-layer="4245" from-port="1" to-layer="4247" to-port="0" />
		<edge from-layer="4246" from-port="0" to-layer="4247" to-port="2" />
		<edge from-layer="4247" from-port="3" to-layer="4283" to-port="0" />
		<edge from-layer="4248" from-port="0" to-layer="4249" to-port="0" />
		<edge from-layer="4249" from-port="1" to-layer="4252" to-port="0" />
		<edge from-layer="4250" from-port="0" to-layer="4251" to-port="0" />
		<edge from-layer="4251" from-port="1" to-layer="4252" to-port="1" />
		<edge from-layer="4252" from-port="2" to-layer="4254" to-port="0" />
		<edge from-layer="4253" from-port="0" to-layer="4254" to-port="1" />
		<edge from-layer="4254" from-port="2" to-layer="4256" to-port="0" />
		<edge from-layer="4255" from-port="0" to-layer="4256" to-port="1" />
		<edge from-layer="4256" from-port="2" to-layer="4257" to-port="0" />
		<edge from-layer="4257" from-port="1" to-layer="4258" to-port="1" />
		<edge from-layer="4258" from-port="2" to-layer="4261" to-port="0" />
		<edge from-layer="4259" from-port="0" to-layer="4260" to-port="0" />
		<edge from-layer="4260" from-port="1" to-layer="4261" to-port="1" />
		<edge from-layer="4261" from-port="2" to-layer="4263" to-port="0" />
		<edge from-layer="4262" from-port="0" to-layer="4263" to-port="1" />
		<edge from-layer="4263" from-port="2" to-layer="4265" to-port="0" />
		<edge from-layer="4264" from-port="0" to-layer="4265" to-port="1" />
		<edge from-layer="4265" from-port="2" to-layer="4266" to-port="0" />
		<edge from-layer="4265" from-port="2" to-layer="4271" to-port="0" />
		<edge from-layer="4265" from-port="2" to-layer="4279" to-port="0" />
		<edge from-layer="4266" from-port="2" to-layer="4282" to-port="0" />
		<edge from-layer="4267" from-port="0" to-layer="4271" to-port="1" />
		<edge from-layer="4268" from-port="0" to-layer="4271" to-port="2" />
		<edge from-layer="4269" from-port="0" to-layer="4271" to-port="3" />
		<edge from-layer="4270" from-port="0" to-layer="4271" to-port="4" />
		<edge from-layer="4271" from-port="5" to-layer="4274" to-port="0" />
		<edge from-layer="4272" from-port="0" to-layer="4273" to-port="0" />
		<edge from-layer="4273" from-port="1" to-layer="4274" to-port="1" />
		<edge from-layer="4274" from-port="2" to-layer="4280" to-port="0" />
		<edge from-layer="4275" from-port="0" to-layer="4279" to-port="1" />
		<edge from-layer="4276" from-port="0" to-layer="4279" to-port="2" />
		<edge from-layer="4277" from-port="0" to-layer="4279" to-port="3" />
		<edge from-layer="4278" from-port="0" to-layer="4279" to-port="4" />
		<edge from-layer="4279" from-port="5" to-layer="4280" to-port="1" />
		<edge from-layer="4280" from-port="2" to-layer="4281" to-port="0" />
		<edge from-layer="4281" from-port="2" to-layer="4282" to-port="1" />
		<edge from-layer="4282" from-port="2" to-layer="4283" to-port="1" />
		<edge from-layer="4283" from-port="2" to-layer="4656" to-port="0" />
		<edge from-layer="4283" from-port="2" to-layer="4284" to-port="0" />
		<edge from-layer="4284" from-port="2" to-layer="4285" to-port="0" />
		<edge from-layer="4285" from-port="2" to-layer="4287" to-port="0" />
		<edge from-layer="4286" from-port="0" to-layer="4287" to-port="1" />
		<edge from-layer="4287" from-port="2" to-layer="4320" to-port="1" />
		<edge from-layer="4288" from-port="0" to-layer="4293" to-port="0" />
		<edge from-layer="4289" from-port="0" to-layer="4292" to-port="1" />
		<edge from-layer="4290" from-port="0" to-layer="4292" to-port="2" />
		<edge from-layer="4291" from-port="0" to-layer="4292" to-port="3" />
		<edge from-layer="4292" from-port="4" to-layer="4293" to-port="1" />
		<edge from-layer="4293" from-port="2" to-layer="4294" to-port="0" />
		<edge from-layer="4294" from-port="1" to-layer="4296" to-port="0" />
		<edge from-layer="4295" from-port="0" to-layer="4296" to-port="2" />
		<edge from-layer="4296" from-port="3" to-layer="4315" to-port="0" />
		<edge from-layer="4297" from-port="0" to-layer="4298" to-port="0" />
		<edge from-layer="4298" from-port="1" to-layer="4301" to-port="0" />
		<edge from-layer="4299" from-port="0" to-layer="4300" to-port="0" />
		<edge from-layer="4300" from-port="1" to-layer="4301" to-port="1" />
		<edge from-layer="4301" from-port="2" to-layer="4303" to-port="0" />
		<edge from-layer="4302" from-port="0" to-layer="4303" to-port="1" />
		<edge from-layer="4303" from-port="2" to-layer="4305" to-port="0" />
		<edge from-layer="4304" from-port="0" to-layer="4305" to-port="1" />
		<edge from-layer="4305" from-port="2" to-layer="4306" to-port="0" />
		<edge from-layer="4306" from-port="1" to-layer="4307" to-port="1" />
		<edge from-layer="4307" from-port="2" to-layer="4310" to-port="0" />
		<edge from-layer="4308" from-port="0" to-layer="4309" to-port="0" />
		<edge from-layer="4309" from-port="1" to-layer="4310" to-port="1" />
		<edge from-layer="4310" from-port="2" to-layer="4312" to-port="0" />
		<edge from-layer="4311" from-port="0" to-layer="4312" to-port="1" />
		<edge from-layer="4312" from-port="2" to-layer="4314" to-port="0" />
		<edge from-layer="4313" from-port="0" to-layer="4314" to-port="1" />
		<edge from-layer="4314" from-port="2" to-layer="4315" to-port="1" />
		<edge from-layer="4315" from-port="2" to-layer="4655" to-port="0" />
		<edge from-layer="4315" from-port="2" to-layer="4316" to-port="0" />
		<edge from-layer="4316" from-port="2" to-layer="4317" to-port="0" />
		<edge from-layer="4317" from-port="2" to-layer="4319" to-port="0" />
		<edge from-layer="4318" from-port="0" to-layer="4319" to-port="1" />
		<edge from-layer="4319" from-port="2" to-layer="4320" to-port="2" />
		<edge from-layer="4320" from-port="5" to-layer="4322" to-port="0" />
		<edge from-layer="4321" from-port="0" to-layer="4322" to-port="1" />
		<edge from-layer="4322" from-port="2" to-layer="4323" to-port="0" />
		<edge from-layer="4323" from-port="2" to-layer="4334" to-port="0" />
		<edge from-layer="4324" from-port="0" to-layer="4325" to-port="0" />
		<edge from-layer="4325" from-port="1" to-layer="4328" to-port="0" />
		<edge from-layer="4326" from-port="0" to-layer="4327" to-port="0" />
		<edge from-layer="4327" from-port="1" to-layer="4328" to-port="1" />
		<edge from-layer="4328" from-port="2" to-layer="4330" to-port="0" />
		<edge from-layer="4329" from-port="0" to-layer="4330" to-port="1" />
		<edge from-layer="4330" from-port="2" to-layer="4332" to-port="0" />
		<edge from-layer="4331" from-port="0" to-layer="4332" to-port="1" />
		<edge from-layer="4332" from-port="2" to-layer="4333" to-port="0" />
		<edge from-layer="4333" from-port="1" to-layer="4334" to-port="1" />
		<edge from-layer="4334" from-port="2" to-layer="4335" to-port="1" />
		<edge from-layer="4335" from-port="2" to-layer="4383" to-port="0" />
		<edge from-layer="4335" from-port="2" to-layer="4339" to-port="0" />
		<edge from-layer="4335" from-port="2" to-layer="4346" to-port="0" />
		<edge from-layer="4336" from-port="0" to-layer="4347" to-port="0" />
		<edge from-layer="4337" from-port="0" to-layer="4345" to-port="0" />
		<edge from-layer="4338" from-port="0" to-layer="4339" to-port="1" />
		<edge from-layer="4339" from-port="2" to-layer="4341" to-port="0" />
		<edge from-layer="4340" from-port="0" to-layer="4341" to-port="1" />
		<edge from-layer="4341" from-port="2" to-layer="4343" to-port="0" />
		<edge from-layer="4342" from-port="0" to-layer="4343" to-port="1" />
		<edge from-layer="4343" from-port="2" to-layer="4344" to-port="0" />
		<edge from-layer="4344" from-port="1" to-layer="4345" to-port="1" />
		<edge from-layer="4345" from-port="2" to-layer="4346" to-port="1" />
		<edge from-layer="4346" from-port="2" to-layer="4347" to-port="1" />
		<edge from-layer="4347" from-port="2" to-layer="4358" to-port="0" />
		<edge from-layer="4347" from-port="2" to-layer="4370" to-port="0" />
		<edge from-layer="4348" from-port="0" to-layer="4349" to-port="0" />
		<edge from-layer="4349" from-port="1" to-layer="4352" to-port="0" />
		<edge from-layer="4350" from-port="0" to-layer="4351" to-port="0" />
		<edge from-layer="4351" from-port="1" to-layer="4352" to-port="1" />
		<edge from-layer="4352" from-port="2" to-layer="4354" to-port="0" />
		<edge from-layer="4353" from-port="0" to-layer="4354" to-port="1" />
		<edge from-layer="4354" from-port="2" to-layer="4356" to-port="0" />
		<edge from-layer="4355" from-port="0" to-layer="4356" to-port="1" />
		<edge from-layer="4356" from-port="2" to-layer="4357" to-port="0" />
		<edge from-layer="4357" from-port="1" to-layer="4358" to-port="1" />
		<edge from-layer="4358" from-port="2" to-layer="4359" to-port="0" />
		<edge from-layer="4359" from-port="1" to-layer="4371" to-port="0" />
		<edge from-layer="4360" from-port="0" to-layer="4361" to-port="0" />
		<edge from-layer="4361" from-port="1" to-layer="4364" to-port="0" />
		<edge from-layer="4362" from-port="0" to-layer="4363" to-port="0" />
		<edge from-layer="4363" from-port="1" to-layer="4364" to-port="1" />
		<edge from-layer="4364" from-port="2" to-layer="4366" to-port="0" />
		<edge from-layer="4365" from-port="0" to-layer="4366" to-port="1" />
		<edge from-layer="4366" from-port="2" to-layer="4368" to-port="0" />
		<edge from-layer="4367" from-port="0" to-layer="4368" to-port="1" />
		<edge from-layer="4368" from-port="2" to-layer="4369" to-port="0" />
		<edge from-layer="4369" from-port="1" to-layer="4370" to-port="1" />
		<edge from-layer="4370" from-port="2" to-layer="4371" to-port="1" />
		<edge from-layer="4371" from-port="2" to-layer="4382" to-port="0" />
		<edge from-layer="4372" from-port="0" to-layer="4373" to-port="0" />
		<edge from-layer="4373" from-port="1" to-layer="4376" to-port="0" />
		<edge from-layer="4374" from-port="0" to-layer="4375" to-port="0" />
		<edge from-layer="4375" from-port="1" to-layer="4376" to-port="1" />
		<edge from-layer="4376" from-port="2" to-layer="4378" to-port="0" />
		<edge from-layer="4377" from-port="0" to-layer="4378" to-port="1" />
		<edge from-layer="4378" from-port="2" to-layer="4380" to-port="0" />
		<edge from-layer="4379" from-port="0" to-layer="4380" to-port="1" />
		<edge from-layer="4380" from-port="2" to-layer="4381" to-port="0" />
		<edge from-layer="4381" from-port="1" to-layer="4382" to-port="1" />
		<edge from-layer="4382" from-port="2" to-layer="4383" to-port="1" />
		<edge from-layer="4383" from-port="2" to-layer="4394" to-port="0" />
		<edge from-layer="4383" from-port="2" to-layer="4387" to-port="0" />
		<edge from-layer="4383" from-port="2" to-layer="4527" to-port="0" />
		<edge from-layer="4384" from-port="0" to-layer="4395" to-port="0" />
		<edge from-layer="4385" from-port="0" to-layer="4393" to-port="0" />
		<edge from-layer="4386" from-port="0" to-layer="4387" to-port="1" />
		<edge from-layer="4387" from-port="2" to-layer="4389" to-port="0" />
		<edge from-layer="4388" from-port="0" to-layer="4389" to-port="1" />
		<edge from-layer="4389" from-port="2" to-layer="4391" to-port="0" />
		<edge from-layer="4390" from-port="0" to-layer="4391" to-port="1" />
		<edge from-layer="4391" from-port="2" to-layer="4392" to-port="0" />
		<edge from-layer="4392" from-port="1" to-layer="4393" to-port="1" />
		<edge from-layer="4393" from-port="2" to-layer="4394" to-port="1" />
		<edge from-layer="4394" from-port="2" to-layer="4395" to-port="1" />
		<edge from-layer="4395" from-port="2" to-layer="4499" to-port="0" />
		<edge from-layer="4395" from-port="2" to-layer="4450" to-port="0" />
		<edge from-layer="4395" from-port="2" to-layer="4406" to-port="0" />
		<edge from-layer="4396" from-port="0" to-layer="4397" to-port="0" />
		<edge from-layer="4397" from-port="1" to-layer="4400" to-port="0" />
		<edge from-layer="4398" from-port="0" to-layer="4399" to-port="0" />
		<edge from-layer="4399" from-port="1" to-layer="4400" to-port="1" />
		<edge from-layer="4400" from-port="2" to-layer="4402" to-port="0" />
		<edge from-layer="4401" from-port="0" to-layer="4402" to-port="1" />
		<edge from-layer="4402" from-port="2" to-layer="4404" to-port="0" />
		<edge from-layer="4403" from-port="0" to-layer="4404" to-port="1" />
		<edge from-layer="4404" from-port="2" to-layer="4405" to-port="0" />
		<edge from-layer="4405" from-port="1" to-layer="4406" to-port="1" />
		<edge from-layer="4406" from-port="2" to-layer="4409" to-port="0" />
		<edge from-layer="4407" from-port="0" to-layer="4408" to-port="0" />
		<edge from-layer="4408" from-port="1" to-layer="4409" to-port="1" />
		<edge from-layer="4409" from-port="2" to-layer="4411" to-port="0" />
		<edge from-layer="4410" from-port="0" to-layer="4411" to-port="1" />
		<edge from-layer="4411" from-port="2" to-layer="4413" to-port="0" />
		<edge from-layer="4412" from-port="0" to-layer="4413" to-port="1" />
		<edge from-layer="4413" from-port="2" to-layer="4427" to-port="0" />
		<edge from-layer="4413" from-port="2" to-layer="4419" to-port="0" />
		<edge from-layer="4413" from-port="2" to-layer="4414" to-port="0" />
		<edge from-layer="4414" from-port="2" to-layer="4430" to-port="0" />
		<edge from-layer="4415" from-port="0" to-layer="4419" to-port="1" />
		<edge from-layer="4416" from-port="0" to-layer="4419" to-port="2" />
		<edge from-layer="4417" from-port="0" to-layer="4419" to-port="3" />
		<edge from-layer="4418" from-port="0" to-layer="4419" to-port="4" />
		<edge from-layer="4419" from-port="5" to-layer="4422" to-port="0" />
		<edge from-layer="4420" from-port="0" to-layer="4421" to-port="0" />
		<edge from-layer="4421" from-port="1" to-layer="4422" to-port="1" />
		<edge from-layer="4422" from-port="2" to-layer="4428" to-port="0" />
		<edge from-layer="4423" from-port="0" to-layer="4427" to-port="1" />
		<edge from-layer="4424" from-port="0" to-layer="4427" to-port="2" />
		<edge from-layer="4425" from-port="0" to-layer="4427" to-port="3" />
		<edge from-layer="4426" from-port="0" to-layer="4427" to-port="4" />
		<edge from-layer="4427" from-port="5" to-layer="4428" to-port="1" />
		<edge from-layer="4428" from-port="2" to-layer="4429" to-port="0" />
		<edge from-layer="4429" from-port="2" to-layer="4430" to-port="1" />
		<edge from-layer="4430" from-port="2" to-layer="4512" to-port="0" />
		<edge from-layer="4431" from-port="0" to-layer="4436" to-port="0" />
		<edge from-layer="4432" from-port="0" to-layer="4435" to-port="1" />
		<edge from-layer="4433" from-port="0" to-layer="4435" to-port="2" />
		<edge from-layer="4434" from-port="0" to-layer="4435" to-port="3" />
		<edge from-layer="4435" from-port="4" to-layer="4436" to-port="1" />
		<edge from-layer="4436" from-port="2" to-layer="4437" to-port="0" />
		<edge from-layer="4437" from-port="1" to-layer="4439" to-port="0" />
		<edge from-layer="4438" from-port="0" to-layer="4439" to-port="2" />
		<edge from-layer="4439" from-port="3" to-layer="4475" to-port="0" />
		<edge from-layer="4440" from-port="0" to-layer="4441" to-port="0" />
		<edge from-layer="4441" from-port="1" to-layer="4444" to-port="0" />
		<edge from-layer="4442" from-port="0" to-layer="4443" to-port="0" />
		<edge from-layer="4443" from-port="1" to-layer="4444" to-port="1" />
		<edge from-layer="4444" from-port="2" to-layer="4446" to-port="0" />
		<edge from-layer="4445" from-port="0" to-layer="4446" to-port="1" />
		<edge from-layer="4446" from-port="2" to-layer="4448" to-port="0" />
		<edge from-layer="4447" from-port="0" to-layer="4448" to-port="1" />
		<edge from-layer="4448" from-port="2" to-layer="4449" to-port="0" />
		<edge from-layer="4449" from-port="1" to-layer="4450" to-port="1" />
		<edge from-layer="4450" from-port="2" to-layer="4453" to-port="0" />
		<edge from-layer="4451" from-port="0" to-layer="4452" to-port="0" />
		<edge from-layer="4452" from-port="1" to-layer="4453" to-port="1" />
		<edge from-layer="4453" from-port="2" to-layer="4455" to-port="0" />
		<edge from-layer="4454" from-port="0" to-layer="4455" to-port="1" />
		<edge from-layer="4455" from-port="2" to-layer="4457" to-port="0" />
		<edge from-layer="4456" from-port="0" to-layer="4457" to-port="1" />
		<edge from-layer="4457" from-port="2" to-layer="4471" to-port="0" />
		<edge from-layer="4457" from-port="2" to-layer="4463" to-port="0" />
		<edge from-layer="4457" from-port="2" to-layer="4458" to-port="0" />
		<edge from-layer="4458" from-port="2" to-layer="4474" to-port="0" />
		<edge from-layer="4459" from-port="0" to-layer="4463" to-port="1" />
		<edge from-layer="4460" from-port="0" to-layer="4463" to-port="2" />
		<edge from-layer="4461" from-port="0" to-layer="4463" to-port="3" />
		<edge from-layer="4462" from-port="0" to-layer="4463" to-port="4" />
		<edge from-layer="4463" from-port="5" to-layer="4466" to-port="0" />
		<edge from-layer="4464" from-port="0" to-layer="4465" to-port="0" />
		<edge from-layer="4465" from-port="1" to-layer="4466" to-port="1" />
		<edge from-layer="4466" from-port="2" to-layer="4472" to-port="0" />
		<edge from-layer="4467" from-port="0" to-layer="4471" to-port="1" />
		<edge from-layer="4468" from-port="0" to-layer="4471" to-port="2" />
		<edge from-layer="4469" from-port="0" to-layer="4471" to-port="3" />
		<edge from-layer="4470" from-port="0" to-layer="4471" to-port="4" />
		<edge from-layer="4471" from-port="5" to-layer="4472" to-port="1" />
		<edge from-layer="4472" from-port="2" to-layer="4473" to-port="0" />
		<edge from-layer="4473" from-port="2" to-layer="4474" to-port="1" />
		<edge from-layer="4474" from-port="2" to-layer="4475" to-port="1" />
		<edge from-layer="4475" from-port="2" to-layer="4654" to-port="0" />
		<edge from-layer="4475" from-port="2" to-layer="4476" to-port="0" />
		<edge from-layer="4476" from-port="2" to-layer="4477" to-port="0" />
		<edge from-layer="4477" from-port="2" to-layer="4479" to-port="0" />
		<edge from-layer="4478" from-port="0" to-layer="4479" to-port="1" />
		<edge from-layer="4479" from-port="2" to-layer="4512" to-port="1" />
		<edge from-layer="4480" from-port="0" to-layer="4485" to-port="0" />
		<edge from-layer="4481" from-port="0" to-layer="4484" to-port="1" />
		<edge from-layer="4482" from-port="0" to-layer="4484" to-port="2" />
		<edge from-layer="4483" from-port="0" to-layer="4484" to-port="3" />
		<edge from-layer="4484" from-port="4" to-layer="4485" to-port="1" />
		<edge from-layer="4485" from-port="2" to-layer="4486" to-port="0" />
		<edge from-layer="4486" from-port="1" to-layer="4488" to-port="0" />
		<edge from-layer="4487" from-port="0" to-layer="4488" to-port="2" />
		<edge from-layer="4488" from-port="3" to-layer="4507" to-port="0" />
		<edge from-layer="4489" from-port="0" to-layer="4490" to-port="0" />
		<edge from-layer="4490" from-port="1" to-layer="4493" to-port="0" />
		<edge from-layer="4491" from-port="0" to-layer="4492" to-port="0" />
		<edge from-layer="4492" from-port="1" to-layer="4493" to-port="1" />
		<edge from-layer="4493" from-port="2" to-layer="4495" to-port="0" />
		<edge from-layer="4494" from-port="0" to-layer="4495" to-port="1" />
		<edge from-layer="4495" from-port="2" to-layer="4497" to-port="0" />
		<edge from-layer="4496" from-port="0" to-layer="4497" to-port="1" />
		<edge from-layer="4497" from-port="2" to-layer="4498" to-port="0" />
		<edge from-layer="4498" from-port="1" to-layer="4499" to-port="1" />
		<edge from-layer="4499" from-port="2" to-layer="4502" to-port="0" />
		<edge from-layer="4500" from-port="0" to-layer="4501" to-port="0" />
		<edge from-layer="4501" from-port="1" to-layer="4502" to-port="1" />
		<edge from-layer="4502" from-port="2" to-layer="4504" to-port="0" />
		<edge from-layer="4503" from-port="0" to-layer="4504" to-port="1" />
		<edge from-layer="4504" from-port="2" to-layer="4506" to-port="0" />
		<edge from-layer="4505" from-port="0" to-layer="4506" to-port="1" />
		<edge from-layer="4506" from-port="2" to-layer="4507" to-port="1" />
		<edge from-layer="4507" from-port="2" to-layer="4508" to-port="0" />
		<edge from-layer="4507" from-port="2" to-layer="4653" to-port="0" />
		<edge from-layer="4508" from-port="2" to-layer="4509" to-port="0" />
		<edge from-layer="4509" from-port="2" to-layer="4511" to-port="0" />
		<edge from-layer="4510" from-port="0" to-layer="4511" to-port="1" />
		<edge from-layer="4511" from-port="2" to-layer="4512" to-port="2" />
		<edge from-layer="4512" from-port="5" to-layer="4514" to-port="0" />
		<edge from-layer="4513" from-port="0" to-layer="4514" to-port="1" />
		<edge from-layer="4514" from-port="2" to-layer="4515" to-port="0" />
		<edge from-layer="4515" from-port="2" to-layer="4526" to-port="0" />
		<edge from-layer="4516" from-port="0" to-layer="4517" to-port="0" />
		<edge from-layer="4517" from-port="1" to-layer="4520" to-port="0" />
		<edge from-layer="4518" from-port="0" to-layer="4519" to-port="0" />
		<edge from-layer="4519" from-port="1" to-layer="4520" to-port="1" />
		<edge from-layer="4520" from-port="2" to-layer="4522" to-port="0" />
		<edge from-layer="4521" from-port="0" to-layer="4522" to-port="1" />
		<edge from-layer="4522" from-port="2" to-layer="4524" to-port="0" />
		<edge from-layer="4523" from-port="0" to-layer="4524" to-port="1" />
		<edge from-layer="4524" from-port="2" to-layer="4525" to-port="0" />
		<edge from-layer="4525" from-port="1" to-layer="4526" to-port="1" />
		<edge from-layer="4526" from-port="2" to-layer="4527" to-port="1" />
		<edge from-layer="4527" from-port="2" to-layer="4538" to-port="0" />
		<edge from-layer="4527" from-port="2" to-layer="4575" to-port="0" />
		<edge from-layer="4527" from-port="2" to-layer="4531" to-port="0" />
		<edge from-layer="4528" from-port="0" to-layer="4539" to-port="0" />
		<edge from-layer="4529" from-port="0" to-layer="4537" to-port="0" />
		<edge from-layer="4530" from-port="0" to-layer="4531" to-port="1" />
		<edge from-layer="4531" from-port="2" to-layer="4533" to-port="0" />
		<edge from-layer="4532" from-port="0" to-layer="4533" to-port="1" />
		<edge from-layer="4533" from-port="2" to-layer="4535" to-port="0" />
		<edge from-layer="4534" from-port="0" to-layer="4535" to-port="1" />
		<edge from-layer="4535" from-port="2" to-layer="4536" to-port="0" />
		<edge from-layer="4536" from-port="1" to-layer="4537" to-port="1" />
		<edge from-layer="4537" from-port="2" to-layer="4538" to-port="1" />
		<edge from-layer="4538" from-port="2" to-layer="4539" to-port="1" />
		<edge from-layer="4539" from-port="2" to-layer="4562" to-port="0" />
		<edge from-layer="4539" from-port="2" to-layer="4550" to-port="0" />
		<edge from-layer="4540" from-port="0" to-layer="4541" to-port="0" />
		<edge from-layer="4541" from-port="1" to-layer="4544" to-port="0" />
		<edge from-layer="4542" from-port="0" to-layer="4543" to-port="0" />
		<edge from-layer="4543" from-port="1" to-layer="4544" to-port="1" />
		<edge from-layer="4544" from-port="2" to-layer="4546" to-port="0" />
		<edge from-layer="4545" from-port="0" to-layer="4546" to-port="1" />
		<edge from-layer="4546" from-port="2" to-layer="4548" to-port="0" />
		<edge from-layer="4547" from-port="0" to-layer="4548" to-port="1" />
		<edge from-layer="4548" from-port="2" to-layer="4549" to-port="0" />
		<edge from-layer="4549" from-port="1" to-layer="4550" to-port="1" />
		<edge from-layer="4550" from-port="2" to-layer="4551" to-port="0" />
		<edge from-layer="4551" from-port="1" to-layer="4563" to-port="0" />
		<edge from-layer="4552" from-port="0" to-layer="4553" to-port="0" />
		<edge from-layer="4553" from-port="1" to-layer="4556" to-port="0" />
		<edge from-layer="4554" from-port="0" to-layer="4555" to-port="0" />
		<edge from-layer="4555" from-port="1" to-layer="4556" to-port="1" />
		<edge from-layer="4556" from-port="2" to-layer="4558" to-port="0" />
		<edge from-layer="4557" from-port="0" to-layer="4558" to-port="1" />
		<edge from-layer="4558" from-port="2" to-layer="4560" to-port="0" />
		<edge from-layer="4559" from-port="0" to-layer="4560" to-port="1" />
		<edge from-layer="4560" from-port="2" to-layer="4561" to-port="0" />
		<edge from-layer="4561" from-port="1" to-layer="4562" to-port="1" />
		<edge from-layer="4562" from-port="2" to-layer="4563" to-port="1" />
		<edge from-layer="4563" from-port="2" to-layer="4574" to-port="0" />
		<edge from-layer="4564" from-port="0" to-layer="4565" to-port="0" />
		<edge from-layer="4565" from-port="1" to-layer="4568" to-port="0" />
		<edge from-layer="4566" from-port="0" to-layer="4567" to-port="0" />
		<edge from-layer="4567" from-port="1" to-layer="4568" to-port="1" />
		<edge from-layer="4568" from-port="2" to-layer="4570" to-port="0" />
		<edge from-layer="4569" from-port="0" to-layer="4570" to-port="1" />
		<edge from-layer="4570" from-port="2" to-layer="4572" to-port="0" />
		<edge from-layer="4571" from-port="0" to-layer="4572" to-port="1" />
		<edge from-layer="4572" from-port="2" to-layer="4573" to-port="0" />
		<edge from-layer="4573" from-port="1" to-layer="4574" to-port="1" />
		<edge from-layer="4574" from-port="2" to-layer="4575" to-port="1" />
		<edge from-layer="4575" from-port="2" to-layer="4585" to-port="0" />
		<edge from-layer="4575" from-port="2" to-layer="4744" to-port="0" />
		<edge from-layer="4575" from-port="2" to-layer="4578" to-port="0" />
		<edge from-layer="4576" from-port="0" to-layer="4584" to-port="0" />
		<edge from-layer="4577" from-port="0" to-layer="4578" to-port="1" />
		<edge from-layer="4578" from-port="2" to-layer="4580" to-port="0" />
		<edge from-layer="4579" from-port="0" to-layer="4580" to-port="1" />
		<edge from-layer="4580" from-port="2" to-layer="4582" to-port="0" />
		<edge from-layer="4581" from-port="0" to-layer="4582" to-port="1" />
		<edge from-layer="4582" from-port="2" to-layer="4583" to-port="0" />
		<edge from-layer="4583" from-port="1" to-layer="4584" to-port="1" />
		<edge from-layer="4584" from-port="2" to-layer="4585" to-port="1" />
		<edge from-layer="4585" from-port="2" to-layer="4586" to-port="1" />
		<edge from-layer="4586" from-port="2" to-layer="4626" to-port="0" />
		<edge from-layer="4586" from-port="2" to-layer="4597" to-port="0" />
		<edge from-layer="4586" from-port="2" to-layer="4696" to-port="0" />
		<edge from-layer="4587" from-port="0" to-layer="4588" to-port="0" />
		<edge from-layer="4588" from-port="1" to-layer="4591" to-port="0" />
		<edge from-layer="4589" from-port="0" to-layer="4590" to-port="0" />
		<edge from-layer="4590" from-port="1" to-layer="4591" to-port="1" />
		<edge from-layer="4591" from-port="2" to-layer="4593" to-port="0" />
		<edge from-layer="4592" from-port="0" to-layer="4593" to-port="1" />
		<edge from-layer="4593" from-port="2" to-layer="4595" to-port="0" />
		<edge from-layer="4594" from-port="0" to-layer="4595" to-port="1" />
		<edge from-layer="4595" from-port="2" to-layer="4596" to-port="0" />
		<edge from-layer="4596" from-port="1" to-layer="4597" to-port="1" />
		<edge from-layer="4597" from-port="2" to-layer="4600" to-port="0" />
		<edge from-layer="4598" from-port="0" to-layer="4599" to-port="0" />
		<edge from-layer="4599" from-port="1" to-layer="4600" to-port="1" />
		<edge from-layer="4600" from-port="2" to-layer="4602" to-port="0" />
		<edge from-layer="4601" from-port="0" to-layer="4602" to-port="1" />
		<edge from-layer="4602" from-port="2" to-layer="4604" to-port="0" />
		<edge from-layer="4603" from-port="0" to-layer="4604" to-port="1" />
		<edge from-layer="4604" from-port="2" to-layer="4605" to-port="1" />
		<edge from-layer="4605" from-port="2" to-layer="4606" to-port="0" />
		<edge from-layer="4605" from-port="2" to-layer="4725" to-port="0" />
		<edge from-layer="4607" from-port="0" to-layer="4612" to-port="0" />
		<edge from-layer="4608" from-port="0" to-layer="4611" to-port="1" />
		<edge from-layer="4609" from-port="0" to-layer="4611" to-port="2" />
		<edge from-layer="4610" from-port="0" to-layer="4611" to-port="3" />
		<edge from-layer="4611" from-port="4" to-layer="4612" to-port="1" />
		<edge from-layer="4612" from-port="2" to-layer="4613" to-port="0" />
		<edge from-layer="4613" from-port="1" to-layer="4615" to-port="0" />
		<edge from-layer="4614" from-port="0" to-layer="4615" to-port="2" />
		<edge from-layer="4615" from-port="3" to-layer="4651" to-port="0" />
		<edge from-layer="4616" from-port="0" to-layer="4617" to-port="0" />
		<edge from-layer="4617" from-port="1" to-layer="4620" to-port="0" />
		<edge from-layer="4618" from-port="0" to-layer="4619" to-port="0" />
		<edge from-layer="4619" from-port="1" to-layer="4620" to-port="1" />
		<edge from-layer="4620" from-port="2" to-layer="4622" to-port="0" />
		<edge from-layer="4621" from-port="0" to-layer="4622" to-port="1" />
		<edge from-layer="4622" from-port="2" to-layer="4624" to-port="0" />
		<edge from-layer="4623" from-port="0" to-layer="4624" to-port="1" />
		<edge from-layer="4624" from-port="2" to-layer="4625" to-port="0" />
		<edge from-layer="4625" from-port="1" to-layer="4626" to-port="1" />
		<edge from-layer="4626" from-port="2" to-layer="4629" to-port="0" />
		<edge from-layer="4627" from-port="0" to-layer="4628" to-port="0" />
		<edge from-layer="4628" from-port="1" to-layer="4629" to-port="1" />
		<edge from-layer="4629" from-port="2" to-layer="4631" to-port="0" />
		<edge from-layer="4630" from-port="0" to-layer="4631" to-port="1" />
		<edge from-layer="4631" from-port="2" to-layer="4633" to-port="0" />
		<edge from-layer="4632" from-port="0" to-layer="4633" to-port="1" />
		<edge from-layer="4633" from-port="2" to-layer="4647" to-port="0" />
		<edge from-layer="4633" from-port="2" to-layer="4634" to-port="0" />
		<edge from-layer="4633" from-port="2" to-layer="4639" to-port="0" />
		<edge from-layer="4634" from-port="2" to-layer="4650" to-port="0" />
		<edge from-layer="4635" from-port="0" to-layer="4639" to-port="1" />
		<edge from-layer="4636" from-port="0" to-layer="4639" to-port="2" />
		<edge from-layer="4637" from-port="0" to-layer="4639" to-port="3" />
		<edge from-layer="4638" from-port="0" to-layer="4639" to-port="4" />
		<edge from-layer="4639" from-port="5" to-layer="4642" to-port="0" />
		<edge from-layer="4640" from-port="0" to-layer="4641" to-port="0" />
		<edge from-layer="4641" from-port="1" to-layer="4642" to-port="1" />
		<edge from-layer="4642" from-port="2" to-layer="4648" to-port="0" />
		<edge from-layer="4643" from-port="0" to-layer="4647" to-port="1" />
		<edge from-layer="4644" from-port="0" to-layer="4647" to-port="2" />
		<edge from-layer="4645" from-port="0" to-layer="4647" to-port="3" />
		<edge from-layer="4646" from-port="0" to-layer="4647" to-port="4" />
		<edge from-layer="4647" from-port="5" to-layer="4648" to-port="1" />
		<edge from-layer="4648" from-port="2" to-layer="4649" to-port="0" />
		<edge from-layer="4649" from-port="2" to-layer="4650" to-port="1" />
		<edge from-layer="4650" from-port="2" to-layer="4651" to-port="1" />
		<edge from-layer="4651" from-port="2" to-layer="4652" to-port="0" />
		<edge from-layer="4651" from-port="2" to-layer="4721" to-port="0" />
		<edge from-layer="4685" from-port="0" to-layer="4803" to-port="0" />
		<edge from-layer="4686" from-port="0" to-layer="4687" to-port="0" />
		<edge from-layer="4687" from-port="1" to-layer="4690" to-port="0" />
		<edge from-layer="4688" from-port="0" to-layer="4689" to-port="0" />
		<edge from-layer="4689" from-port="1" to-layer="4690" to-port="1" />
		<edge from-layer="4690" from-port="2" to-layer="4692" to-port="0" />
		<edge from-layer="4691" from-port="0" to-layer="4692" to-port="1" />
		<edge from-layer="4692" from-port="2" to-layer="4694" to-port="0" />
		<edge from-layer="4693" from-port="0" to-layer="4694" to-port="1" />
		<edge from-layer="4694" from-port="2" to-layer="4695" to-port="0" />
		<edge from-layer="4695" from-port="1" to-layer="4696" to-port="1" />
		<edge from-layer="4696" from-port="2" to-layer="4699" to-port="0" />
		<edge from-layer="4697" from-port="0" to-layer="4698" to-port="0" />
		<edge from-layer="4698" from-port="1" to-layer="4699" to-port="1" />
		<edge from-layer="4699" from-port="2" to-layer="4701" to-port="0" />
		<edge from-layer="4700" from-port="0" to-layer="4701" to-port="1" />
		<edge from-layer="4701" from-port="2" to-layer="4703" to-port="0" />
		<edge from-layer="4702" from-port="0" to-layer="4703" to-port="1" />
		<edge from-layer="4703" from-port="2" to-layer="4717" to-port="0" />
		<edge from-layer="4703" from-port="2" to-layer="4709" to-port="0" />
		<edge from-layer="4703" from-port="2" to-layer="4704" to-port="0" />
		<edge from-layer="4704" from-port="2" to-layer="4720" to-port="0" />
		<edge from-layer="4705" from-port="0" to-layer="4709" to-port="1" />
		<edge from-layer="4706" from-port="0" to-layer="4709" to-port="2" />
		<edge from-layer="4707" from-port="0" to-layer="4709" to-port="3" />
		<edge from-layer="4708" from-port="0" to-layer="4709" to-port="4" />
		<edge from-layer="4709" from-port="5" to-layer="4712" to-port="0" />
		<edge from-layer="4710" from-port="0" to-layer="4711" to-port="0" />
		<edge from-layer="4711" from-port="1" to-layer="4712" to-port="1" />
		<edge from-layer="4712" from-port="2" to-layer="4718" to-port="0" />
		<edge from-layer="4713" from-port="0" to-layer="4717" to-port="1" />
		<edge from-layer="4714" from-port="0" to-layer="4717" to-port="2" />
		<edge from-layer="4715" from-port="0" to-layer="4717" to-port="3" />
		<edge from-layer="4716" from-port="0" to-layer="4717" to-port="4" />
		<edge from-layer="4717" from-port="5" to-layer="4718" to-port="1" />
		<edge from-layer="4718" from-port="2" to-layer="4719" to-port="0" />
		<edge from-layer="4719" from-port="2" to-layer="4720" to-port="1" />
		<edge from-layer="4720" from-port="2" to-layer="4729" to-port="0" />
		<edge from-layer="4721" from-port="2" to-layer="4722" to-port="0" />
		<edge from-layer="4722" from-port="2" to-layer="4724" to-port="0" />
		<edge from-layer="4723" from-port="0" to-layer="4724" to-port="1" />
		<edge from-layer="4724" from-port="2" to-layer="4729" to-port="1" />
		<edge from-layer="4725" from-port="2" to-layer="4726" to-port="0" />
		<edge from-layer="4726" from-port="2" to-layer="4728" to-port="0" />
		<edge from-layer="4727" from-port="0" to-layer="4728" to-port="1" />
		<edge from-layer="4728" from-port="2" to-layer="4729" to-port="2" />
		<edge from-layer="4729" from-port="5" to-layer="4731" to-port="0" />
		<edge from-layer="4730" from-port="0" to-layer="4731" to-port="1" />
		<edge from-layer="4731" from-port="2" to-layer="4732" to-port="0" />
		<edge from-layer="4732" from-port="2" to-layer="4743" to-port="0" />
		<edge from-layer="4733" from-port="0" to-layer="4734" to-port="0" />
		<edge from-layer="4734" from-port="1" to-layer="4737" to-port="0" />
		<edge from-layer="4735" from-port="0" to-layer="4736" to-port="0" />
		<edge from-layer="4736" from-port="1" to-layer="4737" to-port="1" />
		<edge from-layer="4737" from-port="2" to-layer="4739" to-port="0" />
		<edge from-layer="4738" from-port="0" to-layer="4739" to-port="1" />
		<edge from-layer="4739" from-port="2" to-layer="4741" to-port="0" />
		<edge from-layer="4740" from-port="0" to-layer="4741" to-port="1" />
		<edge from-layer="4741" from-port="2" to-layer="4742" to-port="0" />
		<edge from-layer="4742" from-port="1" to-layer="4743" to-port="1" />
		<edge from-layer="4743" from-port="2" to-layer="4744" to-port="1" />
		<edge from-layer="4744" from-port="2" to-layer="4792" to-port="0" />
		<edge from-layer="4744" from-port="2" to-layer="4755" to-port="0" />
		<edge from-layer="4744" from-port="2" to-layer="4748" to-port="0" />
		<edge from-layer="4745" from-port="0" to-layer="4756" to-port="0" />
		<edge from-layer="4746" from-port="0" to-layer="4754" to-port="0" />
		<edge from-layer="4747" from-port="0" to-layer="4748" to-port="1" />
		<edge from-layer="4748" from-port="2" to-layer="4750" to-port="0" />
		<edge from-layer="4749" from-port="0" to-layer="4750" to-port="1" />
		<edge from-layer="4750" from-port="2" to-layer="4752" to-port="0" />
		<edge from-layer="4751" from-port="0" to-layer="4752" to-port="1" />
		<edge from-layer="4752" from-port="2" to-layer="4753" to-port="0" />
		<edge from-layer="4753" from-port="1" to-layer="4754" to-port="1" />
		<edge from-layer="4754" from-port="2" to-layer="4755" to-port="1" />
		<edge from-layer="4755" from-port="2" to-layer="4756" to-port="1" />
		<edge from-layer="4756" from-port="2" to-layer="4779" to-port="0" />
		<edge from-layer="4756" from-port="2" to-layer="4767" to-port="0" />
		<edge from-layer="4757" from-port="0" to-layer="4758" to-port="0" />
		<edge from-layer="4758" from-port="1" to-layer="4761" to-port="0" />
		<edge from-layer="4759" from-port="0" to-layer="4760" to-port="0" />
		<edge from-layer="4760" from-port="1" to-layer="4761" to-port="1" />
		<edge from-layer="4761" from-port="2" to-layer="4763" to-port="0" />
		<edge from-layer="4762" from-port="0" to-layer="4763" to-port="1" />
		<edge from-layer="4763" from-port="2" to-layer="4765" to-port="0" />
		<edge from-layer="4764" from-port="0" to-layer="4765" to-port="1" />
		<edge from-layer="4765" from-port="2" to-layer="4766" to-port="0" />
		<edge from-layer="4766" from-port="1" to-layer="4767" to-port="1" />
		<edge from-layer="4767" from-port="2" to-layer="4768" to-port="0" />
		<edge from-layer="4768" from-port="1" to-layer="4780" to-port="0" />
		<edge from-layer="4769" from-port="0" to-layer="4770" to-port="0" />
		<edge from-layer="4770" from-port="1" to-layer="4773" to-port="0" />
		<edge from-layer="4771" from-port="0" to-layer="4772" to-port="0" />
		<edge from-layer="4772" from-port="1" to-layer="4773" to-port="1" />
		<edge from-layer="4773" from-port="2" to-layer="4775" to-port="0" />
		<edge from-layer="4774" from-port="0" to-layer="4775" to-port="1" />
		<edge from-layer="4775" from-port="2" to-layer="4777" to-port="0" />
		<edge from-layer="4776" from-port="0" to-layer="4777" to-port="1" />
		<edge from-layer="4777" from-port="2" to-layer="4778" to-port="0" />
		<edge from-layer="4778" from-port="1" to-layer="4779" to-port="1" />
		<edge from-layer="4779" from-port="2" to-layer="4780" to-port="1" />
		<edge from-layer="4780" from-port="2" to-layer="4791" to-port="0" />
		<edge from-layer="4781" from-port="0" to-layer="4782" to-port="0" />
		<edge from-layer="4782" from-port="1" to-layer="4785" to-port="0" />
		<edge from-layer="4783" from-port="0" to-layer="4784" to-port="0" />
		<edge from-layer="4784" from-port="1" to-layer="4785" to-port="1" />
		<edge from-layer="4785" from-port="2" to-layer="4787" to-port="0" />
		<edge from-layer="4786" from-port="0" to-layer="4787" to-port="1" />
		<edge from-layer="4787" from-port="2" to-layer="4789" to-port="0" />
		<edge from-layer="4788" from-port="0" to-layer="4789" to-port="1" />
		<edge from-layer="4789" from-port="2" to-layer="4790" to-port="0" />
		<edge from-layer="4790" from-port="1" to-layer="4791" to-port="1" />
		<edge from-layer="4791" from-port="2" to-layer="4792" to-port="1" />
		<edge from-layer="4792" from-port="2" to-layer="4802" to-port="0" />
		<edge from-layer="4792" from-port="2" to-layer="4795" to-port="0" />
		<edge from-layer="4793" from-port="0" to-layer="4801" to-port="0" />
		<edge from-layer="4794" from-port="0" to-layer="4795" to-port="1" />
		<edge from-layer="4795" from-port="2" to-layer="4797" to-port="0" />
		<edge from-layer="4796" from-port="0" to-layer="4797" to-port="1" />
		<edge from-layer="4797" from-port="2" to-layer="4799" to-port="0" />
		<edge from-layer="4798" from-port="0" to-layer="4799" to-port="1" />
		<edge from-layer="4799" from-port="2" to-layer="4800" to-port="0" />
		<edge from-layer="4800" from-port="1" to-layer="4801" to-port="1" />
		<edge from-layer="4801" from-port="2" to-layer="4802" to-port="1" />
		<edge from-layer="4802" from-port="2" to-layer="4803" to-port="1" />
		<edge from-layer="4803" from-port="2" to-layer="4804" to-port="0" />
		<edge from-layer="4804" from-port="2" to-layer="4805" to-port="0" />
	</edges>
	<rt_info>
		<Runtime_version value="2025.2.0-19140-c01cd93e24d-releases/2025/2" />
		<conversion_parameters>
			<framework value="pytorch" />
			<is_python_object value="True" />
		</conversion_parameters>
		<nncf>
			<friendly_names_were_updated value="True" />
			<weight_compression>
				<advanced_parameters value="{'statistics_path': None, 'awq_params': {'subset_size': 32, 'percent_to_apply': 0.002, 'alpha_min': 0.0, 'alpha_max': 1.0, 'steps': 100}, 'scale_estimation_params': {'subset_size': 64, 'initial_steps': 5, 'scale_steps': 5, 'weight_penalty': -1.0}, 'gptq_params': {'damp_percent': 0.1, 'block_size': 128, 'subset_size': 128}, 'lora_correction_params': {'adapter_rank': 8, 'num_iterations': 3, 'apply_regularization': True, 'subset_size': 128, 'use_int8_adapters': True}}" />
				<all_layers value="False" />
				<awq value="False" />
				<backup_mode value="int8_asym" />
				<gptq value="False" />
				<group_size value="128" />
				<ignored_scope value="[]" />
				<lora_correction value="False" />
				<mode value="int4_asym" />
				<ratio value="1.0" />
				<scale_estimation value="False" />
				<sensitivity_metric value="weight_quantization_error" />
			</weight_compression>
		</nncf>
		<optimum>
			<nncf_version value="2.15.0" />
			<optimum_intel_version value="1.26.0.dev0+3c8e4ba" />
			<optimum_version value="1.27.0" />
			<pytorch_version value="2.8.0+cpu" />
			<transformers_version value="4.51.3" />
		</optimum>
		<runtime_options>
			<ACTIVATIONS_SCALE_FACTOR value="8.0" />
		</runtime_options>
	</rt_info>
</net>
